palm_detection/pretrained_weights/conv2d_9_Kernel.npy (npy, 16464 bytes, 1 tensors)

array f4 [64, 1, 1, 64]
0.038354892 0.041010242 -0.050764363 0.012788306 0.036882248 -0.009710917 -0.01259801 0.042581752
0.013406874 -0.02859669 0.0024488391 0.00487453 0.014652022 -0.06859595 -0.015630662 0.011594356
-0.06804494 -0.016459482 -0.005825141 -0.0038139876 -0.004411689 0.01574617 -0.007704177 0.010214646
0.0013184632 -0.0031115229 -0.0042390595 0.023242358 -0.013595905 -0.0023032809 0.023643302 0.0022636398
0.051048864 0.0202276 -0.03804812 -0.02674434 -0.0379502 0.07656612 0.0044705514 -0.002172552
-0.00023590963 -0.018037923 0.0054371613 0.012968152 0.003024075 -0.057957742 0.030557426 0.1271865
0.0040997714 0.008004806 -0.0015436322 -0.015766304 0.01590818 0.007990053 0.0030007137 -0.029488748
-0.008972704 0.0084293485 -0.0021823447 0.03812678 -0.017704317 -0.032446764 -0.008249397 -0.04130695
0.0163835 0.057551745 0.04610855 0.009259711 0.02255032 -0.0033489459 -0.010473155 -0.016737059
-0.0036715327 -0.00046578003 -0.043722995 0.033249658 0.005460748 -0.044988357 0.020622715 0.041492254
-0.020749506 -0.00842444 0.009180507 0.014175072 -0.0081387395 -0.02941525 -0.027724627 -0.04462459
-0.033805754 0.013935091 -0.11269067 0.027888745 0.034611914 -0.021345388 0.020435162 0.0013851481
0.041947726 -0.08720606 -0.026593562 0.043452512 0.07384349 -0.05520216 0.06372919 -0.0003133496
0.025718544 -0.025911588 0.020086473 0.0032441467 -0.0068135117 -0.0728355 0.013672721 0.035233267
-0.0035639966 -0.04780108 -0.018113328 -0.021720394 0.047267843 0.028289976 0.0031434218 -0.06851294
0.025144788 -0.081023194 0.00025513011 0.028136488 0.060245283 0.00074428314 0.043081824 0.028021235
0.02512707 -0.023671463 -0.012280792 -0.006900541 0.0008870185 -0.013880375 0.023172813 0.033617787
0.000833642 0.006777345 -0.020901494 0.023775592 0.006021559 -0.020209763 0.010903395 -0.007918807
0.01452789 0.0010221326 0.0076582623 0.013664711 0.005394591 -0.019859225 0.013961597 -0.02906825
0.020127894 -0.002915483 0.023395432 0.01545159 -0.0028561694 0.035693236 -0.041332558 0.0018733075
-0.009319278 0.056435484 -0.01678373 -0.0153604355 0.009083085 -0.026629748 0.030331986 -0.009910721
-0.016407477 -0.012003979 -0.0021244981 -0.0305707 0.012757887 -0.010493006 -0.022941263 -0.003693656
-0.01391929 -0.008222171 -0.008886252 0.0022269709 -0.001276398 0.0035259975 0.00507424 -0.0070673563
-0.01279372 0.0045101717 0.002066871 0.017080998 -0.007280387 -0.007979782 -0.022672692 0.023587827
-0.041537404 0.03250741 -0.04942911 0.046664495 0.027984364 -0.05281025 -0.06403428 -0.016258236
0.005477482 0.04556829 -0.051207 0.04817293 -0.07530979 -0.00082122104 0.039123442 -0.053552344
0.036626536 0.055068403 0.027748855 -0.009289973 0.02170844 0.00074560556 0.03311529 0.036988135
0.02880585 -0.03329547 0.09722279 -0.024408612 0.04722213 -0.022576595 -0.0101499725 -0.013127833
0.0424294 -0.010246954 0.09941994 0.07998115 -0.061531022 -0.08058095 -0.054809254 -0.037495956
-0.013181415 0.05425611 0.018149365 -0.0060103135 -0.04179625 0.042247925 0.048158906 -0.030774152
-0.06416454 -0.00028238574 -0.084903345 -0.029091194 0.04480532 -0.061332908 0.059855383 -0.018556187
-0.019208644 0.0018963251 0.00026526322 -0.055651173 0.10241781 0.005785195 0.023829825 -0.06448135
00000000: 051a 1d3d 5bfa 273d 4bee 4fbd 0b86 513c
00000010: d711 173d 8a1a 1fbc e267 4ebc 346a 2e3d
00000020: 81a8 5b3c 9b43 eabc b47c 203b 85ba 9f3b
00000030: 090f 703c 097c 8cbd e00b 80bc 41f6 3d3c
00000040: 255b 8bbd 09d6 86bc d3e0 bebb 18f4 79bb
00000050: ee8f 90bb 1dfe 803c 5273 fcbb 555b 273c
00000060: 49d0 ac3a b1ea 4bbb cfe7 8abb c266 be3c
00000070: 5cc1 5ebc a4f2 16bb 99af c13c 9359 143b
00000080: 9d18 513d 5ab4 a53c 58d8 1bbd f216 dbbc
00000090: ab71 1bbd b3ce 9c3d b47d 923b 6061 0ebb
000000a0: 825e 77b9 44c4 93bc 372a b23b 5f78 543c
000000b0: 8f2f 463b 1965 6dbd 9153 fa3c 2e3d 023e
000000c0: 6057 863b 9726 033c b453 caba 5628 81bc
000000d0: df51 823c b6e8 023c 9fa7 443b 6392 f1bc
000000e0: 4002 13bc 401b 0a3c ab05 0fbb d42a 1c3d
000000f0: a508 91bc e6e6 04bd 7b28 07bc 7a31 29bd
00000100: b136 863c 61bb 6b3d 52dc 3c3d 0bb6 173c
00000110: 73bb b83c fd79 5bbb 9997 2bbc 281c 89bc
00000120: 199e 70bb f033 f4b9 e216 33bd cb30 083d
00000130: 13f0 b23b b645 38bd f8f0 a83c c8f3 293d
00000140: defa a9bc aa06 0abc d669 163c 903e 683c
00000150: 5958 05bc 40f8 f0bc c21e e3bc 46c8 36bd
00000160: e777 0abd 0250 643c 5eca e6bd f076 e43c
00000170: 39c5 0d3d 86dc aebc a467 a73c dc8d b53a
00000180: 61d1 2b3d 1799 b2bd beda d9bc 43fb 313d
00000190: 413b 973d a91b 62bd 7384 823d 1249 a4b9
000001a0: b2af d23c 8a44 d4bc 638c a43c c09b 543b
000001b0: e143 dfbb c72a 95bd 8c03 603c c250 103d
000001c0: f191 69bb 11cb 43bd 6762 94bc f8ee b1bc
000001d0: ed9b 413d 61c0 e73c de01 4e3b 8350 8cbd
000001e0: 71fc cd3c 7def a5bd fcc2 8539 7e7e e63c
000001f0: c2c3 763d ff1b 433a 9176 303d ca8c e53c
00000200: 49d7 cd3c a8ea c1bc 6035 49bc ef1d e2bb
00000210: ce86 683a 836a 63bc e9d4 bd3c ceb2 093d
00000220: c588 5a3a 7e14 de3b 9c39 abbc 08c5 c23c
00000230: 7f50 c53b f28e a5bc 27a4 323c e2bd 01bc
00000240: 6306 6e3c 14f9 853a 29f2 fa3b f4e1 5f3c
00000250: 1cc5 b03b d0af a2bc 2fbf 643c 8a20 eebc
00000260: 41e3 a43c b011 3fbb c7a7 bf3c aa28 7d3c
00000270: 922e 3bbb 1233 123d 544c 29bd c589 f53a
00000280: e3af 18bc e528 673d 087e 89bc 56aa 7bbc
00000290: 38d1 143c a126 dabc c97a f83c 9460 22bc
000002a0: f968 86bc 56ac 44bc 2a3b 0bbb 686f fabc
000002b0: 7506 513c dbea 2bbc 51ef bbbc 4411 72bb
000002c0: bc0d 64bc 49b6 06bc a497 11bc 5ff2 113b
000002d0: cf4c a7ba 6c14 673b cf45 a63b 4895 e7bb
000002e0: c09c 51bc 10ca 933b 5774 073b 73ed 8b3c
000002f0: 5090 eebb a2bd 02bc 15bc b9bc 423b c13c
00000300: 2023 2abd 7d26 053d 2e76 4abd 4523 3f3d
00000310: 773f e53c 904f 58bd 6824 83bd fe2f 85bc
00000320: 737c b33b d1a5 3a3d 6ebe 51bd fa50 453d
00000330: 053c 9abd 3647 57ba e73f 203d b459 5bbd
00000340: b505 163d 688f 613d 9151 e33c f934 18bc
00000350: e6d5 b13c be74 433a e6a3 073d df80 173d
00000360: 3ffa eb3c d560 08bd be1c c73d 92f4 c7bc
00000370: fe6b 413d 8df2 b8bc 124c 26bc 1f16 57bc
00000380: 73ca 2d3d d7e2 27bc ae9c cb3d 28cd a33d
00000390: f407 7cbd a007 a5bd ab7f 60bd 5c95 19bd
000003a0: ddf6 57bc a83b 5e3d faad 943c 2af2 c4bb
000003b0: 8b32 2bbd 290c 2d3d 4642 453d 131a fcbc
000003c0: b368 83bd 2c0d 94b9 cee1 adbd a850 eebc
000003d0: c985 373d 3738 7bbd eb2a 753d 2503 98bc
000003e0: 725b 9dbc 1d8e f83a 0713 8b39 7cf2 63bd
000003f0: 6ec0 d13d bc91 bd3b c436 c33c cc0e 84bd
