palm_detection/pretrained_weights/conv2d_29_Kernel.npy (npy, 262240 bytes, 1 tensors)

array f4 [256, 1, 1, 256]
0	0xbbdf25c2	-0.006809921
1	0x3beb71e9	0.00718521
2	0xbc10693b	-0.008814151
3	0x381297a3	3.4950335e-05
4	0xba283b8c	-0.00064175646
5	0x3c1eb788	0.009687312
6	0xbc1abd10	-0.00944449
7	0x3b6be024	0.0035991753
8	0xbb4a9e3c	-0.003091707
9	0x3c3bf8fe	0.011472939
10	0xbc42c2cf	-0.011887266
11	0xb8d38443	-0.000100859
12	0x3c6f2ff0	0.014598832
13	0xbbdaeff3	-0.006681436
14	0xbba809a3	-0.005128102
15	0x3b66b19c	0.0035201078
16	0x3bcfe3ac	0.0063442793
17	0xba922a5b	-0.0011151539
18	0x3c050806	0.008119589
19	0xbc833f97	-0.016021533
20	0xbab023b9	-0.001343838
21	0x3c58cc70	0.013232335
22	0x3c09ed36	0.008418372
23	0x3c0e4745	0.008683984
24	0x3c1ef15c	0.009701099
25	0xbc06c6cd	-0.008226109
26	0xbc58fff9	-0.013244622
27	0xbbebdc67	-0.007197905
28	0xbb64b487	-0.0034897642
29	0xba0867ae	-0.0005203438
30	0xbc449a9b	-0.011999751
31	0xba673ab2	-0.0008820697
32	0x3bab4e20	0.005227819
33	0xbc5278d8	-0.012846194
34	0x3bfef7c3	0.0077810003
35	0xbbd279f2	-0.0064232284
36	0x3bcf75f5	0.0063312002
37	0xbbdcea5c	-0.006741805
38	0xbc2e4eb1	-0.010638879
39	0xbb94207a	-0.004520473
40	0x3bbdf7b3	0.0057973503
41	0x372f5b4e	1.0452071e-05
42	0x3c8ae832	0.016956422
43	0xbcdaa3cf	-0.026689438
44	0x3c45ec90	0.012080327
45	0x3a7943e9	0.00095087156
46	0xbb69b29a	-0.0035659433
47	0x3c5c6842	0.013452591
48	0x3b7d7a86	0.0038677766
49	0xb9d0703f	-0.0003975648
50	0xbc0d1aef	-0.0086123785
51	0xba152c8c	-0.0005690537
52	0xbbb629dc	-0.0055591892
53	0xb702b831	-7.791489e-06
54	0x3ca5c20f	0.020234136
55	0xba9e6111	-0.0012083371
56	0xbc3b9203	-0.011448386
57	0x3a990da4	0.0011677039
58	0x3b7cfbb1	0.0038602168
59	0xbbe17c55	-0.0068812766
60	0x3bcd6411	0.0062680324
61	0xbbd8476b	-0.0066003106
62	0x3bb36692	0.005474874
63	0xbc4c8074	-0.0124817975
64	0xbbbd980d	-0.005785948
65	0xbc8e90c2	-0.01740301
66	0x3ade14a0	0.0016943403
67	0x3b467b86	0.0030286028
68	0xbc9e91d5	-0.019356648
69	0xbc300b7f	-0.010744928
70	0x3c4960b2	0.01229112
71	0xbd07cdce	-0.033155255
72	0xbb64894f	-0.0034871881
73	0xbc1b6392	-0.009484189
74	0x3c195c79	0.009360426
75	0x3ca1f9e0	0.01977247
76	0x3bb246f0	0.0054405853
77	0xbb5fffdd	-0.0034179606
78	0x3ac38638	0.001491732
79	0xbbbf6d1b	-0.005841864
80	0x3bbb67d5	0.005719165
81	0xbbba0be0	-0.005677685
82	0xbc175af1	-0.009237991
83	0xbbccdb1b	-0.0062517053
84	0x3be6dbc0	0.007045239
85	0xbc846d08	-0.016165271
86	0xbb64303c	-0.003481879
87	0xbb0e9954	-0.002175887
88	0xbba2d57e	-0.004969298
89	0x3c24afad	0.01005165
90	0xbbd38680	-0.0064552426
91	0x3c5c3049	0.013439246
92	0x3bd94a3d	0.0066311643
93	0x3c39ec72	0.011347877
94	0xbc4350d8	-0.01192113
95	0x3be6d21a	0.007044089
96	0x3bfbf7a7	0.0076894346
97	0x3bda3b6d	0.006659916
98	0x3bc35483	0.0059610023
99	0xbbcb21cb	-0.006199097
100	0x3a1510ad	0.0005686384
101	0x3bc90be8	0.0061354525
102	0xbbc24327	-0.0059284153
103	0x3814bf5a	3.546416e-05
104	0x389d6c2f	7.506494e-05
105	0x3b196b62	0.0023409952
106	0xbaef66b1	-0.0018264857
107	0x3b2e5642	0.0026601707
108	0xbb082181	-0.0020771923
109	0x3c2b25a5	0.010445987
110	0x3c5a4416	0.013321897
111	0xbbb9680e	-0.0056581562
112	0xbbdc464d	-0.0067222477
113	0xbbc89cde	-0.0061222157
114	0x3bbd74e7	0.005781758
115	0xbbefb9ba	-0.0073158415
116	0x3ba85417	0.0051369774
117	0x3b88a600	0.0041701794
118	0x3b44f4a6	0.0030053048
119	0x3ae47ca5	0.0017432166
120	0xbbb61fe6	-0.005558002
121	0xbbcd4f08	-0.006265525
122	0x3afcfe67	0.0019301892
123	0x3c77e3bc	0.01512998
124	0x3ba9b7a3	0.005179362
125	0x3ac0d122	0.0014710764
126	0xbaf2a359	-0.0018511816
127	0x3b4649d8	0.0030256417
128	0xbb9eaff2	-0.0048427517
129	0x39748e59	0.00023322682
130	0xbc841b63	-0.01612634
131	0x3c5c9cac	0.013465088
132	0xbb972893	-0.004612991
133	0x3c804ab0	0.015660614
134	0xbaca44f0	-0.0015431922
135	0x3cb58031	0.022155853
136	0xbbfb612f	-0.0076714973
137	0xba0b5398	-0.00053148856
138	0x3c2d7de3	0.010589096
139	0xbb795d0d	-0.0038049847
140	0x3bcf661f	0.0063293125
141	0x3be43bbe	0.0069651296
142	0xbc42b18c	-0.011883151
143	0x3be46443	0.00696996
144	0x3bc4533b	0.005991367
145	0xb8fecbf7	-0.00012149655
146	0x3b34f4bd	0.0027611696
147	0x3abe6858	0.0014526946
148	0x3c159dfb	0.009131904
149	0x3c202e28	0.0097766295
150	0x3bc85402	0.00611353
151	0xbb282bba	-0.0025660829
152	0xbbb98fda	-0.0056629004
153	0x3c7c16d8	0.015386306
154	0xbac89543	-0.0015303273
155	0x3c0a5806	0.008443838
156	0xbb1c779e	-0.0023875008
157	0x3bc1135f	0.005892202
158	0x3b9be774	0.004757816
159	0x3aa80dbd	0.0012821477
160	0x3bc8d9da	0.0061294856
161	0x3c1332e2	0.008984299
162	0x3c084375	0.008316864
163	0xbaa667b1	-0.0012695697
164	0xba0e91e9	-0.00054386124
165	0xbacdd1e5	-0.0015702812
166	0x3b59983c	0.003320231
167	0x3743483d	1.1639725e-05
168	0xbc2c3a66	-0.01051197
169	0xbc25e5d5	-0.010125597
170	0x3c488a87	0.012240059
171	0x3c39bfd2	0.011337237
172	0x3b66171b	0.0035108987
173	0xbb2d1ea2	-0.0026415964
174	0xbb1ba225	-0.0023747769
175	0x3bd55ca0	0.006511286
176	0x3b65dd9f	0.0035074723
177	0x3c30dc0d	0.010794652
178	0x3a835616	0.0010020162
179	0x3b19a46e	0.0023443955
180	0x3b500860	0.0031743273
181	0xbaf89da2	-0.0018967877
182	0xbbb3ce7c	-0.0054872613
183	0xbbeb0322	-0.0071720043
184	0xbc8da2bb	-0.01728951
185	0xbbbe8c38	-0.005815055
186	0x3b7f48a5	0.0038953212
187	0xbc4285e9	-0.011872747
188	0x3cc1bb7a	0.023648966
189	0x3b5aa0b2	0.0033359942
190	0xbbb244c7	-0.005440328
191	0xbc03c1fe	-0.008041857
192	0x3b9cb601	0.0047824387
193	0x3b17ae9d	0.002314485
194	0xbba287a0	-0.0049600154
195	0xbbf7ce2b	-0.007562419
196	0x3bbad4d8	0.0057016425
197	0x3a2f251e	0.0006681251
198	0xbb3eb8a2	-0.002910175
199	0x3c4466e1	0.011987419
200	0x3b23e6b8	0.0025009345
201	0xbafa9634	-0.001911825
202	0x3c04cf1f	0.008106022
203	0xbc7bfedc	-0.015380587
204	0x3bfabe8f	0.007652111
205	0xbc3e0f05	-0.011600261
206	0xbbf82146	-0.007572326
207	0xbbc0e34b	-0.0058864704
208	0xbbb9dcd4	-0.0056720767
209	0xbc9c4c01	-0.01907921
210	0x3c76dd8d	0.01506747
211	0x3afccceb	0.0019287145
212	0x3c1cc61d	0.009568718
213	0xbb6d157b	-0.0036176133
214	0x3bd81231	0.0065939655
215	0x3c12a66c	0.008950811
216	0x3b788cab	0.0037925642
217	0x3c06bcd9	0.008223736
218	0x3af0958e	0.0018355118
219	0xbc295071	-0.01033412
220	0x39e8d1bc	0.00044406753
221	0x3b64fb47	0.0034939812
222	0xba2a788e	-0.00065029494
223	0x3b1893bc	0.0023281416
224	0xbb417998	-0.0029521938
225	0xba10d092	-0.00055242435
226	0xbc44e76f	-0.012018069
227	0x3b9272c0	0.0044692457
228	0xbac0ef7f	-0.0014719813
229	0xbc1dc380	-0.00962913
230	0x3bf32ff3	0.0074214875
231	0xbb5d0474	-0.0033724578
232	0x3b5ad4e8	0.0033391062
233	0x3caeaa0b	0.021321317
234	0xbbc93b90	-0.0061411336
235	0x3afa691b	0.001910481
236	0xbcc721df	-0.024308143
237	0x3bde473a	0.006783393
238	0x3b34110f	0.0027475988
239	0xbbe54978	-0.0069972835
240	0xba5c3985	-0.0008400905
241	0x3bc40c7c	0.0059829336
242	0x3bb4a5b6	0.0055129183
243	0xba83f52c	-0.0010067574
244	0x3b311e88	0.0027026255
245	0xba118e7c	-0.0005552543
246	0xbc83aca8	-0.01607354
247	0xbc292391	-0.010323421
248	0x3c8ed08d	0.01743343
249	0x3c2effd0	0.010681108
250	0xbbf5d63e	-0.0075023463
251	0x3c4d0e63	0.012515637
252	0xbc0e55aa	-0.008687416
253	0xbc03fabd	-0.008055386
254	0x3bd8dd74	0.006618196
255	0xbc57adbe	-0.013163982
