palm_detection/pretrained_weights/conv2d_14_Kernel.npy (npy, 16464 bytes, 1 tensors)

array f4 [64, 1, 1, 64]
00000000: 165e 1bbd 7a98 65bd a6d3 583b 4c98 b7bc
00000010: 3a30 14bd c388 bbbb ea43 083d 4ee6 02bc
00000020: 601a e2bc 7cca d23c e853 02bd 1966 e7bc
00000030: 4dc6 433d d6d2 143c 1de0 b8bc a701 c83d
00000040: bc6b 16bd 2dcc bd3d ba40 15bd f1ba 09bd
00000050: deef db3b f767 dcbc 9677 633c 2022 c73c
00000060: 964e 763a 8a28 c2bc 0d88 d6bc c8d2 493c
00000070: e307 2cbd 9572 8a3d 7729 85bc 0631 2e3c
00000080: 5715 0e3d 7f1e 5e3d a44a f33c 4b2e adbc
00000090: da96 043d e1c7 143d 1258 b53c 4dcc 3bbc
000000a0: 39fe 273d 11e2 223d 83fb 7ebc 0a93 a5bc
000000b0: 1917 84bd d2ed a13c 7a91 b43d a33c 40bd
000000c0: 3620 fa3b 03cd 7a3c 18c9 bdbb a341 fcbb
000000d0: 1fe3 51bc 65af 863d 9489 c73c 406a f53c
000000e0: 6cbc 163a cab8 eabc ad71 193c 5d7f 0dbc
000000f0: 8830 9b3d b657 a33d a351 1fbd 90e6 19bd
00000100: 3771 dbba ede3 983d 66b2 39bd 9bdd 1f3d
00000110: b39c 743c d94a 8f3d 7450 4f3d fcf3 813d
00000120: 2780 833c fd51 26bc c4ef 8fbd 364a debc
00000130: b147 313d d7db c73c 15b9 0c3d 8c72 fcbb
00000140: 8e65 6dbc b08d bb3b 1f83 dc3b ff40 073d
00000150: 45a4 833d d1f8 8ebc 8f88 c83b 1a26 1bbd
00000160: b52e 8abc cb12 3ebb 53d2 273d 84b9 3ebd
00000170: fa91 903d a847 d03c 2226 c93c 240d 30bc
00000180: f365 aa3b caf9 2ebd 018d 72bb 9fcb 203c
00000190: 4622 543d f789 aebb f345 cf3c ab4d 0e3d
000001a0: e8ca 52bc 7a78 33bd c16e 8b3b 0fec 723c
000001b0: f904 debc 038b ae3c a114 d33c 608f efbc
000001c0: f735 73bd dc65 e63c 221c 383c 6b19 2bbc
000001d0: bd38 5ebc eb86 ccbb 3ffb 51bc 2746 e1bb
000001e0: 3ad1 413a c3f7 0fbd 05ec 213d e74f 2a3b
000001f0: 63b4 d9bc 6883 c2bb 658d e73c 46f8 5fbd
00000200: 8204 393c 951c b7bc 9e2b debc 704a 4e3c
00000210: d4f5 f3ba 05b0 293d f6f1 dfb9 52d9 7b3c
00000220: 73d4 55bc e09f df3c b0f5 03bc ccfc 2d3d
00000230: 17fc 8dbb 4b2f b8bc ab9c 623c 98fb 9e3c
00000240: 8cf7 4bbc ea91 80bc 4c09 3f3d 8d1f d63b
00000250: 311b 2a3c b348 cdbb 84a9 7d3c 5190 393c
00000260: 2f6a 4c3c ff05 8dbc 5ede 8cbc 8844 463b
00000270: 0c7c 21bc da9d 27bd 7590 533c d230 bf3b
00000280: a40f 85bc da9c 043d 31c6 04bd 3fc8 83bc
00000290: ff01 3d3c 250a 023c 0340 623d bf35 81bb
000002a0: 7aa1 103d 36de 243c c05f 0fbd 7436 aebc
000002b0: d1aa af3c 30ac 20bb dad0 da3c 2ae8 753c
000002c0: 0277 9fbb 2a39 893c 8a4e 493c 62c5 59bc
000002d0: 2d26 c539 34a3 13bc e7ff 26bc 609b 883b
000002e0: 9e17 e7bb 5f96 eb3a 3025 b83c 1315 e1bc
000002f0: edaa bebc 6a53 2a3d 47fe 053b 7be2 17bc
00000300: 1d12 893c 942d 2fbd ca31 b9bb 9716 6b3d
00000310: f1bb 88bd 9365 9dbc a244 9b3c d6f6 29bc
00000320: 6c41 d3bc fc04 9bba b6db bb3c 154d e5bc
00000330: 3114 b23b ece2 b03c 01ee cd3c 1e60 e93c
00000340: e1ad 8f3b d101 753d dd48 cdba 69a0 dfbc
00000350: de9e 15bd 2388 8a3d 5bde 083d 67e2 623b
00000360: 046c ee3c c566 d53c 675f 8e3c 4900 bd3d
00000370: ed6a 87bd 9216 bd3b 1780 abbc 99b4 c539
00000380: cd56 adbc df66 a43d 1b11 5fbc 8770 49bd
00000390: 40f0 18bd cd2f 023b 8698 26bd 27cb 1ebd
000003a0: 1ca0 eb3c d09b 493d a803 3b3d ecde 4fbc
000003b0: a431 9bbc d0d5 12bd 3be7 dcbb ccb0 763c
000003c0: e738 1fbd c61d 8fbc c83b cebc abd2 c9bb
000003d0: 58e7 353d 185e 763c 7c0b 31bc b6fb 063c
000003e0: 712e 89bd 732d d23c a38e 1fbc 9ec6 233c
000003f0: ad01 5c3d 3958 8ebc eb95 c6bc 6e15 9bbd
-0.037931524 -0.056053616 0.0033085137 -0.022411488 -0.036178805 -0.0057230904 0.033267893 -0.007989479
-0.027600467 0.025731318 -0.0318183 -0.028246926 0.047796536 0.00908347 -0.022567803 0.0976594
-0.036723837 0.09267459 -0.03643868 -0.033625547 0.006711944 -0.026905043 0.013883492 0.024308264
0.00093958655 -0.023700971 -0.026187921 0.012318321 -0.04199971 0.06760136 -0.016255124 0.010631805
0.03468832 0.054228302 0.029698677 -0.021140238 0.032370426 0.036323432 0.022136722 -0.011462283
0.04101393 0.039766375 -0.015562895 -0.020211715 -0.06449718 0.019766722 0.0881681 -0.046932828
0.0076332344 0.015307668 -0.0057917945 -0.007698254 -0.012810498 0.065764226 0.024357595 0.02995789
0.0005750123 -0.028652567 0.009365481 -0.008636323 0.07577616 0.07975714 -0.038896214 -0.037573397
-0.0016742115 0.074653484 -0.04533615 0.0390297 0.014929938 0.06996698 0.050613835 0.063453645
0.016052319 -0.0101513835 -0.070281535 -0.027134996 0.04328126 0.02439682 0.034356195 -0.0077040847
-0.014489545 0.0057236776 0.006729498 0.03302097 0.06427816 -0.01745263 0.0061197947 -0.037878133
-0.016867975 -0.00290029 0.040972065 -0.04656364 0.07059093 0.025424793 0.024554316 -0.0107453205
0.0052001416 -0.042718686 -0.0037010314 0.009814172 0.0517905 -0.0053265053 0.02530191 0.03474204
-0.012865759 -0.043816067 0.0042551463 0.014826789 -0.02710198 0.02130652 0.025766673 -0.029243171
-0.059377637 0.028124742 0.011237176 -0.010443072 -0.013563332 -0.0062416694 -0.012816249 -0.006874818
0.0007393543 -0.035148393 0.039531726 0.0025987567 -0.026575273 -0.005936075 0.028265664 -0.05468013
0.011292579 -0.022352496 -0.027120408 0.0125909895 -0.0018612691 0.04142763 -0.0004271415 0.015371637
-0.01305114 0.027297914 -0.008054182 0.042477414 -0.00433303 -0.022483489 0.013831298 0.019407079
-0.0124491565 -0.015694577 0.046639726 0.006534523 0.0103824595 -0.00626477 0.01548231 0.011325912
0.012476488 -0.017214773 -0.017195877 0.003025325 -0.009856235 -0.040922023 0.012912859 0.0058346773
-0.01624281 0.032376148 -0.032415573 -0.016086696 0.01153612 0.007936989 0.055236828 -0.0039431746
0.035310246 0.010062745 -0.035003424 -0.0212662 0.021443756 -0.0024516694 0.026710916 0.0150089655
-0.0048664818 0.01675089 0.012286792 -0.013291689 0.0003760321 -0.009011079 -0.010192848 0.004168913
-0.007052376 0.0017973891 0.02247867 -0.02747587 -0.023274863 0.041583456 0.002044575 -0.009270306
0.01673227 -0.042768076 -0.0056516873 0.05739459 -0.06676472 -0.019213473 0.018953625 -0.010373792
-0.025788032 -0.0011827047 0.022931915 -0.027990857 0.005434536 0.02159258 0.025137903 0.028488215
0.0043847417 0.059816185 -0.0015661974 -0.02729817 -0.03652846 0.06764247 0.03341518 0.003461981
0.02910424 0.02604998 0.017379476 0.0922857 -0.06612191 0.005770513 -0.020935101 0.00037709324
-0.021159554 0.080274336 -0.013614918 -0.04917958 -0.037338495 0.0019864917 -0.0406728 -0.03876796
0.02876287 0.04922086 0.045657784 -0.012687426 -0.018944569 -0.03584844 -0.006741432 0.0150568
-0.038872626 -0.017470252 -0.02517499 -0.006159147 0.04441008 0.015037082 -0.010805961 0.0082387235
-0.06698311 0.025656438 -0.009738597 0.0099960845 0.053712536 -0.017376052 -0.024241408 -0.07572447
