palm_detection/pretrained_weights/conv2d_25_Bias.npy (npy, 1104 bytes, 1 tensors)

array f4 [256]
000000 29 b9 8f bc 10 ef da be ef f3 a1 be 51 dc ca 3e
       -0.017544346 -0.42760515 -0.3163142 0.39621213
000010 e4 c5 00 3e d4 7d d9 bf 6d 14 93 bf 62 a0 a4 bf
       0.1257549 -1.6991525 -1.1490608 -1.2861445
000020 2a ac 27 bf d5 5b 09 bf a0 fe be bf c3 b6 14 be
       -0.65497077 -0.5365575 -1.4921455 -0.14522843
000030 f8 17 06 bf c3 1b 2b be 0d 9c 9e bf 11 c8 a6 3d
       -0.52380323 -0.16709809 -1.2391373 0.081436284
000040 71 e2 e6 bf 45 7b 84 3e 29 62 84 3e 13 c8 e1 bf
       -1.8037854 0.25875297 0.2585614 -1.7639183
000050 1c 03 2e 3f 02 60 8e bf ba 23 73 be 22 d0 24 bc
       0.67973495 -1.1123049 -0.23744097 -0.010059388
000060 cc 44 58 be 7a f4 c4 be 8a 26 89 bf 59 41 3c be
       -0.21119994 -0.3846777 -1.0714886 -0.18384303
000070 f4 c9 c9 bf 66 2f 34 bf 05 89 e7 bf 1a b2 92 3f
       -1.5764756 -0.70384824 -1.808869 1.1460602
000080 64 37 1d be f1 74 5d bf ec 1d 6d bf b0 09 3f 3e
       -0.15353161 -0.86506563 -0.9262378 0.18656039
000090 4f 31 87 be a2 62 7a 3f 07 06 e1 3f 97 63 2b be
       -0.26404807 0.9780675 1.7579964 -0.1673721
0000a0 d0 ca 70 3f d7 f3 b1 bf 53 1d 8b be 6e 1f fb be
       0.9405947 -1.3902539 -0.2717081 -0.49047416
0000b0 43 3e f6 3d 9f fe f6 bf a6 6a 24 3f a2 d4 9a bf
       0.12023594 -1.9296454 0.6422523 -1.209614
0000c0 5d 6e e3 3e 37 7c 10 be 13 5c e9 be d6 05 62 3f
       0.44420138 -0.14109884 -0.4557806 0.88290155
0000d0 62 04 bd 3e 29 35 06 3f 07 6d 96 bf 9d 10 76 3f
       0.36917406 0.52424866 -1.1752023 0.961191
0000e0 dd 4f ac bf 8a 5c d3 3e ce 6a ba 3e 3c 1e 28 3f
       -1.3461872 0.4128154 0.3640961 0.65671134
0000f0 59 43 53 bf e5 2c b1 3e 6f a4 3f 3f 7c eb 84 bc
       -0.8252464 0.34604564 0.7486028 -0.016225569
000100 7c 8d 9d bf 1d 7a 87 3f 63 ed 55 be 83 db fc 3f
       -1.2308803 1.0584141 -0.20891337 1.975449
000110 0e 5e 23 bf e1 44 18 3f b4 31 87 3e 03 25 d8 be
       -0.6381539 0.594801 0.26405108 -0.42215738
000120 8e f9 2a bf ce ff 59 3f 17 4a 37 3f ab c5 67 bf
       -0.6678704 0.8515595 0.7159743 -0.9053599
000130 08 de 22 3e 68 51 de bf d2 60 7e be ec 8e 87 3e
       0.1590501 -1.7368593 -0.24841622 0.26476228
000140 b2 31 dc 3e 94 05 01 3f 5d 67 bc 3e 20 99 bb 3f
       0.43006665 0.50399137 0.3679761 1.4656105
000150 98 b4 48 3f ec f8 f2 bc 05 28 1b 3f 7b fb 03 40
       0.78400564 -0.02965971 0.6060794 2.0622241
000160 4a 0b d2 be 4c 42 58 bf 0a 94 ba be 0c 2d 9e bf
       -0.41024238 -0.8447616 -0.3644107 -1.2357497
000170 85 c1 15 3f cf d9 cb 3e 18 ca ee bf b9 bf c9 be
       0.5849841 0.39814612 -1.8655424 -0.39404085
000180 fb 20 16 bf b9 ad 1b bd 3c 90 a4 bf 08 01 26 3c
       -0.58644074 -0.03800747 -1.2856517 0.010132082
000190 ab ca 95 3e 83 b7 1d 3d 12 84 8e bf 0b 64 d5 3e
       0.29256186 0.03850509 -1.1134055 0.4167789
0001a0 1f 9b 99 bd bf 43 d8 3f bb d7 63 3e 5a 5e 8c be
       -0.0750029 1.6895674 0.22250263 -0.27415735
0001b0 be 80 c7 3f 5f 9e f8 bd 1f 5a 5e bf 8e ac 0e c0
       1.5586164 -0.12139582 -0.86856264 -2.229282
0001c0 89 ad af bf a9 a7 aa be b0 c0 14 3f 59 46 f5 be
       -1.3724834 -0.3333104 0.5810652 -0.47905234
0001d0 e1 45 b0 3f ab be 9c 3f 2b 02 82 3f 08 ea b6 bf
       1.3771325 1.2245687 1.0156912 -1.4290171
0001e0 52 6e 1f 40 c7 dd dd bd 85 67 c6 bf 15 a0 07 3e
       2.4911084 -0.10833316 -1.5500342 0.1324466
0001f0 57 c8 a0 be 3c 16 44 3e a5 dc 1c bf 81 68 35 bf
       -0.31402847 0.19149107 -0.61274177 -0.70862585
000200 85 be 19 3f c3 ed 62 3f c2 90 e1 be 57 db 53 3f
       0.60056335 0.88644046 -0.44055754 0.8275656
000210 38 d8 e9 bf 29 e8 b2 3f b4 f7 e7 be 80 53 ce bf
       -1.826911 1.39771 -0.4530617 -1.6119232
000220 71 da 93 be 23 52 21 c0 4e 0b ef 3f 05 ea 2d bf
       -0.28877595 -2.5206382 1.8675325 -0.6793521
000230 fb de c0 be f9 98 e3 be eb 19 87 3f 7e 01 bb 3f
       -0.3767012 -0.44452646 1.0554785 1.460983
000240 90 b6 e1 3d b2 9a 61 bf 7c c2 7c 3d 69 3b 02 c0
       0.11021149 -0.8812667 0.061708912 -2.034876
000250 00 08 43 bf fd 40 2f bf 19 84 ce bf 65 57 90 be
       -0.7618408 -0.6845854 -1.6134063 -0.28191677
000260 78 38 a3 3e 3a 26 bb 3f 1a 39 3e c0 24 d4 9a bd
       0.3187902 1.4621041 -2.9722352 -0.07559994
000270 42 17 ce 3f d4 66 ea 3f f0 a3 c5 bf f2 e3 c1 bf
       1.6100848 1.8312631 -1.5440655 -1.5147688
000280 b2 71 78 3f f3 bc 71 3e 31 01 ce 3f 24 8c df be
       0.97048485 0.23607235 1.6094114 -0.43661606
000290 96 d3 09 c0 39 fd ca 3f 86 4c a2 bf c2 c5 7e bf
       -2.1535392 1.5858527 -1.2679603 -0.99520504
0002a0 8e f7 8c 3d 53 de 0d bf 54 2a 5b bf e8 57 ce bf
       0.06883155 -0.55417365 -0.8561146 -1.6120577
0002b0 c5 07 85 bf ee 25 be bf ce 66 a3 be 77 7b 87 bd
       -1.0392996 -1.4855325 -0.3191437 -0.06615346
0002c0 ec 7b e3 3f 85 4d 61 bf 3d 0e 05 bf 7d a8 a6 bf
       1.7772193 -0.8800891 -0.5197485 -1.3020169
0002d0 71 01 2e bf 4a 22 af bf ef 6d 7c bf 3b 78 11 3f
       -0.6797095 -1.3682339 -0.98605245 0.5682408
0002e0 d7 ac c8 bf 2c c0 4d 3d ea cb 0c 3f 13 f8 df bf
       -1.5677747 0.050232098 0.5499865 -1.7497581
0002f0 4b e7 dc 3f 68 e4 5a 3f a9 71 09 bf e5 cb 3f 3e
       1.7258085 0.8550477 -0.53689057 0.18730123
000300 2c 32 8d 3e 4c 34 b5 bf c4 32 0b 3d 2a f5 47 3f
       0.2757734 -1.4156585 0.03398396 0.78108466
000310 b2 0d 98 bf 14 18 9e bf 8d b3 9a be 5f 41 8a bf
       -1.187918 -1.2351098 -0.3021511 -1.08012
000320 a6 8d 43 c0 2c 87 98 3f 7e 65 97 bf 8a 84 df bf
       -3.0555205 1.1916251 -1.1827848 -1.7462323
000330 6c c0 10 bf 39 fc 8c bf e9 de 8e be 62 ed a6 3f
       -0.5654361 -1.1014472 -0.27904442 1.3041193
000340 02 89 c8 3c 71 0a 11 40 d2 2d 68 bf 9a 44 a4 3e
       0.024479393 2.2662623 -0.90694916 0.3208359
000350 66 94 b0 3f 7e 72 7f 3f 9c d0 3d bf 09 18 4a 3e
       1.3795288 0.99784076 -0.7414644 0.19735731
000360 ce b7 88 be e6 81 04 40 64 f6 8d 3f aa e3 8f bf
       -0.26702732 2.0704284 1.1090817 -1.1241353
000370 94 92 4a 3e f7 5c 8b 3f 26 f5 9b 3f 3d ce fc 3f
       0.19782478 1.0887746 1.2184188 1.9750439
000380 9e 8c 7b 3f 1a 18 4b bf 37 4a 27 c0 df e6 e7 be
       0.9826144 -0.7933365 -2.6139047 -0.45293328
000390 af 03 cc bf 0d 12 8e 3e c8 1c 8d 3d 28 7c 49 bf
       -1.5938624 0.27748147 0.06890255 -0.7870507
0003a0 b5 33 20 bf 56 3a a2 3e 70 72 83 3f ff b1 c7 3e
       -0.625789 0.31685132 1.0269299 0.39002988
0003b0 86 82 16 40 67 ae 38 bf 68 a2 39 be 56 2d a7 3f
       2.3517165 -0.72141117 -0.1812836 1.306071
0003c0 00 54 33 3f cf ed fc 3c fa 03 5a be 24 cc 31 be
       0.7005005 0.030875115 -0.2129058 -0.1736303
0003d0 f6 79 e2 3f 4d d2 0f c0 84 6f a9 3f c1 3a 00 3f
       1.769347 -2.2472107 1.3237157 0.5008965
0003e0 5b 10 e6 be 78 5c a0 bf 0d d7 ac bf a9 29 67 bf
       -0.44934353 -1.2528219 -1.3503128 -0.90297943
0003f0 2b 75 9f 3f 8d 55 60 bf c9 fc 28 3f d1 6b a2 3f
       1.2457632 -0.8763054 0.6601072 1.2689153
