palm_detection/pretrained_weights/conv2d_36_Kernel.npy (npy, 262240 bytes, 1 tensors)

array f4 [256, 1, 1, 256]
00000000: f86c a8bb 1aff 6c3b 5bb3 db3a 59bc 0cbb
00000010: 5350 683a ee31 383a 563a f5ba 8a45 2cbc
00000020: c31c 19ba d190 5c3c 2f42 1dbc bbf2 473b
00000030: d90a 97bb f97f ff39 a443 063a 4c11 933b
00000040: b974 30bb f3d2 18bc ac80 85bb 4a37 4ebb
00000050: 802c 2cbb 51fd d2ba 9be0 56bb 6328 efba
00000060: b581 343c 4357 893b 0c0f 8c3b 36d2 2738
00000070: 2dc7 873b 8bd4 17bc aa8f 3cbb 399b 54ba
00000080: e279 0b3a 8756 dfba b202 db3a 67cc 9e3b
00000090: 747f 2fbc ec42 ad3b 1c89 47bc 2caa 1abc
000000a0: 2b65 2aba cefc 27bb 14a8 05bb 0f17 1ebc
000000b0: cf18 fa3b 3b75 c3bb be4f 413a 3a32 423b
000000c0: 30c1 d83a f5a7 d0bc 41b7 0cba 0441 8b3a
000000d0: 90f6 913b 5bd3 b4bb 0f1f 9b3b 0dab 41bc
000000e0: b9a4 1bbc 6b87 66bb 9e00 913b 2762 83bb
000000f0: 584d 6e3a 6332 0ebb b0bd 08bb 6980 863b
00000100: 3922 d4bb e8a2 a0bb 62ae da3b 9c3d b83b
00000110: b69f d2bb c3a3 44bb 4f6d 373b ce15 2f3c
00000120: df7a 3f3a 2dd3 55ba 2044 98ba 4507 91ba
00000130: a6d4 89bb 53f0 453a 9c07 93bb 83b6 fcbb
00000140: 1615 20bc 5874 c5ba 05f3 c3b9 f249 adbc
00000150: 171c 14bc fc8b e2bb 0d83 1bbc f824 6cbb
00000160: 6ce5 473b d05d fabb 6891 983b 63d2 99ba
00000170: 2efb 42bb d680 1dbc 0c71 b83b c7ba 8fbb
00000180: 0817 c93b 14ea d9ba 93a2 e13b 589e c7bb
00000190: 3467 c13b 15cb 113b 9b8f a53b 0c7e 983c
000001a0: 428a b63a 5676 ca3a fa88 d53a e8e3 cd3a
000001b0: e58f d7bb 4ca7 5fbc 0db2 82bb 4184 01bb
000001c0: 2ed1 003b c66d 593b d5e7 c43b aade 083c
000001d0: 83eb b7bb dbc5 403b 7635 273b 543a a63b
000001e0: 5da3 6fbb 82b4 cabb 7461 17bb 5abb 62bb
000001f0: fccf d0bb e198 ccbb fed3 54bb 10f7 b73a
00000200: d952 203a f1a5 163a 6076 363b f34d 6fba
00000210: cb55 92ba f1a9 a83a 955a 0ebc 74bd 8cbb
00000220: 1136 b6ba a7f5 93bb 1d2d 973a e81e ae3b
00000230: 5a74 233c 3df5 f43b f40e edbb c75e ddbb
00000240: 488b 9e37 1b36 1e3b bbf2 a0bb 3136 bcbb
00000250: 2159 f83b 5eea f2bb aa5e 86bb e4d7 50bb
00000260: 70dd b4bb 9d7f 723a 5820 fcbb 6b1c 56ba
00000270: 71f1 04bb 9781 fbbb e0cf 6d3b ce6c 7b3b
00000280: 64cf 663a 8a82 0d3a 102d b438 62d0 903a
00000290: 0191 c63b f8fc 8a3b b762 b73b 2a4f 0ebc
000002a0: e281 85ba 7fbe ab3a 5a19 23bb bfc6 1e3c
000002b0: ee85 53bb 7488 163c 93b8 a1bb 0668 2bbb
000002c0: 3023 e63a ce80 063b 6694 bcba f823 20bb
000002d0: 1d58 1d3c cb36 0fbc 1880 193c 18b3 eb37
000002e0: 61a4 063b dc55 7bbc 9609 3ebc 85bb c2bb
000002f0: 8448 143b c1fa 313c 0300 393b 2618 4e3a
00000300: 08a8 70bb e89e c43b 2ae0 2f3b 59ca 10bb
00000310: 152e ef3a a75d 8abb 1c16 aabb dfe3 9dbb
00000320: 4b5e 3ebb 60dd 683b 4f6b 15bc b16e 4aba
00000330: 2dd1 193b dd2c 6f3b cdf0 00bb ed20 66bc
00000340: 29a2 f03b d03e a33b 2683 93b9 e0fb 0b3b
00000350: 8991 6cbb 64f8 94bb b7e0 b3b8 bc12 823a
00000360: 47ce ec3b 85a4 4b3a 5635 deba 1dd2 32bb
00000370: 0bc8 8f3b 197a 973b 7a35 733b ac27 bbbb
00000380: e2cb f638 1ec9 283b 5440 ba3b dedc bf3b
00000390: 7132 f1bb a7a6 d1bb 465b 1b3b b6a3 ec3a
000003a0: f3ae f0ba 30ee 0e3c a074 f1bb 18d6 e4bb
000003b0: 69a6 193b eeda 303b 2511 2ebb d6dd 64bb
000003c0: ab7b c4bb 0289 0fbc 01f5 aeba 411f 19ba
000003d0: aa18 083c 8c03 50ba 6786 4e3b 1e97 3fbc
000003e0: a19e 28bb 1014 2ebc 5da3 c5bb 46cd 443c
000003f0: e9b1 613c f243 9fb8 5d6c 8ebb f527 bdba
-0.005139943 0.0036162795 0.0016761826 -0.0021474569 0.0008862067 0.0007026483 -0.0018709402 -0.010514626
-0.00058407726 0.013462261 -0.009598299 0.003050967 -0.0046094474 0.00048732737 0.00051217736 0.004488146
-0.002692504 -0.009327638 -0.004074177 -0.003146606 -0.0026271641 -0.0016097223 -0.0032787684 -0.0018246289
0.011017253 0.0041913106 0.0042742547 4.0011677e-05 0.0041436167 -0.009266983 -0.0028772154 -0.0008110288
0.0005320591 -0.0017039337 0.0016709177 0.004846144 -0.01071154 0.0052875187 -0.0121786855 -0.009439986
-0.00065000606 -0.002563286 -0.0020394372 -0.009649052 0.007632352 -0.0059649027 0.0007374248 0.0029631988
0.0016537067 -0.025470713 -0.0005367883 0.0010624235 0.0044544414 -0.0055183596 0.004733927 -0.011820567
-0.009499722 -0.003517593 0.0044251224 -0.0040095034 0.00090905046 -0.0021697513 -0.0020865016 0.004104663
-0.006473806 -0.0049022324 0.00667362 0.005622579 -0.0064277304 -0.0030004836 0.0027988737 0.010686351
0.0007304381 -0.0008156773 -0.0011616983 -0.0011064789 -0.004206258 0.0007550765 -0.004486991 -0.007712187
-0.009770652 -0.001506458 -0.00037374362 -0.021153424 -0.0090399 -0.00691366 -0.009491694 -0.0036032777
0.0030501736 -0.007640578 0.0046560057 -0.0011735674 -0.0029751766 -0.009613236 0.0056287106 -0.0043862793
0.0061367787 -0.0016625547 0.0068858354 -0.006091874 0.0059021953 0.002224629 0.0050525195 0.018614791
0.0013926702 0.0015446644 0.0016291433 0.001570818 -0.006578433 -0.0136507265 -0.0039885105 -0.0019762667
0.001965593 0.0033177002 0.006009082 0.0083538685 -0.005612792 0.0029414806 0.0025514043 0.005072871
-0.0036565878 -0.006186069 -0.0023098858 -0.0034596534 -0.00637245 -0.0062438105 -0.003247499 0.0014035422
0.0006115861 0.0005746773 0.0027841553 -0.0009128742 -0.0011164484 0.0012868029 -0.008688589 -0.0042950455
-0.0013901611 -0.004515368 0.001153383 0.005313743 0.009976471 0.0074755237 -0.0072344486 -0.006755683
1.8899926e-05 0.0024141136 -0.004911748 -0.005743765 0.0075789844 -0.0074131927 -0.0041006403 -0.0031866962
-0.0055195615 0.0009250583 -0.0076942854 -0.0008167687 -0.0020285512 -0.0076753604 0.0036287233 0.0038364413
0.00088047073 0.0005398175 8.5914624e-05 0.0011048431 0.0060597663 0.004241582 0.0055964845 -0.008685866
-0.0010185803 0.0013103037 -0.0024886937 0.009690939 -0.0032275873 0.009187806 -0.004935333 -0.0026154532
0.0017558094 0.002052355 -0.0014387488 -0.0024435502 0.009603527 -0.008741091 0.009368919 2.809758e-05
0.0020544755 -0.015340295 -0.011598965 -0.005942764 0.002262623 0.010863007 0.0028228767 0.0007861875
-0.0036721248 0.0060003884 0.0026836493 -0.0022093265 0.0018247986 -0.00422259 -0.005190624 -0.004818424
-0.0029047902 0.003553234 -0.009119823 -0.0007722183 0.0023470626 0.0036495246 -0.0019674778 -0.014045936
0.0073435497 0.004981853 -0.00028135738 0.0021359846 -0.0036097488 -0.004546212 -8.5772415e-05 0.0009923796
0.0072267386 0.0007768351 -0.0016953151 -0.0027285882 0.0043878607 0.0046227095 0.0037110732 -0.0057115164
0.0001176817 0.002575464 0.005683938 0.005855187 -0.0073607494 -0.0063980403 0.0023705526 0.0018054161
-0.0018362686 0.0087237805 -0.007368639 -0.00698353 0.0023445135 0.002698596 -0.0026560512 -0.0034922264
-0.0059961877 -0.008760693 -0.0013348163 -0.0005841144 0.008306662 -0.0007935099 0.0031513216 -0.011693744
-0.0025729316 -0.0106249 -0.0060314373 0.012011832 0.013775327 -7.5943666e-05 -0.004346414 -0.0014431464
