palm_detection/pretrained_weights/conv2d_19_Kernel.npy (npy, 65632 bytes, 1 tensors)

array f4 [128, 1, 1, 128]
-0.071508825 0.03920284 0.014976026 -0.018690709 0.094357856 0.030089645 -0.016654875 -0.044217426
0.0062221503 0.0077828616 -0.019395173 0.00642953 -0.004714927 0.031063797 0.02708135 0.043635443
-0.01155784 0.020386863 0.016297676 -0.04638317 -0.047875036 -0.013239213 -0.0023021773 -0.0437751
-0.009782056 -0.030920183 -0.00042426665 -0.02863875 -0.048069794 0.07250975 -0.03554833 0.013978906
0.04084483 0.07788958 -0.03382126 0.031591535 -0.015508654 -0.057298895 0.005342479 -0.0071181837
0.022472491 -0.0043762303 0.0011616492 -0.043362197 0.025628362 0.015957756 0.023910295 -0.053852085
0.03687811 -0.018211383 0.016253099 -0.014558615 0.05174014 -0.028602121 -0.008283496 0.0054774666
-0.027357742 0.082509264 -0.04648196 -0.029244531 -0.022893446 0.0026983556 -0.022052143 0.0023013328
0.025283385 0.024915373 0.020623812 0.01413988 -0.050190937 0.045333445 0.07021188 0.073675476
0.025495626 0.012694479 -0.05413177 0.07026141 0.0127223795 -0.02515528 -0.040303256 0.011875796
-0.01755893 -0.053860128 -0.039290424 -0.036025565 0.018682886 -0.05803654 0.04046036 -0.00084963057
-0.024836967 0.03569231 0.02433058 -0.0076533365 0.021282626 0.01902276 0.0024365834 -0.07479082
0.007101862 -0.007139426 -0.0042941673 0.055380885 0.0050664484 -0.067528315 0.0074250763 0.0067258985
0.026117487 0.021839911 -0.032873575 -0.0026968762 -0.00340998 -0.0040266644 0.013754534 0.017908413
-0.03946638 0.03117099 0.051487204 -0.02721739 -0.052236825 -0.0035740216 0.02343196 -0.03197886
0.05870748 -0.051901687 0.040060654 0.016567916 -0.011760516 -0.028202983 -0.03654793 0.0007353176
0.053356066 -0.10450776 -0.024272166 0.010860903 0.038979746 0.022998963 -0.031265453 -0.028617196
-0.053998582 0.025975052 0.007244687 -0.02534504 0.03303367 -0.008213142 0.011174822 0.046945848
0.010921553 0.012516389 0.0055291513 -0.064136535 -0.071252726 0.003028381 -0.011470634 -0.034307033
-0.002073744 -0.026597634 -0.06949749 -0.0052727885 -0.015254826 -0.02798728 0.07057945 0.006201918
0.026415633 -0.0092066135 0.03186439 -0.026970156 0.023640746 0.041928776 0.0023094576 -0.018859195
0.013819567 0.005502159 0.03755063 -0.04539482 -0.02689713 -0.0024738612 0.054677427 -0.013674919
-0.008857166 -0.06620985 0.0008343731 -0.00895355 -0.031341 0.04596939 -0.0024345391 0.04429304
0.033319812 -0.01523081 -0.036762852 -0.011492739 -0.005412793 -0.018723434 0.020609118 0.026111431
0.027107708 -0.0058572767 0.07175596 0.053395197 0.036046766 0.028776601 0.00046885968 0.10007305
0.08182707 0.01344649 -0.0017508207 -0.029766986 0.047562532 -0.011316999 0.07258347 -0.02310253
-0.11101532 0.0041437475 0.068018325 0.0046638567 -0.056069326 -0.11821598 -0.057302125 0.004626532
0.04147178 -0.11608329 -0.063381895 0.03983713 0.007035073 0.006852616 0.061595008 0.04207524
-0.0010726064 0.018004064 -0.053814076 -0.011171106 -0.023947509 -0.0037207936 -0.050255433 -0.04172889
-0.042989656 0.026785454 -0.035044003 -0.06225788 0.015052134 0.01465106 0.04857581 0.015067394
0.036727257 0.0050073867 -0.041074257 0.00892279 -0.124763966 -0.021453775 0.0076779034 -0.042571962
0.043770354 0.05841722 0.013349136 -0.043079417 -0.012983032 0.025633616 -0.0148479715 -0.042952508
00000000: 3873 92bd 2893 203d 015e 753c 421d 99bc
00000010: b13e c13d 8f7e f63c ce6f 88bc 551d 35bd
00000020: 2ee3 cb3b 6007 ff3b a0e2 9ebc cfae d23b
00000030: ad7f 9abb 8179 fe3c b5d9 dd3c 14bb 323d
00000040: 185d 3dbc 5a02 a73c b482 853c 47fc 3dbd
00000050: 9d18 44bd 49e9 58bc 20e0 16bb 854d 33bd
00000060: eb44 20bc 534c fdbc 1b70 deb9 d09b eabc
00000070: d5e4 44bd fe7f 943d 209b 11bd c807 653c
00000080: e94c 273d 9284 9f3d 2988 0abd 2066 013d
00000090: 0218 7ebc 3fb2 6abd f60f af3b a73f e9bb
000000a0: 3b18 b83c 7b66 8fbb 7b42 983a 8f9c 31bd
000000b0: 92f2 d13c d7b9 823c 86df c33c 0194 5cbd
000000c0: 800d 173d 0a30 95bc 3825 853c 4287 6ebc
000000d0: 78ed 533d ff4e eabc 80b7 07bc 527c b33b
000000e0: 581d e0bc 9efa a83d de63 3ebd 3a92 efbc
000000f0: 098b bbbc e5d6 303b b2a6 b4bc f5d1 163b
00000100: 1a1f cf3c 531b cc3c 45f3 a83c f5aa 673c
00000110: 0395 4dbd 90af 393d 3fcb 8f3d 2be3 963d
00000120: 34dc d03c 81fc 4f3c 46b9 5dbd 37e5 8f3d
00000130: 8771 503c 7212 cebc 0715 25bd b392 423c
00000140: bfd7 8fbc 709c 5cbd ffee 20bd 8b8f 13bd
00000150: da0c 993c b9b7 6dbd c3b9 253d beb9 5eba
00000160: e576 cbbc 1a32 123d ed50 c73c d7c8 fabb
00000170: e758 ae3c 9fd5 9b3c 16af 1f3b ee2b 99bd
00000180: bdb6 e83b d9f1 e9bb 16b6 8cbb 11d7 623d
00000190: 7304 a63b 494c 8abd 0e4e f33b ed64 dc3b
000001a0: 57f4 d53c 9de9 b23c 71a6 06bd 13be 30bb
000001b0: f979 5fbb 1cf2 83bb b25a 613c aab4 923c
000001c0: 80a7 21bd 4e5a ff3c 3fe4 523d 01f7 debc
000001d0: 48f6 55bd 223a 6abb 62f4 bf3c 44fc 02bd
000001e0: 4177 703d dd96 54bd a416 243d 70b9 873c
000001f0: 2eaf 40bc f109 e7bc 48b3 15bd 54c2 403a
00000200: e48b 5a3d 2a08 d6bd 6cd6 c6bc eef1 313c
00000210: 3aa9 1f3d 5268 bc3c 3410 00bd 9c6e eabc
00000220: 9e2d 5dbd a2c9 d43c d764 ed3b 67a0 cfbc
00000230: 504e 073d 6a90 06bc 9a16 373c 4a4a 403d
00000240: 50f0 323c 8a11 4d3c e22d b53b 045a 83bd
00000250: f3ec 91bd cd77 463b 53ef 3bbc 8885 0cbd
00000260: a7e7 07bb 48e3 d9bc b354 8ebd 5bc7 acbb
00000270: 61ef 79bc 9545 e5bc f58b 903d 7539 cb3b
00000280: 9965 d83c 56d7 16bc 3c84 023d 84f0 dcbc
00000290: 3daa c13c 82bd 2b3d 455a 173b 997e 9abc
000002a0: 776b 623c 744b b43b b0ce 193d ebef 39bd
000002b0: 5f57 dcbc 8120 22bb 70f5 5f3d c40c 60bc
000002c0: a61d 11bc 0899 87bd d5b9 5a3a e9b1 12bc
000002d0: 6c5f 00bd 664a 3c3d ca8c 1fbb 9e6c 353d
000002e0: 5b7a 083d a68a 79bc a594 16bd 0b4c 3cbc
000002f0: cc5d b1bb e361 99bc 74d4 a83c a4e7 d53c
00000300: fc10 de3c 66ee bfbb caf4 923d ecb4 5a3d
00000310: c6a5 133d e8bc eb3c 48d1 f539 19f3 cc3d
00000320: f394 a73d ab4e 5c3c cb7b e5ba e5d9 f3bc
00000330: eed0 423d ef6a 39bc a4a6 943d 8441 bdbc
00000340: 005c e3bd 46c8 873b 314d 8b3d 44d3 983b
00000350: f3a8 65bd 381b f2bd a2b5 6abd 2a9a 973b
00000360: 50de 293d 13bd edbd 5ece 81bd 422c 233d
00000370: 7886 e63b e98b e03b 0c4b 7c3d 1657 2c3d
00000380: b396 8cba 427d 933c 266c 5cbd 0407 37bc
00000390: 912d c4bc 8fd8 73bb a4d8 4dbd eaeb 2abd
000003a0: ec15 30bd 2b6d db3c 4d8a 0fbd 1e02 7fbd
000003b0: 3a9d 763c 000b 703c 6ef7 463d 3bdd 763c
000003c0: 526f 163d 0115 a43b 7b3d 28bd e530 123c
000003d0: 4084 ffbd d4bf afbc ec96 fb3b f05f 2ebd
000003e0: 8b48 333d e546 6f3d 56b6 5a3c 0b74 30bd
000003f0: c8b6 54bc 97fd d13c e844 73bc f8ee 2fbd
