palm_detection/pretrained_weights/conv2d_24_Bias.npy (npy, 1104 bytes, 1 tensors)

array f4 [256]
0	0x3ef893fa	0.48550397
1	0xbdf52c46	-0.11971335
2	0x3dbd06ab	0.092297874
3	0xbee264d0	-0.4421754
4	0x3fa4409d	1.2832218
5	0xbea1f1f0	-0.31629896
6	0xbe9774ec	-0.29581392
7	0xbed6ed33	-0.41977844
8	0xbedcca02	-0.4312287
9	0x3f9c0b99	1.2191039
10	0x3ea2dfe7	0.3181145
11	0x3e901d35	0.28147283
12	0x3eebd510	0.4606099
13	0xbe8aa03f	-0.27075383
14	0xbf93011f	-1.1484717
15	0x3f87a6b8	1.0597754
16	0xbe6e45e1	-0.23268844
17	0x3f774c3f	0.9660072
18	0xbfae9973	-1.3640579
19	0xbfb22deb	-1.3920263
20	0x3f332835	0.69983226
21	0xbf7f6037	-0.9975619
22	0xbd1bcdd5	-0.038038094
23	0x3f110486	0.5664753
24	0x3f427c70	0.75971127
25	0xbf32e00e	-0.6987313
26	0x3ea2ddae	0.31809753
27	0xbf47ace5	-0.7799819
28	0x3e897a60	0.26851177
29	0xbfbd237b	-1.4776453
30	0xbfc6b26b	-1.5523199
31	0x3de8b5b5	0.11362783
32	0x3e26f1d1	0.16303183
33	0x3f35d883	0.71033496
34	0xbea199a8	-0.31562543
35	0xbec29160	-0.38001537
36	0xbf730bc6	-0.9493984
37	0xbde380d8	-0.11108559
38	0x3f4d0d3e	0.8009833
39	0x3eb0de12	0.34544426
40	0x3f23d5b0	0.63997936
41	0x3e8053ae	0.25063843
42	0xbf18df64	-0.5971587
43	0x3fc4ede1	1.5385095
44	0xbce2de48	-0.027693883
45	0xc0302e36	-2.7528205
46	0x3f390a2d	0.7228115
47	0xbfdc0f8c	-1.7192245
48	0xbe5e8946	-0.21732053
49	0xbf0a5f91	-0.5405207
50	0x3ef1293b	0.4710177
51	0xbf42869a	-0.75986636
52	0x3eae5a35	0.34053198
53	0xbf13137d	-0.5745161
54	0xbe21dd6d	-0.15807123
55	0xbfe0f3b0	-1.7574368
56	0xbfe64095	-1.7988459
57	0xbeebc104	-0.46045697
58	0x3ec8cf07	0.3922045
59	0x3f505a86	0.8138813
60	0xbf4997e8	-0.78747416
61	0xbc4e4a11	-0.012590901
62	0xbf4f4af5	-0.8097375
63	0x3f8cd96f	1.1003855
64	0xbfdfaa20	-1.7473793
65	0xbea6ede2	-0.32603365
66	0x3f17e0e3	0.59327525
67	0x3f1d8ee1	0.6154614
68	0xbefc190f	-0.49237868
69	0xbf07896c	-0.52944064
70	0xbf0791f9	-0.5295711
71	0x3ed7bec9	0.42137745
72	0x3f652637	0.89511436
73	0x3dcab294	0.09897342
74	0x3e83765a	0.25676233
75	0xbf7b4a2d	-0.9816006
76	0x3dd4dd64	0.103937894
77	0xbf8f21e7	-1.1182221
78	0x3e764b8d	0.24052258
79	0xbf43a34c	-0.76421046
80	0xbf177db0	-0.5917616
81	0x3f0b305e	0.5437068
82	0x3f2d09b3	0.67592925
83	0x3f6128c2	0.87952816
84	0x3fb65f56	1.4247844
85	0xbf02b16d	-0.5105198
86	0x3e9f465a	0.3110836
87	0x3fd51867	1.6648072
88	0x3f841962	1.0320246
89	0x3ee65f56	0.4499461
90	0x3edb92a1	0.42885306
91	0xbfd58c7a	-1.6683495
92	0x3f8634c4	1.0484853
93	0x3ef51e4d	0.4787468
94	0xc01316e3	-2.298272
95	0x3f9858f5	1.1902148
96	0xbe273bfc	-0.16331476
97	0x3f6cb9ed	0.924712
98	0xbfa74afd	-1.306976
99	0xbc9ebf4f	-0.019378332
100	0xbf9a0b3f	-1.2034682
101	0xbea7e59a	-0.3279236
102	0x3ed33e98	0.41258693
103	0x3f292a24	0.66079926
104	0xbf003241	-0.5007668
105	0x3faae091	1.3349782
106	0x3eaf2319	0.34206465
107	0xbe29e133	-0.16589813
108	0x3d1ccbbc	0.038280234
109	0x3e25796e	0.16159603
110	0xbeb1d971	-0.34736207
111	0x3fabd449	1.3424159
112	0x40270f70	2.6103172
113	0xbf666486	-0.89997137
114	0xbfd1b816	-1.6384304
115	0xbf7a3016	-0.97729623
116	0xbecce35c	-0.4001721
117	0xbfd27172	-1.6440871
118	0x3e1ac65c	0.1511473
119	0xbf9f9c4e	-1.2469575
120	0x3f2cdcb7	0.67524284
121	0x3ed1a8eb	0.40949187
122	0xc071798c	-3.7730436
123	0x3f2116e2	0.6292554
124	0xbec512cd	-0.38490906
125	0x3f0f4b32	0.55974114
126	0xbf6c4d81	-0.9230576
127	0xbf791e76	-0.97312105
128	0xbfb83821	-1.4392129
129	0x4033001d	2.796882
130	0xbf889447	-1.0670251
131	0x3fa55725	1.2917219
132	0xbffcd469	-1.9752322
133	0x3f50c009	0.8154302
134	0xbf212b2f	-0.6295652
135	0xbfdcb686	-1.7243202
136	0xbd99d717	-0.07511728
137	0xbf4cdc2e	-0.8002347
138	0xbf88f1d0	-1.0698795
139	0xbedee0c3	-0.43530855
140	0xbfa92611	-1.3214742
141	0xbf20c7a8	-0.6280465
142	0x3fc24f1f	1.5180396
143	0x3f841200	1.0317993
144	0xbf71a8d6	-0.9439825
145	0xbe9260e7	-0.28589556
146	0x3ec99c68	0.3937714
147	0xbe784614	-0.24245483
148	0x3db72533	0.08942642
149	0x3f85fe01	1.0468141
150	0xbfde950c	-1.7389235
151	0xc0447bcc	-3.070056
152	0x3fed9191	1.8560048
153	0xbf3e594c	-0.74355006
154	0xbfa7c986	-1.3108375
155	0xbfb01fab	-1.3759664
156	0x3da41c9a	0.08013268
157	0x3f6c2a30	0.92251873
158	0xbf777ec0	-0.9667778
159	0xbf9ad3f4	-1.2095933
160	0x3f077c1c	0.5292375
161	0xbf7d407d	-0.98926526
162	0x3f8f63ec	1.1202369
163	0xbfc43279	-1.5327903
164	0xc012face	-2.296558
165	0x3d0c9ad2	0.034327336
166	0xbf57b1bf	-0.84255594
167	0xc03bb5d7	-2.9329736
168	0x3efbabd4	0.49154532
169	0xbf169611	-0.58822733
170	0xbf3c4a4f	-0.73550886
171	0xc03801cb	-2.8751094
172	0x3faf9474	1.3717179
173	0x3e52337d	0.20527454
174	0x3f74c716	0.9561628
175	0xbf3ee13f	-0.7456245
176	0x3fbc5a37	1.4715031
177	0xc01a4811	-2.4106486
178	0xbfb1cde4	-1.3890958
179	0xbf9fba33	-1.2478698
180	0xbea41c70	-0.32052946
181	0xbf81d927	-1.0144395
182	0xbf95904f	-1.1684664
183	0x3e8ba7cc	0.27276456
184	0xc020f463	-2.5149162
185	0xbf2a9ad8	-0.6664252
186	0xbfc85a7d	-1.5652615
187	0x3dddc4ed	0.10828576
188	0xbede0901	-0.43366244
189	0x3f24b93d	0.6434515
190	0xbf68671e	-0.90782344
191	0x3e05fb35	0.13084109
192	0xbe7104ed	-0.23537035
193	0xbf7f5bb6	-0.99749315
194	0x3f23228c	0.6372459
195	0x3d2c699d	0.04209291
196	0xbf90be39	-1.1308051
197	0xc008f556	-2.139974
198	0xbf192bca	-0.5983244
199	0xbfb850f5	-1.4399706
200	0xbfbd5099	-1.4790221
201	0x3ecb0de7	0.39659044
202	0xbfa81c2c	-1.3133597
203	0xbf83d773	-1.0300125
204	0xbf3345c8	-0.7002835
205	0x3f1dbd60	0.6161709
206	0x3dfc6da6	0.12325601
207	0x3f250036	0.64453447
208	0x3f914a59	1.1350814
209	0xbfe0a1d8	-1.7549391
210	0xbe908d50	-0.28232813
211	0x3dd5b9ce	0.1043583
212	0xbf80db9f	-1.0067023
213	0x3ee5ee84	0.44908535
214	0xbf76ba40	-0.96377945
215	0xbe91f945	-0.2851049
216	0xbf727a37	-0.94717735
217	0xbfb05a44	-1.3777547
218	0xbf575f4e	-0.841298
219	0xbf8fa5a5	-1.1222426
220	0xbf2d5353	-0.6770527
221	0xbf10e238	-0.5659518
222	0x3f470a88	0.77750444
223	0x3f49c237	0.78811973
224	0x3fe45efa	1.7841485
225	0xc0132935	-2.29939
226	0xbc5830da	-0.013195241
227	0xbfa96b5c	-1.3235888
228	0xbfc45d32	-1.5340941
229	0xbf81f15d	-1.0151783
230	0x3f9a5b52	1.2059119
231	0xbf280d67	-0.6564545
232	0xbf854b14	-1.0413537
233	0x3fa53b04	1.2908635
234	0x3fc9581b	1.5730013
235	0xbdf3bdae	-0.11901413
236	0xbf4ed436	-0.8079256
237	0x3e273187	0.16327487
238	0x3ec91ed0	0.3928132
239	0xc003158a	-2.0481896
240	0x3f6d3404	0.92657495
241	0xbe8dfcbf	-0.27731892
242	0x3c697457	0.014248929
243	0xbe3a4e57	-0.18193947
244	0x3fe169dc	1.7610431
245	0xbe7af843	-0.24508767
246	0xbff32cb9	-1.8998023
247	0x3e293975	0.16525824
248	0x3fb957eb	1.4479955
249	0xbee5071b	-0.44731984
250	0x3e656575	0.22401984
251	0xbff499e2	-1.9109461
252	0x3f4eaf9c	0.8073671
253	0xc045ff02	-3.0936894
254	0xbf113ec9	-0.5673643
255	0xbf618786	-0.8809742
