palm_detection/pretrained_weights/conv2d_25_Kernel.npy (npy, 262240 bytes, 1 tensors)

array f4 [256, 1, 1, 256]
-0.0032209158 0.003179459 -0.002472254 -0.01441756 -0.0020222082 0.0009521208 0.0072061303 -0.005494742
-0.0015388074 0.005188238 -0.0032373357 0.011414277 -0.0027245241 -0.008389825 0.0123164635 0.0021687665
-0.0051556285 0.0033032657 1.1810496e-05 0.015258657 -0.022899322 0.004690904 -0.009105199 -0.0030873863
-0.004188444 -0.0057300287 -0.01113713 -0.0010775703 0.004587287 -0.0050302777 0.0024515141 0.026554238
0.01660904 0.0127992965 0.003130992 -0.00012698825 -0.0033976657 -0.0048682904 0.019521821 0.010530319
0.012230425 -0.0077689197 -0.009951736 0.0021538578 0.0022636265 -0.0018360403 0.0023896522 9.2419825e-05
-0.0035454014 0.016024379 -0.0033016738 0.013609438 -0.000453596 0.0089676175 -0.0012432459 0.0028003976
-0.00081120763 0.0015233945 -0.015701529 -0.022178084 0.010369877 0.0150354635 -0.0076373606 0.0014234006
-0.01045822 0.0058207745 0.0115853995 0.0021256278 -0.0074622515 -0.007362524 0.0052006203 -0.01188474
-0.000955232 0.0040521664 -0.012058398 0.009054433 0.005956687 -0.004534712 -0.016925897 0.0025505554
-0.004527281 -0.0034043957 -0.022317126 0.010758921 0.018884655 0.007473911 0.012521298 0.01363815
-0.0024213907 0.00899793 0.011058614 -0.0027422665 0.0052859006 -0.007168737 0.0025562018 0.007867443
-0.00072278606 -0.0041049803 0.0021836725 -0.0028055 0.0072754966 0.0016618647 0.003663021 -0.01592751
0.0037347695 0.005172011 -0.0073288525 0.0006182678 0.002736595 0.0013881096 0.006528067 0.0104872305
-0.0017476002 -0.008433417 0.0058757593 -0.012620684 0.0057832785 -0.002284971 -0.0066108988 -0.0020913538
0.0018767129 0.010347521 -0.013742398 0.008038862 -0.0008523734 0.016033879 0.007912051 -0.007707479
-0.0049598357 0.0074971695 0.0028585747 -0.0015579879 0.006678269 -0.0009158534 0.000507417 0.00083919626
0.017175293 -0.015670722 -0.009530218 0.0012925355 -0.0062256292 0.010572883 0.00032667725 0.004664365
0.0013044392 0.0084545305 0.008426251 -0.0021566877 0.008135375 4.31332e-05 0.0010307875 0.007966396
0.0045791115 -0.003957515 -0.0030114823 -0.003782383 0.018096846 0.00849444 0.00029013815 0.008940169
0.0039756363 0.0030703004 0.0004010062 -0.019078191 -0.00016816898 -0.0051515107 0.0031569526 -0.002145655
-0.002604859 -0.0014139609 -0.005472766 0.0023823811 0.011607363 -0.0014733247 -0.008992624 -0.004040153
-0.0007573692 0.002470865 0.005402829 0.0017448604 -0.0035598306 0.0028488918 0.001081721 -0.0035378516
-0.0013121289 0.0019948871 -0.006953202 0.0049486826 0.013389256 0.012051404 -0.0017142784 0.004227322
-0.00016804559 -0.0019385115 0.009214016 -0.012340253 -0.0038077524 -0.0053447704 -0.00044924903 -0.010748621
0.0019334625 0.003586518 0.003971971 0.0037561595 0.0013786493 -0.008367959 0.0023839716 0.0032090552
-0.022842798 0.0006934357 -0.00042029066 0.018245975 -0.0028188904 0.0050027273 0.0023978243 -0.0034671826
0.005223113 -0.0035043857 -0.006207719 -0.005089041 -0.00016184348 -0.012687491 -0.004166682 -0.0068180724
0.0041847867 -0.0021644442 0.00048751186 -0.00020393617 0.0025485123 0.006807799 0.0010411955 0.006700052
0.000110623216 0.015502059 0.002611691 0.020591447 -0.0076716365 -0.009784771 0.008540654 0.021057695
-0.0050185053 -0.00027062153 -0.007554182 0.0036920176 0.008784237 0.0064265104 0.0033395586 -0.020885399
-0.004337767 0.0016290873 -0.010861732 -0.00956601 -0.002528423 -0.0090658 -0.003443267 0.002508308
00000000: 0016 53bb 785e 503b 8a05 22bb a137 6cbc
00000010: 0687 04bb bf97 793a 6721 ec3b 3d0d b4bb
00000020: cfb1 c9ba 1802 aa3b 7b29 54bb f302 3b3c
00000030: ee8d 32bb 7a75 09bc feca 493c dd21 0e3b
00000040: 8cf0 a8bb 9a7b 583b b225 4637 72ff 793c
00000050: 5c97 bbbc 28b6 993b f92d 15bc bf55 4abb
00000060: 373f 89bb f7c2 bbbb 8278 36bc 423d 8dba
00000070: f450 963b 07d5 a4bb 95a9 203b 4688 d93c
00000080: ae0f 883c 24b4 513c 5431 4d3b 2628 05b9
00000090: 5fab 5ebb 2e86 9fbb 3aec 9f3c 5c87 2c3c
000000a0: 1f62 483c 6c92 febb 9b0c 23bc bd27 0d3b
000000b0: 5a59 143b 4aa7 f0ba b69b 1c3b 84d1 c138
000000c0: f759 68bb 8f45 833c e560 58bb 1ffa 5e3c
000000d0: a0d0 edb9 eaec 123c 69f4 a2ba e086 373b
000000e0: 39a7 54ba a3ac c73a 7ea0 80bc d0ae b5bc
000000f0: 6be6 293c 4e57 763c d342 fabb 6691 ba3a
00000100: f458 2bbc 32bc be3b b0d0 3d3c 1e4e 0b3b
00000110: e785 f4bb 5441 f1bb f769 aa3b 36b8 42bc
00000120: 8968 7aba 09c8 843b 9690 45bc 0b59 143c
00000130: 5030 c33b ec97 94bb 2ea8 8abc 3827 273b
00000140: 9659 94bb 481c 5fbb 68d2 b6bc 2f46 303c
00000150: feb3 9a3c b6e7 f43b 2126 4d3c 8c72 5f3c
00000160: 32b0 1ebb 0e6c 133c 302f 353c 99b7 33bb
00000170: 5935 ad3b b9e7 eabb f385 273b 73e6 003c
00000180: 5a79 3dba 1283 86bb f21b 0f3b 7bdc 37bb
00000190: 4a67 ee3b edd2 d93a 4b0f 703b 697a 82bc
000001a0: 09c3 743b f979 a93b df26 f0bb 4013 223a
000001b0: 7258 333b 3bf1 b53a 65e9 d53b a2d2 2b3c
000001c0: bb0f e5ba 512c 0abc 7189 c03b fcc6 4ebc
000001d0: a881 bd3b 74bf 15bb 3da0 d8bb 180f 09bb
000001e0: 09fc f53a a688 293c cb27 61bc 6eb5 033c
000001f0: d071 5fba 7b59 833c 8ca1 013c 058f fcbb
00000200: 1e86 a2bb d1aa f53b ed56 3b3b 6635 ccba
00000210: 61d5 da3b e215 70ba 2e04 053a 82fd 5b3a
00000220: 33b3 8c3c e35f 80bc a224 1cbc 4b6a a93a
00000230: 5d00 ccbb e339 2d3c e145 ab39 88d7 983b
00000240: b7f9 aa3a df84 0a3c 420e 0a3c 3757 0dbb
00000250: 3c4a 053c ece9 3438 7d1b 873a 7d85 023c
00000260: 5f0c 963b 0bae 81bb 4a5c 45bb dbe1 77bb
00000270: d63f 943c 432c 0b3c af1d 9839 c979 123c
00000280: 0e46 823b 1837 493b 243e d239 de49 9cbc
00000290: 8456 30b9 01ce a8bb e0e4 4e3b 1e9e 0cbb
000002a0: 48b6 2abb a854 b9ba e354 b3bb b921 1c3b
000002b0: cf2c 3e3c 931c c1ba cc55 13bc 4363 84bb
000002c0: 308a 46ba 3cee 213b 370a b13b cdb3 e43a
000002d0: 0c4c 69bb 79b4 3a3b 89c8 8d3a 4ddb 67bb
000002e0: bdfb abba a7bc 023b b0d7 e3bb 8f28 a23b
000002f0: 9c5e 5b3c 4173 453c a3b1 e0ba 5985 8a3b
00000300: 6535 30b9 a715 feba 62f6 163c c62e 4abc
00000310: 7c8b 79bb 2f23 afbb 2f89 ebb9 fc1a 30bc
00000320: 3c6c fd3a ca0b 6b3b 4f27 823b e629 763b
00000330: cbb3 b43a c419 09bc 683c 1c3b 034f 523b
00000340: d220 bbbc afc7 353a 755a dcb9 9578 953c
00000350: 22bd 38bb ebed a33b d124 1d3b ac39 63bb
00000360: a626 ab3b d6a9 65bb 1f6a cbbb f8c1 a6bb
00000370: 87b4 29b9 32df 4fbc a988 88bb 236a dfbb
00000380: 8920 893b 59d9 0dbb bc98 ff39 b3d7 55b9
00000390: f104 273b f513 df3b b978 883a 1c8c db3b
000003a0: 63fe e738 59fc 7d3c e728 2b3b 65af a83c
000003b0: 5a62 fbbb 4e50 20bc 19ee 0b3c 3081 ac3c
000003c0: 4672 a4bb 35e2 8db9 1289 f7bb c7f5 713b
000003d0: c3eb 0f3c 7a95 d23b 7fdc 5a3b db17 abbc
000003e0: d423 8ebb 1987 d53a 68f5 31bc c1ba 1cbc
000003f0: e6b3 25bb b988 14bc 6fa8 61bb 6d62 243b
