palm_detection/pretrained_weights/conv2d_transpose_1_Kernel.npy (npy, 524384 bytes, 1 tensors)

array f4 [128, 2, 2, 256]
000000 9e fd 36 bd ac f0 b5 3c 2e ae ec bc 0c d2 e0 3c
       -0.044675462 0.022209488 -0.02889165 0.027443908
000010 bf 86 91 3c 34 57 7b 3c 4b f3 90 bc d8 a3 e0 ba
       0.017764447 0.015340615 -0.017694136 -0.0017138673
000020 3e d0 b9 ba 72 56 b9 bc 29 8e 01 bc 8e 89 a7 3b
       -0.0014176441 -0.022624228 -0.007907429 0.0051128333
000030 5f 47 e5 3b 5f b4 4b 3b 34 ab 09 bc 67 aa b6 bc
       0.0069970335 0.0031082851 -0.008402634 -0.022298051
000040 32 38 ea 3c 61 3b 98 3a a5 a9 3a 3d 55 80 af bc
       0.02859125 0.0011614376 0.045571942 -0.021423498
000050 63 e4 f0 3c 5b 31 32 bc dc 4b 02 bd b3 13 ba 3c
       0.029405778 -0.010876025 -0.031810626 0.022714471
000060 65 62 58 3d c4 dc 29 3c de f5 cc 3b 13 e0 7b bc
       0.05282821 0.010367576 0.0062548956 -0.015373248
000070 36 e9 af bd c1 2f a3 bc 01 40 81 bc 42 6a 82 bc
       -0.08589403 -0.019920232 -0.01577759 -0.015919808
000080 34 ea 5f bd 5f 49 ca bb 06 4d 86 3c 62 4b d6 bc
       -0.054666713 -0.0061732973 0.01639415 -0.026158992
000090 b8 2a fd bb d2 04 9b bc 13 fc ef bc b7 8c d0 bb
       -0.0077260397 -0.018923197 -0.029295003 -0.0063644308
0000a0 81 ca ee 3b ce 33 3e 3c cd d6 97 3c 0e f7 0e 3d
       0.007287324 0.011609031 0.018535042 0.03490358
0000b0 f7 e7 ad bd 0d b8 18 bd 67 7a 02 3d 97 1b 60 bd
       -0.084915094 -0.0372849 0.031855013 -0.05471381
0000c0 3f 72 32 3d dc 53 15 bd 4b 8d aa 3c fb 52 ad 3c
       0.043565985 -0.036456928 0.020819327 0.021157732
0000d0 1c c7 6e 3c f0 c0 e2 bb a2 81 dd bc 85 9a 9b 3c
       0.014573839 -0.0069199726 -0.027039353 0.01899458
0000e0 8b 11 05 bc f7 92 8d 3d a5 b3 a1 3c 53 91 3c bd
       -0.008121858 0.06912797 0.019738982 -0.04603703
0000f0 1f 34 64 bd 7f b5 f4 3b 07 31 35 3d 42 41 4b bb
       -0.05571377 0.007467925 0.04423621 -0.0031014238
000100 cb 27 16 3d 62 1d 90 bc df 89 83 bd c2 ae c5 bc
       0.036659043 -0.017592136 -0.06422781 -0.024131183
000110 b5 ae 0b bd e6 06 10 3d 45 e3 af 3c 4e 9b 81 bc
       -0.03410216 0.03516283 0.021470675 -0.015821125
000120 07 fa 62 bd d0 12 36 bd f5 8c ba bc f3 eb fb 3c
       -0.055414226 -0.044451535 -0.022772292 0.030752158
000130 5d b1 c3 bb 16 8f 04 bd 03 05 c2 bc ad 8b 0a bd
       -0.005972071 -0.03236302 -0.02368403 -0.03382461
000140 6f f5 09 3d f6 e9 45 bd 6d 87 98 bc 45 35 c5 3a
       0.03368133 -0.048318826 -0.018619264 0.0015045783
000150 9f 76 68 bd ac ec 07 bd 47 39 4e bc 0f 4d d9 3c
       -0.05675375 -0.033184692 -0.012586898 0.026526002
000160 4c 2f 50 3c 9b 80 d7 bb 19 1f 1a 3d 16 bb a9 3c
       0.012706589 -0.0065766103 0.037627313 0.020719092
000170 b4 f8 80 3c 73 4a d2 bc f7 01 fd bc d5 d6 cf 3c
       0.01574359 -0.025670266 -0.030884726 0.025370995
000180 1e 52 a9 bc a6 f1 0b be d4 20 59 3c 4f 58 2d 3b
       -0.02066904 -0.136664 0.013252456 0.002645034
000190 1e e7 78 3c 79 da b3 3c 91 2c 06 bd f3 7e c2 bc
       0.015191821 0.021954762 -0.032757346 -0.023742175
0001a0 70 94 51 bd 15 34 3e 3d 3d 0a cf bb 9c 2e 02 3c
       -0.05116695 0.046436388 -0.006318359 0.007945683
0001b0 02 ef b6 3c ac 31 71 bd eb 2f ac bc b9 aa 6b 3d
       0.022330765 -0.05888526 -0.021018943 0.05753586
0001c0 80 2b 9f bc 2a ba a7 3c be 5a cc bc a7 56 f5 bb
       -0.019429922 0.020474512 -0.024945613 -0.0074871364
0001d0 54 35 ee b9 71 19 26 3c f7 51 57 bc 56 5b fa 3a
       -0.0004543463 0.010137902 -0.013142101 0.0019100707
0001e0 a5 cc be 3d 8c 9b 9a bc 22 f8 f8 bc d6 6a 8a 3b
       0.093163766 -0.018872999 -0.030391756 0.0042241616
0001f0 fe d4 95 3c 77 73 41 bc b1 6e 3a bb 59 fd 8a bc
       0.01829004 -0.011807314 -0.0028447325 -0.016966509
000200 67 39 6c bd 10 ec de ba f0 c1 d2 3c bb bb 5b 3c
       -0.05767193 -0.0017007608 0.025727242 0.013411458
000210 f7 65 3c bb 4b e3 df bc ae 85 1f bd 66 3d 28 bd
       -0.00287473 -0.027330061 -0.038945846 -0.04107418
000220 95 28 2a 3d aa cc a8 bb 65 e1 35 bd 5c b6 5d bd
       0.04154261 -0.005151351 -0.044404406 -0.05412899
000230 27 18 27 3c 4f be 23 bd 7c 3b 07 bc 29 d1 2f 3c
       0.010198629 -0.039976414 -0.008253928 0.01073102
000240 3b 19 99 3b 4e 3d d2 bc ec be 9c bc 1c 7f 83 bc
       0.004672197 -0.025663998 -0.019134007 -0.016051821
000250 f7 da 32 bd b6 ee 0c bd 1f 0b af bc ba 19 be bc
       -0.043665852 -0.03440734 -0.021367608 -0.023205627
000260 35 8b 88 3c 32 0e 11 bc 7e 6a a0 b9 7d fe a1 3a
       0.016667942 -0.008853482 -0.0003059692 0.0012359169
000270 0f a2 63 bb 60 2e 83 bd 18 81 19 bd d6 af 80 3c
       -0.0034734046 -0.0640533 -0.03747663 0.015708845
000280 ad 99 34 bc 7e f3 78 bd 5b eb 32 bb db ef 24 bc
       -0.011022967 -0.060779087 -0.0027300927 -0.010066952
000290 19 5b 51 3c 49 f2 c1 bc 30 75 55 bc da a3 89 bb
       0.012778067 -0.0236751 -0.013028428 -0.004200441
0002a0 07 fe db 3c 60 e5 9f b9 94 32 50 bd 23 3c b6 3c
       0.026854528 -0.0003049774 -0.050829485 0.022245472
0002b0 b3 4a 0c bd 8a b3 70 3c 5f bc 44 3c 79 37 92 3c
       -0.034250926 0.014691243 0.012007802 0.017848717
0002c0 25 2d 9f 3c b4 50 93 bc 76 71 0e bd af ef 0d 3d
       0.019430706 -0.017982818 -0.034776174 0.03465241
0002d0 99 7c cd bc ba 67 ca bc 35 2e a1 bb 43 c0 22 bc
       -0.025083827 -0.024707664 -0.0049188384 -0.009933534
0002e0 d0 6a a1 bc 3d c5 52 bd c3 f3 d3 3b 0b bd 06 bd
       -0.019704252 -0.051457632 0.0064682676 -0.03289513
0002f0 70 a6 c2 3c cd 2f 15 bd c1 a7 9a bc 3d 9f 1e 3d
       0.023761004 -0.03642254 -0.01887882 0.03872608
000300 3a 2c bd bd d8 07 37 3b 65 05 94 bb 46 56 38 bc
       -0.09236951 0.002792826 -0.0045172446 -0.011251038
000310 18 6a 5e 3d 1e 5e 8f bb c6 16 9a bc 01 f7 65 3c
       0.054300398 -0.0043752333 -0.018809687 0.014035941
000320 b8 bb 09 3d d2 a0 7d bc 25 8e 72 3c fb 74 46 3b
       0.03362629 -0.015480237 0.014804398 0.0030282128
000330 be 35 c6 3c 3c 86 15 bd 2b ce f5 bc 8f e2 36 3c
       0.024195548 -0.03650497 -0.030005535 0.011162414
000340 d5 5e 19 bd c4 bc 4f 3d 59 a1 12 bd 80 cb 54 3c
       -0.037443954 0.05071713 -0.035798404 0.012987971
000350 9d b6 1a bc c5 54 05 3c 59 0c d7 3b 6f 90 4b bc
       -0.009442952 0.008137886 0.0065627513 -0.012424572
000360 21 f6 01 3b 8a 1e b5 3c 93 70 82 bc 42 e6 28 bd
       0.0019830542 0.022109289 -0.01592282 -0.041235216
000370 ab 23 a1 bc ec f0 8a bc ec 9d a8 3c fd b5 b3 3c
       -0.019670328 -0.016960584 0.020583116 0.021937365
000380 41 d4 48 3d 25 31 40 3c d8 1d c8 bd b3 8e cb 3c
       0.049030546 0.011730467 -0.09771317 0.024848318
000390 76 48 a1 bc 93 0a 8c bd b8 06 9f bb 3b ff 58 bd
       -0.019687872 -0.06837954 -0.004853096 -0.05297778
0003a0 a6 55 22 bc 35 df c8 bc bc b7 8e 3d 36 07 77 3b
       -0.0099081155 -0.024520496 0.06968638 0.0037693507
0003b0 a7 6b 23 3d 6a 1d c1 bc 0a 94 51 3c 6e 4f d5 bc
       0.039897587 -0.023573596 0.012791643 -0.026038852
0003c0 e1 f6 38 ba 4f 2b 43 3d ef 0f 47 3d f2 41 a1 3c
       -0.0007055831 0.047648724 0.04859918 0.019684765
0003d0 ab 7f 82 3b dd e0 ce bc 9b 53 e5 bb 1a 4a f4 bc
       0.0039825044 -0.025253708 -0.006998492 -0.02982049
0003e0 4c 8f e4 3c c4 c1 ad 3a d7 5e ce bc 2b 5e e4 3a
       0.02790036 0.0013256599 -0.025191708 0.0017423084
0003f0 1b d7 0f bd c4 01 2d bd e9 05 14 bc 73 3b c8 b9
       -0.03511725 -0.042238012 -0.009034612 -0.00038191266
