palm_detection/pretrained_weights/conv2d_11_Kernel.npy (npy, 16464 bytes, 1 tensors)

array f4 [64, 1, 1, 64]
000000 a1 c4 e3 3a a8 14 19 3b 97 02 db bc 09 5c 89 bc
       0.0017377326 0.002335826 -0.026734633 -0.016767519
000010 66 b9 9f 3b b4 0e 7c bc 97 c4 5b 3c 2d 02 38 bc
       0.004874396 -0.015384365 0.01341357 -0.0112309875
000020 54 49 87 bb ef 62 35 3c 69 70 90 3c 45 4d 51 3c
       -0.0041286144 0.011070951 0.017631726 0.01277477
000030 b5 34 d4 3b a2 88 8d 3c 40 58 2d bb cb 6b f2 bc
       0.0064760097 0.017277066 -0.0026450306 -0.029592415
000040 e3 a2 c1 39 64 9a 03 bc 6b 33 95 3c a6 41 92 3c
       0.0003693319 -0.008032415 0.018212995 0.01785357
000050 69 86 7b bc ba b0 81 bd 8b f2 2e bc b6 47 6f bc
       -0.01535187 -0.06332536 -0.010677944 -0.0146045
000060 27 3c 1b bc 0d 41 76 bc d4 cd d2 3a fd f5 bc 3b
       -0.009474791 -0.015030158 0.001608307 0.005766629
000070 c8 47 d7 bb b2 4b 5b 3b 8c 16 53 3d 87 66 97 bc
       -0.0065698363 0.0033461866 0.051535174 -0.018481506
000080 40 06 51 3b 1d 5a 08 3c 82 a5 a1 bc fc 08 27 3d
       0.0031894594 0.008322266 -0.01973224 0.040780053
000090 50 0a ef 3b 0c a0 1e 3c 31 43 c5 3c 11 0a e9 3b
       0.0072949305 0.009681713 0.02407989 0.0071117957
0000a0 d1 a1 fe 3b 0c 57 92 3c f3 1e bb 3b e4 37 80 3c
       0.007770755 0.017863773 0.0057104765 0.01565165
0000b0 93 1a 7c bc e6 f2 49 3c 27 05 1d 3c f1 92 96 bb
       -0.015387195 0.012325978 0.009583748 -0.0045951535
0000c0 a5 52 18 3c a0 e7 bb bc 8b 7a ae bb aa c1 38 bc
       0.009297048 -0.022937596 -0.005324667 -0.011276642
0000d0 d2 36 1e 3c 6d 34 96 3b b8 39 2c 3c cd 71 cd 3c
       0.009656625 0.0045838864 0.010511808 0.025078679
0000e0 13 dd 1f bc 9a a2 d1 bb 3f 63 93 bc 0f 65 16 bd
       -0.009757298 -0.0063975574 -0.01799166 -0.03671747
0000f0 3d fd b4 3b ed 47 8b 3a ef 88 ab bc a3 53 4c ba
       0.0055233524 0.0010626294 -0.020939318 -0.0007794445
000100 16 bf 9d bc 92 3f e9 bd d3 54 48 3c 01 d2 83 bd
       -0.019256156 -0.11389078 0.012227255 -0.064365394
000110 2a 46 8f bd 8c f5 c3 bb 9f 92 ab 3c 29 5e 97 3c
       -0.069958046 -0.005980199 0.020943938 0.018477516
000120 c4 9e 37 bd 4a 06 1c bd f4 d6 01 bd bc 12 0a bd
       -0.044829145 -0.038091935 -0.031699136 -0.033709273
000130 60 4a 6e 3b 36 54 8a bd a0 7b 79 3d e3 18 39 3d
       0.003636025 -0.06754343 0.060908914 0.04518975
000140 01 ca a0 3c e9 52 3e 3d 1c 3b 0d 3c b8 63 69 3c
       0.019627573 0.046465788 0.00862005 0.014244966
000150 e2 47 45 3d 28 fc b8 bc 0c 88 48 3d 2b 86 ae 3c
       0.048164256 -0.022581175 0.04895787 0.02130421
000160 0d d2 74 bb 4c 47 a3 bd 92 3c 9d bc 77 f8 80 3c
       -0.0037356645 -0.07972583 -0.019193921 0.015743477
000170 0f d4 90 39 f7 b6 6e 3a 06 d1 44 39 ee 3f 15 3d
       0.00027623816 0.00091062434 0.00018769884 0.03643792
000180 23 cf a3 3c 0b 63 8c bd 06 65 44 3d 40 fb b3 3c
       0.019996231 -0.068548284 0.047947906 0.021970391
000190 3a 02 b8 3c e0 7c bb 3c ab 42 48 bb 73 d6 f4 bb
       0.022462 0.022886693 -0.0030557315 -0.0074718534
0001a0 72 33 0e 3d bd c0 44 3d 48 79 ed 3c df 67 3f 3d
       0.03471703 0.048035372 0.028988495 0.04672992
0001b0 46 69 a1 3d 33 0e 29 3d 21 fc 83 3d 3c 5e 24 b8
       0.078814074 0.041273307 0.06444574 -3.918841e-05
0001c0 9e 33 9e 3b 0c 23 1c bd c4 3e 05 3e e3 c8 20 bd
       0.0048279306 -0.03811936 0.13012224 -0.03925408
0001d0 5e 0e 86 3b 5a 8e 2b bd f5 78 3a bd e7 59 22 bd
       0.004091068 -0.041883804 -0.04552551 -0.03963652
0001e0 65 e2 99 3d 40 a3 5a bd 15 3f bf 3c 79 5f c9 bd
       0.075138845 -0.053378344 0.02334551 -0.09832663
0001f0 6c 2d 05 3d f2 8d 89 3d b3 34 50 3c 65 3b a0 bd
       0.03251402 0.06716527 0.012707877 -0.078238286
000200 cd 8f 14 3b a8 b5 8a 3c c7 33 e5 bc b9 ac 97 bb
       0.002266872 0.016932324 -0.02797879 -0.0046287444
000210 4f e1 8b bc 88 08 53 3c ec 3a 9a 3c b9 8f 8d bc
       -0.017075209 0.012880452 0.018826924 -0.017280446
000220 ee d5 bb bc ca 23 2f bc 27 26 d8 bc 4b 74 b1 bc
       -0.022929158 -0.010689685 -0.02638538 -0.021661898
000230 b6 ac fe 3c e4 a6 7b bc ce cb b5 3c e4 ae 17 3c
       0.031088214 -0.015359614 0.022191908 0.009258006
000240 6c 32 04 3d 13 6d 5f bb 30 cf 1c 3a e7 f1 c1 bc
       0.03227465 -0.0034092113 0.0005981801 -0.023674918
000250 bc e5 36 bc 31 66 8d 3c f3 ee 8d bc d0 27 13 3d
       -0.011163171 0.017260643 -0.017325854 0.03592664
000260 d6 bc 7a 3c dc c7 c3 bc 18 11 87 3a 2e 5a f8 bc
       0.015303811 -0.023899011 0.0010304777 -0.030316439
000270 74 65 74 3c 07 60 12 bd 27 5f 86 bc 44 cc 0f bb
       0.014916766 -0.03573611 -0.016402794 -0.002194182
000280 2b e5 8f 3c ad d9 0e bd 5c 48 b3 bc ad e0 e4 3b
       0.01756533 -0.03487556 -0.02188509 0.0069847913
000290 85 d0 c6 3b 3e a6 05 bc e9 b6 b7 3c 17 85 1f 3c
       0.006067338 -0.008157311 0.022426086 0.009736321
0002a0 d7 ac 03 3d f8 36 15 3c 55 cf b5 bb 48 57 4a 3b
       0.032147255 0.009107344 -0.0055483975 0.0030874778
0002b0 a4 ea c2 3c 7c 80 05 bd 6a f2 e7 3c e6 2a 40 3c
       0.023793526 -0.032593235 0.028313834 0.011728978
0002c0 09 11 a3 3b 30 93 f1 bc cf 2d 53 3c 82 5e 62 bc
       0.004976396 -0.02948913 0.01288934 -0.013816478
0002d0 a3 4b ac bc 87 fe 88 3c ee 8c 56 bc 7f 32 d2 3b
       -0.02103216 0.01672293 -0.013095124 0.006414711
0002e0 83 24 b0 bc 65 ec f8 3c d4 3d e0 3c fb ea ac 3b
       -0.021501785 0.03038616 0.027373232 0.0052770353
0002f0 f9 fb d3 3b b8 3d 2a 3c f1 e1 da bc 2f 06 29 ba
       0.0064692465 0.010390691 -0.026719065 -0.000644776
000300 98 e8 bf 3a e1 36 5c 3c ff 66 8f bc 56 7f d7 3c
       0.0014641462 0.0134408185 -0.017505167 0.026305836
000310 bd 97 8f bc b2 e6 c2 3a e3 47 40 3b d2 74 de 3c
       -0.01752841 0.0014869778 0.0029339723 0.027155314
000320 cb ad 75 3d 80 4c dd 3b 6e d5 ca bb 4d a4 f1 3c
       0.059980195 0.0067535043 -0.0061899936 0.02949729
000330 c8 a4 2b bd 0d 6b 4d 3c f2 dc 41 3c b7 b7 3c 3c
       -0.041905195 0.01253773 0.011832463 0.01151841
000340 1c 36 95 bb 0d e6 ef bc ca 06 f2 bb 9f 43 1e 3b
       -0.0045535695 -0.029284501 -0.007386063 0.0024149192
000350 12 9e ab 3b ab 2c ad bc f9 e5 fd b8 2a 9d 0c 3c
       0.0052373493 -0.021139463 -0.00012106816 0.008582393
000360 e4 05 66 bc 0f f7 9a b9 dc bd e4 bb 5d 64 9f bc
       -0.01403949 -0.00029557242 -0.006980641 -0.019457037
000370 4b 41 0a 3c 36 f2 d5 3c c6 cf 7c bc 8f 1a 7e bc
       0.008438419 0.026116472 -0.015430396 -0.015509262
000380 9d 47 29 bd 10 76 df 3c cf f9 47 bb f2 57 c5 3c
       -0.04132806 0.027277976 -0.0030513888 0.024089787
000390 80 27 cf bc 8b 30 a3 bc f4 11 e8 3b 58 f9 d6 3b
       -0.02528739 -0.019920608 0.0070822183 0.006560486
0003a0 96 96 6a bd fe 38 01 bd 13 e8 55 3c 97 39 b3 3c
       -0.057272516 -0.031548493 0.013055819 0.021878047
0003b0 cf f0 8b bd 72 81 91 bc 8e 1f 0a 3c 9d 6e 6c 3c
       -0.0683304 -0.01776192 0.008430375 0.014430669
0003c0 cc 59 65 bc f3 c1 68 39 85 b8 7f 3c dd 97 8a bc
       -0.01399846 0.00022197496 0.015607958 -0.016918117
0003d0 1f f7 90 bd a4 8a 2d 3c 42 09 21 bc 6a 5c 1f bc
       -0.070783846 0.0105921365 -0.009828867 -0.009726623
0003e0 9b 22 26 bb 44 be a4 bb 10 8c d8 bb d9 23 8f 3c
       -0.0025350216 -0.0050275642 -0.0066084936 0.017473148
0003f0 a8 af a4 bc 37 ba 4c 3d 53 e2 3c 3d 18 ca 60 bc
       -0.02010329 0.049982276 0.046114277 -0.013720058
