palm_detection/pretrained_weights/conv2d_40_Kernel.npy (npy, 262240 bytes, 1 tensors)

array f4 [256, 1, 1, 256]
0	0xbd61fbdb	-0.05517183
1	0xbc75c85c	-0.015001383
2	0x3c0e6c17	0.008692763
3	0xbba86df7	-0.005140062
4	0x3bca6ec1	0.0061777537
5	0x3c5f5a7e	0.013632415
6	0x3b23b18e	0.0024977657
7	0x3b83f036	0.004026438
8	0x3b9ac0af	0.0047226767
9	0x3c4a0810	0.012331024
10	0x3c3f3ec8	0.011672683
11	0xbbceae70	-0.0063074157
12	0xbbcc76ce	-0.0062397486
13	0xbd016ccd	-0.0315979
14	0x3c1fae4d	0.009746146
15	0x39acdf6b	0.00032972856
16	0xbd455739	-0.048178885
17	0xbb9845da	-0.004646999
18	0xbd078c65	-0.033092875
19	0xbc1839be	-0.009291111
20	0x3abaf802	0.0014264586
21	0xba2e3b3e	-0.0006646401
22	0xbcbbfa88	-0.022946611
23	0xbc31dc3c	-0.010855731
24	0xbb73fa33	-0.0037227988
25	0xbb79824c	-0.0038072048
26	0x3c830a44	0.015996106
27	0x3bd93404	0.006628515
28	0x3c21ee2c	0.009883445
29	0xbcb52c9e	-0.022116002
30	0x3bbd50a6	0.0057774363
31	0x3c03c5ea	0.008042792
32	0xbba0c611	-0.004906424
33	0xbcaae559	-0.020861315
34	0x3ba1ea21	0.0049412404
35	0xbc96e713	-0.018420732
36	0x3bb2aac9	0.005452488
37	0x3b756754	0.0037445622
38	0xbcbf860c	-0.023379348
39	0x3c3ac9a3	0.011400613
40	0xbc847871	-0.016170712
41	0xbc1f6986	-0.009729749
42	0x3c1ed839	0.009695106
43	0xbc4dea57	-0.012568078
44	0x3c8dacb1	0.01729426
45	0x3b9d0670	0.004792027
46	0x3c04e8e3	0.008112165
47	0x3b85965e	0.004076763
48	0xbbe16b1d	-0.006879224
49	0xbd1ee168	-0.038789183
50	0x3c09d4ec	0.008412581
51	0x3c2f4aa0	0.010698944
52	0x3c48abb8	0.012247972
53	0xbc0ab5af	-0.008466168
54	0x3a15ad6b	0.000570974
55	0xbb1c9a01	-0.0023895504
56	0x3baa60af	0.005199514
57	0x3b826d95	0.0039803484
58	0xbd8a4afd	-0.06752584
59	0x3c8b2f96	0.016990464
60	0x3ab7e6f7	0.0014030625
61	0x3ce87fba	0.028381217
62	0x3bfda878	0.0077410303
63	0x3c48d141	0.012256921
64	0x3c134e4b	0.0089908345
65	0x3b28302b	0.0025663476
66	0x3c5e2fe8	0.013561226
67	0xbcba8256	-0.022767227
68	0x3ab29cfb	0.0013627106
69	0xbc2a18a4	-0.010381851
70	0x3c24b3df	0.01005265
71	0x3d2b677e	0.041846745
72	0xbc00688e	-0.007837428
73	0x3c2aa3ef	0.010415061
74	0xbc0755fb	-0.008260245
75	0xbcda7cfa	-0.026670922
76	0x3a78244c	0.0009465858
77	0x3b6a8ffa	0.0035791383
78	0x3d5ae5c0	0.053441763
79	0x3bcf7fc0	0.0063323677
80	0xbcb34b22	-0.021886412
81	0xbc1c6b18	-0.0095470175
82	0xbc469d92	-0.012122529
83	0x3bc8d425	0.006128805
84	0x3c612839	0.0137425
85	0x3b4be3b4	0.0031111063
86	0xbd240d75	-0.040051896
87	0x3a1d9438	0.0006011161
88	0xbc12a804	-0.008951191
89	0xbc6a32d7	-0.014294348
90	0xbab7f537	-0.0014034872
91	0x3c73a63d	0.014871177
92	0x3c1db2d0	0.009625152
93	0x3bcc6afb	0.006238339
94	0x3b4ee868	0.003157163
95	0x3c405eab	0.011741321
96	0x3c793b01	0.0152118215
97	0x3cca1d66	0.024672221
98	0xbb32bb16	-0.0027272156
99	0xbb693df7	-0.0035589912
100	0x3c62dc7f	0.013846516
101	0x3c52b170	0.012859687
102	0x3c2e265c	0.010629263
103	0x3cb1b29f	0.021691618
104	0x3c5465ae	0.012963695
105	0x3c4d8922	0.012544902
106	0xbc5889ab	-0.013216416
107	0xbcb1de56	-0.021712463
108	0xba9ad200	-0.0011811852
109	0x3cb00235	0.021485427
110	0x3c569b3b	0.013098533
111	0x3c490054	0.012268145
112	0xbcee1874	-0.029064395
113	0x3c00474e	0.0078295
114	0x3c3491a4	0.011021052
115	0xbbcaf549	-0.006193791
116	0xbb9de22a	-0.0048182206
117	0x3b8be508	0.004269246
118	0x3d03d12d	0.032181907
119	0xbc5f093d	-0.013613042
120	0x3c981b0b	0.018567583
121	0xbc4ca352	-0.0124901105
122	0xbc8f06a3	-0.01745922
123	0x3cb57c5a	0.022154022
124	0x3b343e7d	0.0027503066
125	0xbb83b96e	-0.0040199077
126	0xbb9bfb1a	-0.0047601582
127	0x3ccf977e	0.025340792
128	0xbc39e008	-0.011344917
129	0x3ca8a759	0.02058761
130	0x3785e30c	1.5960562e-05
131	0x3c678b86	0.014132386
132	0x3ad0ea36	0.0015938941
133	0x3beeba07	0.00728536
134	0x3c91c708	0.0177951
135	0xbbd1ddbd	-0.006404607
136	0x3b150592	0.0022738916
137	0x3c12946f	0.008946522
138	0x3c4fb159	0.01267656
139	0x3c08078e	0.008302582
140	0x3bb54e7d	0.005533038
141	0x3b075350	0.0020649023
142	0x3d005316	0.031329237
143	0xbb8f9f21	-0.0043829833
144	0xbb78af1e	-0.0037946175
145	0x3d0987e5	0.033576865
146	0xbc50cc21	-0.012743981
147	0xbc87f803	-0.016597753
148	0xbc01b3d9	-0.007916414
149	0xbc451b25	-0.012030398
150	0xbbdf54aa	-0.0068155127
151	0xbc5f9235	-0.013645698
152	0x3c9003e3	0.017579978
153	0x3b46febd	0.0030364238
154	0xbc880d98	-0.016608045
155	0xbbea881e	-0.0071573397
156	0xbb006089	-0.001958879
157	0x3c9f4eef	0.019446818
158	0x3c6da297	0.0145040965
159	0xbc577b37	-0.013151935
160	0x3bd5c5c3	0.006523819
161	0xbc8f793c	-0.017513864
162	0x3a92ae2a	0.0011190821
163	0xbbd57b61	-0.006514952
164	0xbc7236fb	-0.014783616
165	0x3ad5cb3e	0.0016311181
166	0xba9e2c90	-0.0012067724
167	0xbc958984	-0.01825405
168	0xbb51d85e	-0.0032019834
169	0xbc7c9c1e	-0.015418081
170	0x3c1cd1da	0.009571517
171	0xbc608008	-0.0137024
172	0x3c149963	0.009069773
173	0xbb804b55	-0.0039152303
174	0xbb0fe39c	-0.0021955734
175	0xbaff2b4d	-0.0019467861
176	0xbc66ae37	-0.014079622
177	0xbc1d442d	-0.009598774
178	0xbb1c6810	-0.0023865737
179	0x3cdb1ce0	0.026747167
180	0x3ba93037	0.0051632184
181	0xbbcdaf8b	-0.00627703
182	0x3b14b9e8	0.0022693817
183	0xbc4bb099	-0.012432241
184	0xbbade9df	-0.0053074206
185	0xba7fbb05	-0.0009755346
186	0x3acbc234	0.0015545548
187	0x3c991748	0.01868786
188	0x3bc5fb71	0.006041937
189	0xbb6a942a	-0.003579388
190	0xba5742e3	-0.0008211566
191	0x3bf6f40f	0.0075364183
192	0xba56a7c6	-0.00081884523
193	0x3a50df92	0.0007967885
194	0xbc32a624	-0.010903869
195	0x3c921b3f	0.017835258
196	0x3b745911	0.0037284533
197	0x3addd60a	0.001692475
198	0xbc1d2769	-0.009591916
199	0xbb0a1053	-0.002106686
200	0x3bd22d5e	0.0064140996
201	0xbcad5fd9	-0.021163868
202	0xbb63d4a5	-0.0034764197
203	0xbc576825	-0.013147389
204	0xbcbb80f8	-0.022888646
205	0x3c2e974f	0.010656192
206	0x3ab5eb01	0.0013879241
207	0xbb502185	-0.003175826
208	0x3c838cbc	0.016058318
209	0xbbd42cad	-0.0064750523
210	0xbbec97ee	-0.00722026
211	0x3b010132	0.001968455
212	0x3bcb88c4	0.006211372
213	0xbcedf582	-0.029047731
214	0xbc73924e	-0.014866425
215	0xbc69f60b	-0.014279853
216	0x3b8103b0	0.003937207
217	0xbb4912d1	-0.0030681381
218	0x3c69616c	0.014244419
219	0xbc47ec1a	-0.012202287
220	0xbc3d8852	-0.011568146
221	0xbbb3a67d	-0.0054824934
222	0x3b92dd91	0.004481979
223	0x3bdc2515	0.0067182877
224	0x3b42e3f5	0.0029737924
225	0x3c7d94c1	0.01547736
226	0xbcc4c094	-0.02401761
227	0xb9f72567	-0.00047139378
228	0xbcb32ac5	-0.02187098
229	0xbb81ea4f	-0.0039646993
230	0x3a901af9	0.0010994367
231	0x39c7dfd7	0.00038123011
232	0xbc40a6db	-0.011758531
233	0xbc946d8e	-0.018118646
234	0xbc1b43aa	-0.009476582
235	0xbc806a9f	-0.01567584
236	0x3b0a1bf0	0.002107378
237	0x3abe9b14	0.0014542066
238	0xbb4236ad	-0.002963464
239	0xbc3b66fe	-0.0114381295
240	0x3baf5595	0.0053507783
241	0x3c5dacd9	0.01352998
242	0xb9b30366	-0.00034144073
243	0xbaa4acb1	-0.0012563673
244	0x3aa69dd4	0.0012711831
245	0x3cec5e24	0.028853483
246	0xbb7e292b	-0.0038781862
247	0xba973dd6	-0.0011538814
248	0x3bcffd6d	0.0063473494
249	0xbb68efa1	-0.003554322
250	0x3b1f840c	0.002434018
251	0x3b32bbe2	0.0027272631
252	0x3c5e2613	0.013558882
253	0xbcd770fa	-0.026298989
254	0xbc91d70d	-0.01780274
255	0x3d0496b2	0.032370277
