palm_detection/pretrained_weights/conv2d_Kernel.npy (npy, 3536 bytes, 1 tensors)

array f4 [32, 3, 3, 3]
00000000: f423 2fbf cdb0 c83d ad79 f83d 01bb aabe
00000010: fbdc 66be 27a1 0dbe f8c9 b23e d448 d4bd
00000020: df70 b0be e8a7 13be 0983 5e3f a514 873f
00000030: 28c6 23be 8db1 6bbe 163f 0f3d 5f67 623f
00000040: aeab dc3e 0063 eb3d f7b9 48be 8d9c 603e
00000050: d77b 6e3e 002f f6be 683b 80bf 6ab6 51bf
00000060: 3cf5 263f 450d ad3d c13b ccbe 41a0 1a3e
00000070: 3fd5 a2be d7b4 af3d d00e 0e3b b664 54be
00000080: 95c5 aa3e de2e a2be 0e66 d0bd 0092 0c3e
00000090: 9866 8cbd 2682 94bf bb25 83be e4ef 4a3f
000000a0: 1acf 41bf 5843 003e 57ad 2b3f fe62 ccbc
000000b0: 948c b53e 9b11 1f3e 130e 93be d957 c13e
000000c0: 900f 6d3f 8f14 05bf 098b 0d3d 7867 f83e
000000d0: 51a1 22bf 613e d73d d4ea d13d 013b a03e
000000e0: 8dd5 113f 5fc6 b73e 2d3e 8a3e 527c fb3e
000000f0: 9695 4d3e 68ab 04bd b92d 8d3e f4df 573d
00000100: 7564 f4bd 9b17 213e 2565 cd3b 9881 64bf
00000110: 55a2 7fbe 2180 583e eeaa 73bf 8b9e 5abe
00000120: 3449 843d 6589 1abe 3494 9f3e 1eab 47be
00000130: 346f f8bf 1db5 17bf 5742 41bb 5bd0 27bf
00000140: 622c 463e ddcf a6bd 9085 36be e194 d3bd
00000150: 60e5 e5bc 1b9f c9bd 79ac 03be 0ae4 1c3d
00000160: baa0 c4bb 372e f3bb 4fcd babd 4d1b 6fbe
00000170: 7500 41be a13b 61bb 78a1 07be 371c 48be
00000180: 3192 e93d 17d5 213d d0d2 04bd a6aa 6bbd
00000190: 0326 11be 82d4 07be 1b2c f83c 816a 99bd
000001a0: 8720 3ebe 7a9e 0f3e 9308 483d 65d1 87bd
000001b0: daab aa3e 7116 80be ee03 e2bd e5d1 2a3e
000001c0: 2563 9fbe 395c db3b 2b39 3a3c 9e97 56be
000001d0: 34ad 01be 70b4 e23e 983a a1be 2303 b4bc
000001e0: c3e6 c43e 338e 7fbe 38df 953b 6bfa 303e
000001f0: a879 4bbe ff12 c0bd fc37 133f 7d62 52be
00000200: af4a a1bd e6bd fb3e 82c4 54be 404f 213d
00000210: 25c4 dd3e 6e8d e1bd 13f9 ee3c 18ea 9e3e
00000220: b21f 053f 2f2e bd3e 7af3 6a3b c93e 603e
00000230: 5aec 6f3e fbd3 bcbd 8adc a1bd 25f5 18be
00000240: 5353 1d3e d771 a83e 3c35 713e e6ef a6be
00000250: 00c3 2abe ea60 98bd 840a aabe e72f babe
00000260: da0b dabe c8e2 85bc 1130 243b 0f65 d7bd
00000270: 4554 adbd 822e f5bd ca53 fbbd e1cf 4b3e
00000280: ccb3 f13b 55bd 10be b09a c93d b9b7 903d
00000290: f3dc 0ebd ce21 933d 9693 5ebe 1148 08be
000002a0: da39 1c3c d8bd 1fbf 237b d5be 5e50 be3c
000002b0: 6be2 663e cbb8 483e ca91 b5bd 2fa0 b93d
000002c0: 7d7e 1e3e 3b30 bcbe 300e 09bf f7b8 80be
000002d0: 44d5 adbd 2701 b13d 0669 bd3d db37 d7bc
000002e0: fd9d 823e a348 963e 6ac6 9bbe a1ab fabd
000002f0: 0f36 26bd c394 24bd d717 33bc 6ce7 dfbc
00000300: dbd5 7dbc ca04 16bd f26e 77bd 0c0f 2a3c
00000310: 7a93 c83b 938a 60bd cc79 c93d 12c6 613d
00000320: 4f52 1e3d 5532 873e eebb 6c3d 1030 a53d
00000330: 1cf1 ae3d b7b2 4fbd ec1b 68bd 6cc8 3d3e
00000340: 5396 8b3d dcb7 f63d 82cf 843e 0ec7 473d
00000350: e7a8 da3d cede c13d 7a18 f33b d4c3 163c
00000360: 322b 01bf 33e7 4abe 8417 4a3e 9060 e8be
00000370: db6d 24be 2430 01be 2e7a 43bf 5920 a4be
00000380: 0c48 c73e 358c 023f 18a9 453e c899 3cbe
00000390: 1fa3 3940 6d0f 9d3f c1ea 0ebe 0553 ffbb
000003a0: a5b5 86bf bce3 16bf 8364 27bf 5d5d 8ebf
000003b0: 1dff 02bf b6cc 1340 305e 043f 3435 edbe
000003c0: 8d4a a23e 6105 b9be b227 c6be 4bc4 273e
000003d0: f2c3 de3c 5d00 cebd a79a 2bbc b1c9 eebd
000003e0: 53d3 bbbe e8c0 adbd 23e4 37be 8334 bbbe
000003f0: b3e1 2b3e 2bdd 713c 53a5 c5bd faad 6e3e
-0.68414235 0.09799347 0.12132583 -0.33345798 -0.22545235 -0.13831006 0.34919715 -0.10365453
-0.34461114 -0.1441952 0.86918694 1.0553175 -0.1599356 -0.23016949 0.034972273 0.8843898
0.4309973 0.11493492 -0.1960219 0.2193472 0.23289429 -0.48082733 -1.0018129 -0.81918967
0.6521795 0.084497966 -0.3988934 0.15100195 -0.3180332 0.08579414 0.002167631 -0.20741543
0.33353868 -0.31676382 -0.101757154 0.1372757 -0.06855506 -1.1602218 -0.25614724 0.79272294
-0.75706637 0.1252569 0.6706137 -0.024949547 0.35458815 0.1553406 -0.28721675 0.37762335
0.9260187 -0.51984495 0.034556422 0.4851644 -0.635274 0.10509945 0.10249868 0.31295016
0.5696648 0.35893533 0.2700056 0.49118286 0.20076594 -0.03239003 0.27573946 0.052703813
-0.11933223 0.15731661 0.006268161 -0.89260244 -0.24964269 0.21142627 -0.95182693 -0.21349542
0.06459275 -0.15091474 0.31167758 -0.1949887 -1.9408937 -0.5926073 -0.0029489005 -0.655523
0.19352868 -0.081451155 -0.17824388 -0.10331131 -0.028063476 -0.098448 -0.12858762 0.038303412
-0.0060006054 -0.0074212807 -0.09121191 -0.23350258 -0.1884783 -0.0034367817 -0.13245189 -0.19542013
0.11404837 0.03950986 -0.03242761 -0.05753579 -0.14174657 -0.13264659 0.030294469 -0.07491017
-0.18567096 0.14025298 0.048836302 -0.06631736 0.33334237 -0.2501712 -0.11035906 0.16681631
-0.3113033 0.0066943434 0.011366169 -0.20956275 -0.12663728 0.44278288 -0.31490016 -0.021974152
0.38457307 -0.24956588 0.004573729 0.17283027 -0.19870627 -0.09378623 0.575073 -0.20545383
-0.07875573 0.4916832 -0.20778087 0.03938222 0.4331371 -0.11013304 0.029171502 0.31037974
0.5200149 0.36949298 0.003585069 0.2189895 0.23430005 -0.092201196 -0.079033926 -0.14937265
0.15363817 0.32899353 0.23555464 -0.32604903 -0.16675949 -0.0744036 -0.33211148 -0.36364672
-0.42587167 -0.01634349 0.0025053064 -0.10517322 -0.08463339 -0.11971761 -0.12271841 0.19903518
0.00737617 -0.14134724 0.098439574 0.07066292 -0.034878682 0.07184182 -0.21735987 -0.13308741
0.009535277 -0.62399054 -0.41695508 0.023231681 0.22547309 0.19601743 -0.08865698 0.09063756
0.15477939 -0.36755547 -0.53537273 -0.25141117 -0.08487943 0.08642798 0.09248547 -0.026271751
0.2551116 0.29352292 -0.30424815 -0.12239767 -0.040578898 -0.040180933 -0.010930977 -0.02733203
-0.015492882 -0.03662566 -0.06040854 0.010379564 0.006121096 -0.054819655 0.09837684 0.055120535
0.038652714 0.26405588 0.05779641 0.08065808 0.08542082 -0.050707545 -0.056667253 0.18533486
0.068157814 0.12046787 0.25939566 0.048773818 0.10676747 0.09466325 0.0074186893 0.0092019625
-0.50456536 -0.19814758 0.19735533 -0.4538617 -0.16057532 -0.1261602 -0.76358306 -0.3205593
0.38922155 0.5099519 0.19302785 -0.18418038 2.9005811 1.2270333 -0.13956739 -0.007791879
-1.0524184 -0.58941245 -0.65387744 -1.1122242 -0.5117052 2.3093696 0.5170622 -0.46329653
0.31697503 -0.36136916 -0.3870216 0.16383474 0.027193043 -0.10058663 -0.010473884 -0.11659563
-0.36684665 -0.084840596 -0.17958121 -0.365635 0.16785316 0.014762203 -0.09650674 0.23308554
