palm_detection/pretrained_weights/depthwise_conv2d_14_Kernel.npy (npy, 2384 bytes, 1 tensors)

array f4 [1, 3, 3, 64]
000000 fc 1f 6c 3e 3f e8 64 3f bd ba 92 3e df b0 8a 3f
       0.23059076 0.8941688 0.28658095 1.0835227
000010 12 f9 4a 3f c3 61 60 bf 06 ef 23 bf e5 09 ab 3f
       0.792863 -0.8764917 -0.64036596 1.3362395
000020 cf 05 30 3d 6e 5e a5 be 31 19 cc be 2d 78 06 3f
       0.04297429 -0.32298607 -0.3986297 0.52527124
000030 fa db 5f bf 89 87 71 3f 32 e6 bb bc cf 8b 00 3f
       -0.8744503 0.94347435 -0.022936914 0.5021333
000040 46 f3 d1 3d 2f aa ac 3e 0f ee 9a be 6f 75 95 3e
       0.10251479 0.3372359 -0.3025975 0.29191157
000050 3f c4 a8 bf ee a6 82 bf 1f 09 98 bf dd 70 42 3f
       -1.318489 -1.0207193 -1.1877784 0.75953466
000060 ef 92 3b bf 64 4c fc be a5 20 a0 bd 1b 8e d3 3e
       -0.7327108 -0.4927703 -0.078187265 0.41319355
000070 a3 4a cd 3d 19 cc cf bc 18 23 a0 be d4 7f e6 3d
       0.100240014 -0.025365876 -0.31276774 0.1125485
000080 1e 36 d3 3d 24 ff 56 3e be df bd bf 37 fe b3 3e
       0.103130564 0.20995766 -1.4833906 0.35154888
000090 b4 90 73 bf be 7c 79 3f f8 7c 44 be 0a d3 bd 3f
       -0.95142674 0.97455966 -0.19188297 1.4830029
0000a0 df d8 2b be af d2 51 be e6 80 92 bf 7c 7f 1e bf
       -0.16781949 -0.20490526 -1.1445587 -0.61913276
0000b0 c2 9e 99 3f 54 94 d1 bf d0 4a 4a 3f f1 f3 0d 3f
       1.2001574 -1.6373391 0.79020405 0.5545035
0000c0 e7 20 02 bd 93 8b a9 bf eb d8 9a bf 68 6f 3a bf
       -0.03176966 -1.324572 -1.2097448 -0.7282624
0000d0 d8 70 ce be c3 a6 1c 3f 96 f3 bf 3f f5 11 1d bf
       -0.40320468 0.6119196 1.4996212 -0.61355525
0000e0 c6 a1 2f 3f b0 50 de bd 5e cd 99 3e 93 ec 43 3f
       0.6860622 -0.10855234 0.30039495 0.7653286
0000f0 b7 fe 5b 3f 4d 06 74 3f fe d5 7c be ef bd 68 3f
       0.8593554 0.95322114 -0.24691007 0.90914816
000100 c4 c1 94 3f e5 b9 98 3f 27 59 21 bf 84 0f c8 3e
       1.1621633 1.193173 -0.6302666 0.39074337
000110 4c bf cb 3e f1 49 f2 bd a1 28 d0 be ef 43 2d bf
       0.39794385 -0.118305095 -0.40655997 -0.67681783
000120 ef ec e7 3d 36 b9 ea bd 97 b3 5a bf 89 9b 42 3e
       0.11324488 -0.114611074 -0.8543028 0.19004644
000130 be 71 40 bf 53 d8 f4 3e 85 8b bd be 93 36 88 3f
       -0.75173557 0.47821292 -0.37020507 1.0641655
000140 ba 7b 4d 3f 04 7e 84 3f 2a 44 48 be bf ab b9 3e
       0.80266917 1.0350957 -0.19557253 0.36263844
000150 73 c3 e9 be 11 9c 10 bf 8a 0c 09 bf be 09 b7 3f
       -0.45656928 -0.5648814 -0.5353476 1.4299848
000160 1f e0 9f bf 18 14 91 bf f2 54 32 be d8 92 08 3f
       -1.2490271 -1.1334257 -0.17415217 0.53349066
000170 c0 d3 4f bf c4 6d 2f be 8c f6 9f bf 4a 4d ac bc
       -0.8118248 -0.17131716 -1.2497115 -0.021032948
000180 c2 d0 93 3f 10 fa 57 3f c2 3c c3 bf af fa fc 3e
       1.1548083 0.8436594 -1.5252917 0.49410006
000190 12 27 3f bf 85 94 84 3f 0e 86 ca bf ef 53 4e 3f
       -0.7466899 1.0357825 -1.582216 0.8059682
0001a0 c0 1b ac 3f 8b 97 2c 3f f1 15 a8 bf bc 00 d7 be
       1.3445969 0.67418736 -1.3131696 -0.41992748
0001b0 74 77 ae 3f cc dd aa bf 9e 07 a9 3d 6e a0 51 3f
       1.3630204 -1.3348937 0.08253406 0.8188542
0001c0 9c d5 6d bf f3 24 08 bf 09 67 31 bf c8 57 c3 bf
       -0.9290407 -0.5318138 -0.69297844 -1.5261164
0001d0 e8 97 95 3f d5 74 db 3e 1d b7 26 3f 95 17 6c 3c
       1.1686983 0.42862573 0.6512316 0.014409919
0001e0 5c 26 7c 3f e3 b7 82 be 50 23 98 3f d6 b3 8d 3f
       0.9849603 -0.2553092 1.1885777 1.1070507
0001f0 d0 28 26 3f 66 62 7b 3f 13 fe 40 bf 13 80 91 3f
       0.64906025 0.9819702 -0.75387686 1.136721
000200 a5 73 aa 3e a8 3e 4d 3f 19 67 6a be f0 96 45 bf
       0.33291355 0.8017373 -0.22890891 -0.7718344
000210 56 fc 36 3f 2e 30 0f 3f 5e 0b 1a 3f 53 0d e0 be
       0.71478784 0.5593289 0.60173595 -0.43760166
000220 8d 53 3b 3f 5e 74 6b 3f d3 06 ea be 60 ee 8e 3e
       0.73174363 0.9197444 -0.4570833 0.2791624
000230 bf b8 1f be 49 e7 49 3f f2 47 47 be bb f6 86 3f
       -0.15597819 0.7886854 -0.19461039 1.0544046
000240 12 b0 9e 3e 1e bd 9b 3e c7 a1 fe be 7b 91 83 bb
       0.30993706 0.30417722 -0.497328 -0.0040151454
000250 81 fd 01 bf c8 96 2e 3f 8e f8 3b be f3 c7 94 3f
       -0.5077744 0.68198824 -0.18356535 1.162352
000260 62 3d d7 be 02 4b 48 bf ec be 21 bf c7 b2 f7 bc
       -0.4203902 -0.7823945 -0.6318195 -0.030236615
000270 be a9 89 bf 17 02 32 bd 3e be bf bf 28 a7 22 bf
       -1.0754926 -0.043459024 -1.4979932 -0.6353631
000280 cf 75 80 3f 2b ea 39 3f 0c 92 90 bf e5 90 28 bf
       1.0035952 0.72622937 -1.129457 -0.6584609
000290 e1 7d 11 3f 88 e3 aa bc 92 a0 b6 bf 47 11 42 3f
       0.568327 -0.020860448 -1.4267752 0.75807613
0002a0 77 a4 c8 3f 8e 4b 7f 3f 6b 68 36 bf 68 52 5e 3e
       1.5675191 0.9972466 -0.7125308 0.21711123
0002b0 c2 16 94 3e ca c2 a1 bf 41 f1 83 bf cc 5a ce 3f
       0.28923613 -1.263757 -1.0308 1.6121459
0002c0 df 6a 5b be 18 9b 53 3e 85 21 f0 3d 57 e3 3d 3b
       -0.21427487 0.20664632 0.11725143 0.0028974616
0002d0 31 28 f7 3f 85 ab 88 3f 96 98 8c 3e 8c 64 ea be
       1.930914 1.0677344 0.27460164 -0.45779836
0002e0 5c e1 2d 3f 8a 57 10 3e a9 85 86 bf 6f f8 00 3f
       0.67921996 0.14095894 -1.050954 0.5037908
0002f0 b1 62 b0 3e 67 bc ba 3f 72 27 bc be 20 7a ba 3f
       0.34450296 1.4588746 -0.36748844 1.456852
000300 ed 78 82 3d 66 eb 15 3f 91 4f 40 be 64 71 2d 3f
       0.06370721 0.58562315 -0.18780352 0.67751145
000310 7c c3 07 3d cb 84 fa bc 77 d6 3a 3e ad 0a 88 3f
       0.033145413 -0.030580899 0.18245874 1.0628258
000320 dc fa 88 3f a9 e9 84 bc 8b c0 72 bf 27 85 4b bf
       1.0701556 -0.0162247 -0.9482505 -0.7950005
000330 e0 b3 f0 be c2 0d dc 3e 44 8b 48 bf 30 f4 38 3c
       -0.47012234 0.42979246 -0.783375 0.011288688
000340 05 10 92 3d ef 1d 86 be 11 81 84 bf a7 43 91 bf
       0.07131962 -0.26194713 -1.0351888 -1.1348771
000350 21 f4 d7 bf cf 64 59 bf 62 35 84 bf e5 08 2b bf
       -1.6871377 -0.84919447 -1.0328791 -0.66810447
000360 3d a7 84 bf 91 55 81 3f 34 40 80 bf a8 fa 59 3f
       -1.0363537 1.0104238 -1.0019593 0.85148096
000370 7f 91 40 3f 1f 66 c9 be b8 5b 08 3f 9c bf 41 3e
       0.7522201 -0.39335725 0.5326495 0.1892075
000380 84 d5 4d 3f 7e 7c a7 bf 0e ba 00 c0 75 4f be 3f
       0.80403924 -1.3084867 -2.0113559 1.4867998
000390 5e 53 4a bf d3 28 a9 3f f1 5a 57 bf f5 ec 99 3f
       -0.7903346 1.3215584 -0.8412314 1.2025439
0003a0 0e ab 0b be 92 01 f9 3d 7a ff 68 3f 12 c7 3a bf
       -0.13639471 0.12158503 0.91014826 -0.7296001
0003b0 22 0f 9d 3f 4b 5d 49 be 01 6b aa 3f e8 39 5b bf
       1.2270243 -0.19664495 1.3313905 -0.8563523
0003c0 e8 51 81 be be 35 57 bf e9 4a 4e bf d6 a4 87 bf
       -0.25257802 -0.8406638 -0.80583054 -1.0597179
0003d0 2b 48 b8 bf a7 1b ae 3f 6f 31 85 3f 1b 8a 82 bf
       -1.4397024 1.3602189 1.0405711 -1.0198396
0003e0 fd b1 41 3f b0 42 99 3e 93 bd a5 3f 78 bb 2c 3f
       0.75662214 0.2993369 1.2948478 0.67473555
0003f0 2e 24 5c 3f 95 fb 51 bf 36 f9 d3 3e 4c 12 49 3e
       0.85992706 -0.8202451 0.4140107 0.19635886
