palm_detection/pretrained_weights/depthwise_conv2d_34_Kernel.npy (npy, 9296 bytes, 1 tensors)

array f4 [1, 3, 3, 256]
0	0xbfa15456	-1.2603862
1	0x3db06b97	0.08614271
2	0xbe3af0fb	-0.18255989
3	0xbee2cd8c	-0.44297445
4	0xbf7da0bb	-0.9907338
5	0x3f9979ef	1.1990336
6	0x3fbda915	1.4817225
7	0xbd2073c2	-0.039172895
8	0xbeb83bc5	-0.359831
9	0x3fb02804	1.3762212
10	0x3cc33bbd	0.023832196
11	0xbf37ab4b	-0.7174575
12	0x3e88af76	0.26696366
13	0x3d0ad6f4	0.0338964
14	0x3ea3f3b2	0.32021862
15	0x3ea26ce8	0.31723714
16	0xbf9ce339	-1.2256843
17	0xbf5dc930	-0.8663511
18	0x3ee51a06	0.44746417
19	0xbf6ff9b9	-0.9374042
20	0xbea3ce95	-0.31993547
21	0x3f17a966	0.59242857
22	0x3e452e19	0.19255866
23	0xbe93daa3	-0.28877744
24	0xbfa564f1	-1.292143
25	0xbdadd9cf	-0.08488809
26	0xbe151cb0	-0.14561725
27	0x3f1127b0	0.56701183
28	0x3f8bad0c	1.0912185
29	0x3effa399	0.49929503
30	0x3eea90f1	0.45813707
31	0x3d6520c8	0.055939466
32	0xbf9beb0e	-1.2181108
33	0x3ec6947f	0.3878517
34	0x3e9dfafa	0.30855542
35	0x3ff193a4	1.8873181
36	0x3f764e4c	0.9621322
37	0x3efb8e62	0.49132067
38	0x3f1021db	0.5630166
39	0xbf547e68	-0.8300538
40	0xbeed2f68	-0.4632523
41	0xbcc9e7a0	-0.02464658
42	0xbf3a9873	-0.7288887
43	0x3d1da07d	0.03848313
44	0xbf21d21f	-0.63211244
45	0xbe6d8792	-0.23196247
46	0xbed18f7d	-0.40929785
47	0x3fbee57c	1.4913783
48	0x3f028ff9	0.51000935
49	0x3efba307	0.49147817
50	0x3e5cc4aa	0.21559396
51	0xbf09aace	-0.5377625
52	0x3cbd2988	0.023091093
53	0x3cbef07c	0.023308031
54	0x3f205112	0.62623703
55	0xbea2e445	-0.3181478
56	0xc0053dc3	-2.0818946
57	0xbf7aef6b	-0.9802157
58	0xbe71e50c	-0.2362253
59	0xbf16b159	-0.5886436
60	0xbebaf117	-0.36512062
61	0xbf5444e3	-0.8291761
62	0x3f8dfb03	1.1092228
63	0xbf3dac7a	-0.74091303
64	0x3f514e5e	0.81760204
65	0xbf06a28d	-0.5259178
66	0x3ee0f01b	0.43933186
67	0x3faaade1	1.3334314
68	0x3dc92e8c	0.09823331
69	0xbe8927f3	-0.2678829
70	0xbf2bb726	-0.6707634
71	0x3ec1a3a3	0.37820157
72	0xbdb72843	-0.08943226
73	0xbf135eb4	-0.5756638
74	0xbe0a1b17	-0.13486896
75	0xbf3e584c	-0.7435348
76	0xbfffcd59	-1.9984542
77	0x3e96a9c7	0.29426405
78	0x3f62685d	0.88440496
79	0xbf81b576	-1.0133502
80	0x3f5cfd9c	0.8632448
81	0x40049202	2.0714116
82	0x3f1f917c	0.62331367
83	0xbf5b5864	-0.8568175
84	0x3f98d7b0	1.1940823
85	0x3f3afdbf	0.73043436
86	0xbfba15dc	-1.4537921
87	0xbf1a6314	-0.6030743
88	0x3f3a1d5a	0.72701037
89	0xbf4d96b4	-0.8030808
90	0x3f600ae3	0.8751661
91	0x3f9b0ce4	1.2113309
92	0x3f50a80c	0.8150642
93	0x3eb63305	0.355858
94	0x3f8f9e52	1.122019
95	0xbf6c55a8	-0.923182
96	0x3eb535e3	0.35392675
97	0xbf2aed48	-0.6676831
98	0xbdb6a8e7	-0.08918934
99	0xbf21696a	-0.63051474
100	0xbe0ad260	-0.13556814
101	0x3fa5bfc0	1.2949142
102	0x3f695c15	0.9115613
103	0xbf4e57ae	-0.8060254
104	0x3f4f80be	0.8105582
105	0xbef097a9	-0.46990708
106	0x3f285575	0.657554
107	0x3f38be69	0.7216554
108	0x3f61495c	0.8800256
109	0x3e885dfe	0.2663421
110	0x3f13146c	0.57453036
111	0x3dc19b54	0.094534546
112	0x3f1f889a	0.6231781
113	0x3fa0497e	1.2522428
114	0xbf7370a6	-0.9509376
115	0x3f967b04	1.1756291
116	0x3fe47451	1.7847997
117	0x3e198d85	0.14995392
118	0xbf259de3	-0.6469404
119	0x3fd2cd69	1.6468936
120	0xbeecaafb	-0.46224198
121	0xbf95ee83	-1.1713413
122	0x3f8b43f5	1.0880114
123	0xbef46fa6	-0.4774143
124	0xbd2b519f	-0.041825887
125	0xbf8ad80e	-1.0847185
126	0xbf2838b5	-0.6571153
127	0xbfaa052b	-1.3282827
128	0x3f88a79d	1.0676152
129	0xbe6b0c93	-0.22954015
130	0xbe677260	-0.22602224
131	0x3cfd88db	0.030949047
132	0x3e85cdfc	0.26133716
133	0xbfa235e0	-1.2672691
134	0x3f31157d	0.69173414
135	0x3e87117b	0.26380524
136	0xbfb2861f	-1.394718
137	0xbfcdc1f4	-1.6074815
138	0xbe78361a	-0.24239388
139	0x3cbf1858	0.023327038
140	0x3f9496f9	1.1608573
141	0xbf1bca4f	-0.60855573
142	0x3e289767	0.16464005
143	0x3f790162	0.97267735
144	0xbe7dd69a	-0.24788895
145	0x3ff4a1cf	1.911188
146	0xbd783a40	-0.060602427
147	0x3e0de3a4	0.1385637
148	0x3ea1fda2	0.3163882
149	0xbf19ab49	-0.60026985
150	0xbeba2170	-0.36353636
151	0xbffd8211	-1.9805318
152	0xbfd5abc6	-1.6693046
153	0x3e4c91d9	0.19977511
154	0xc0043b08	-2.066103
155	0x3e619b2b	0.22031848
156	0xbe7a4861	-0.24441673
157	0xbe9ff01c	-0.31237876
158	0xbf8d6a54	-1.1048074
159	0xbf78c277	-0.9717173
160	0x3debad15	0.11507622
161	0x3d9fd4ad	0.078042366
162	0xbf89d46a	-1.0767949
163	0x3f39cac9	0.7257505
164	0x3e93f609	0.28898647
165	0xbf94418c	-1.1582503
166	0x3d592d0f	0.053021487
167	0x3f8cb4c3	1.0992664
168	0x3fc26168	1.5185976
169	0x3f6413d9	0.89092785
170	0x3e1e55f8	0.15462482
171	0x3f3851c7	0.7199978
172	0x3fc2c970	1.5217724
173	0x3fd6e845	1.6789633
174	0xbfb89a6c	-1.4422126
175	0x3e8d0727	0.2754452
176	0xbca1d4aa	-0.019754726
177	0x3f267810	0.6502695
178	0x3edb8619	0.42875746
179	0xbf6958b9	-0.91151005
180	0x40086569	2.1311896
181	0x400ab989	2.1675742
182	0xbfa17a10	-1.2615376
183	0xbd2b0b7a	-0.04175899
184	0x3eb0860e	0.34477276
185	0x3d8ec732	0.06971587
186	0x3f96862f	1.17597
187	0xbeddcdf7	-0.433212
188	0x3f386462	0.7202817
189	0x3e32cfcd	0.17462082
190	0x403edb0e	2.98212
191	0x3e2fcb80	0.17167473
192	0x3eafc4a6	0.34329718
193	0x3e9bbb34	0.30416262
194	0xbcf64e35	-0.030066589
195	0xbf09aedd	-0.53782445
196	0x3ff8b12d	1.942907
197	0x3f28dc3c	0.6596105
198	0xbfaaff02	-1.3359072
199	0x3ffefed9	1.9921523
200	0x3ea6cee4	0.3257972
201	0x3cde629b	0.027146628
202	0x3eeea12a	0.46607333
203	0x3d8c8eae	0.068631515
204	0xbe32ee57	-0.17473732
205	0x3ee03f44	0.43798268
206	0x3e3bcc91	0.18339755
207	0xbfb88e46	-1.4418418
208	0xbe43264e	-0.19057581
209	0xbfe91dcd	-1.821222
210	0x3d85ea2a	0.06538804
211	0xbf8b169e	-1.0866277
212	0xbda48f29	-0.08035118
213	0x400f6ea6	2.2411284
214	0x3fe88e53	1.8168434
215	0x3f39d191	0.725854
216	0x3fa7d7ad	1.3112694
217	0xbf16faeb	-0.5897662
218	0xbf842a5a	-1.0325425
219	0x3e37f3ff	0.17964171
220	0x3d213904	0.039361015
221	0x3f00ab7b	0.5026166
222	0xc01308d3	-2.2974136
223	0x3f07173f	0.52769846
224	0xbf1ba1ca	-0.60793746
225	0x3f27a580	0.6548691
226	0xbfd29ef0	-1.6454754
227	0xbf4fd754	-0.8118794
228	0x3f4e4bde	0.80584514
229	0xbebc906e	-0.3682894
230	0x3f2932e7	0.66093296
231	0xbf2ef9bb	-0.6834981
232	0x3f97e2fe	1.1866148
233	0x3e7c9400	0.24665833
234	0xbf7ee9ac	-0.99575305
235	0x3f0f00ca	0.5586058
236	0x3e55fe19	0.20897712
237	0xbda3745b	-0.079811774
238	0x3f6c661a	0.92343295
239	0x3f6dc1fc	0.9287412
240	0x3e9ba6a6	0.3040058
241	0xbf7de0d6	-0.991712
242	0x3f0cc260	0.5498409
243	0x3f1e5315	0.61845523
244	0x3f6e4b15	0.93083316
245	0xbf68e24c	-0.909703
246	0xbdde299d	-0.10847781
247	0xbf9bcd33	-1.2171997
248	0x3f38f1f7	0.7224421
249	0xbe8a4716	-0.2700736
250	0x3eb63cdb	0.35593304
251	0x3e131d18	0.14366567
252	0x3fb6b15f	1.4272879
253	0x3ef8a7f9	0.48565653
254	0x3fac2f29	1.3451892
255	0x3f37bd67	0.7177338
