palm_detection/pretrained_weights/depthwise_conv2d_31_Kernel.npy (npy, 9296 bytes, 1 tensors)

array f4 [1, 3, 3, 256]
0	0x3f23ca98	0.6398101
1	0xbfb08194	-1.3789544
2	0x3f007eee	0.5019368
3	0x3dc14d17	0.09438532
4	0xbeccb97a	-0.39985257
5	0xbf84084f	-1.0315036
6	0xbfcc61a7	-1.5967301
7	0xbf92d9a7	-1.1472672
8	0x3f02b919	0.51063687
9	0x3f2b3c49	0.6688886
10	0xbed1119b	-0.40833744
11	0xbd9f3da8	-0.07775432
12	0x3eb90cfa	0.36142713
13	0xbf118eef	-0.56858724
14	0x3f8d5b82	1.1043551
15	0xbf89d91e	-1.0769384
16	0x3e883afa	0.26607496
17	0x3f1bd9f8	0.6087947
18	0x3e9ba9c8	0.3040297
19	0xbce51153	-0.027962362
20	0xbf9ffe3c	-1.2499461
21	0x3fae7c72	1.3631728
22	0x3e1dc5d0	0.1540749
23	0xbf0e3c67	-0.55560917
24	0xbf1aff17	-0.60545486
25	0x3f093ff2	0.536132
26	0x3ed8cc48	0.42343354
27	0x3f44d057	0.768804
28	0x3b48b6a5	0.0030626443
29	0xbfe4011e	-1.7812841
30	0x3e21a559	0.15785731
31	0x3f370cda	0.71503985
32	0x3f2bc377	0.6709513
33	0xbfafa96a	-1.3723576
34	0xbf371ff1	-0.71533114
35	0xbdce386d	-0.10069356
36	0x3f6e3554	0.9305012
37	0x3ef9b377	0.48769733
38	0x3fb1a113	1.3877281
39	0x3f4cb285	0.799599
40	0xbf617e04	-0.8808291
41	0xbe9270ec	-0.28601778
42	0xbf32cb2e	-0.6984128
43	0xbf56f16f	-0.8396215
44	0xbe1b4c66	-0.15165862
45	0x3f7ff2d5	0.9997991
46	0x3fadf3f0	1.3590069
47	0x3ee970d5	0.45593897
48	0x3f2891ce	0.6584748
49	0xbf8175cc	-1.0114074
50	0x3e95ee3f	0.2928333
51	0x3f61a52e	0.8814267
52	0x3eb1a3b3	0.34695205
53	0xbf37ad8d	-0.7174919
54	0x3f99c782	1.201401
55	0x3f351616	0.70736825
56	0xbfb49333	-1.4107422
57	0x3f75da56	0.9603628
58	0xbef84800	-0.48492432
59	0xbead8b83	-0.33895501
60	0x3ecf9349	0.40542057
61	0xbfab1d41	-1.3368303
62	0x3f043cc0	0.516552
63	0xbf513d42	-0.81734097
64	0x3ee0060d	0.43754616
65	0xbe6ec2a9	-0.23316444
66	0xbd706b42	-0.05869604
67	0x3e4a850d	0.19777317
68	0x3d7186a2	0.058966286
69	0x3f5c7315	0.861131
70	0xbf0beaef	-0.54655355
71	0x3e9075f6	0.28214997
72	0x3ede5da1	0.43430808
73	0xbe4459eb	-0.19174926
74	0xbea6030c	-0.324242
75	0x3f15a661	0.58457
76	0xbf6ad515	-0.9173139
77	0xbfd41001	-1.6567384
78	0xbe03807c	-0.12841982
79	0x3f8bb91b	1.0915865
80	0xbe9383c7	-0.28811476
81	0x3e771f0f	0.24132942
82	0x3e913767	0.2836258
83	0x3eb1126f	0.34584376
84	0x3ea1004a	0.31445533
85	0x3f40bfc2	0.752926
86	0xbfba433d	-1.455177
87	0x3f9a9909	1.2077953
88	0xbfca21f3	-1.579161
89	0x3f77a66e	0.96738327
90	0x3f14ffbd	0.58202726
91	0x3f8ddeaf	1.1083583
92	0xbf5f5484	-0.87238336
93	0xbfcea585	-1.6144263
94	0x3eafdd98	0.3434875
95	0xbee1e2db	-0.4411839
96	0xbebaa3d3	-0.36453113
97	0xbf496283	-0.7866594
98	0x3e55496e	0.20828792
99	0xbf11fd44	-0.5702708
100	0x3e232d0b	0.15935151
101	0x3ea6337e	0.3246116
102	0xbeb63491	-0.3558698
103	0xbf703926	-0.938372
104	0x3b306e5a	0.0026921243
105	0xbf81c1f9	-1.0137321
106	0x3f89dcc8	1.0770502
107	0xbe97950b	-0.29605898
108	0xbf182c04	-0.5944216
109	0xbea0f74a	-0.31438667
110	0xbf8b7389	-1.0894634
111	0x3eb8474c	0.35991895
112	0xbe9b5f5a	-0.30346185
113	0xbdea2839	-0.11433453
114	0xbfb39e76	-1.4032733
115	0xbf6517c5	-0.89489394
116	0x3fa2671f	1.268772
117	0xbeea1169	-0.45716408
118	0x3dc4bbbe	0.096061215
119	0xbebe235b	-0.3713635
120	0x3f6a3f85	0.91503173
121	0x3f4b40b0	0.7939558
122	0xbf0183c5	-0.5059169
123	0xbf84e993	-1.0383781
124	0x3f0875fd	0.53305036
125	0xbfc66a59	-1.5501205
126	0x3fa65aa8	1.2996416
127	0xbf1b6ac0	-0.6070976
128	0x3e75faba	0.24021426
129	0xbe009799	-0.1255783
130	0x3f434815	0.76281863
131	0xbf7fbfff	-0.9990234
132	0x3f1c5a20	0.6107502
133	0xbf9d070e	-1.2267778
134	0x3c6a7acc	0.014311504
135	0xbfab3983	-1.3376926
136	0xbe3d78a9	-0.1850306
137	0xbe1ad647	-0.15120803
138	0x3c6a2d7f	0.014293074
139	0xbf0c4caa	-0.5480448
140	0x3ce52de7	0.02797599
141	0xbfb79ad6	-1.4344127
142	0xbfb253ec	-1.3931861
143	0x3fafe8cc	1.3742919
144	0x3f6ada56	0.91739404
145	0x3f975c1c	1.1824985
146	0x3d2e73ba	0.042590834
147	0xbf4003c9	-0.75005776
148	0xbf2bb9b0	-0.6708021
149	0xbef6601b	-0.48120198
150	0x3eb1f779	0.3475912
151	0xbfc8a02c	-1.567388
152	0x3eeedf5b	0.46654782
153	0x3e6f7fa3	0.23388533
154	0x3e09edc0	0.134696
155	0x3f7a2f14	0.97728086
156	0xbe60a71c	-0.21938747
157	0xbd2306ab	-0.03980128
158	0x3f585162	0.8449918
159	0x3f151db1	0.5824843
160	0x3f984c0c	1.1898208
161	0x3e90b1a3	0.28260526
162	0x3f2ab76f	0.6668615
163	0x3e0c7076	0.13714775
164	0xbfb0b974	-1.3806596
165	0xbebf8d8c	-0.3741268
166	0x3f30a7ba	0.6900593
167	0xbfb0d599	-1.3815185
168	0x3e6d631e	0.23182341
169	0xbf7cbc65	-0.9872497
170	0x3f9dc376	1.2325275
171	0xbed0204b	-0.40649638
172	0xbf045136	-0.5168642
173	0x3f041070	0.5158758
174	0xbec300bf	-0.38086507
175	0x3f731616	0.94955575
176	0xbf90079e	-1.1252325
177	0xbe2ae219	-0.16687812
178	0x3f300619	0.68759304
179	0xbfc555d1	-1.5416814
180	0x3f3146cf	0.6924867
181	0x3f820d35	1.016028
182	0xbf62e973	-0.88637465
183	0xbda9253f	-0.08259057
184	0xbf4f06a5	-0.80869514
185	0x3c333f0b	0.010940324
186	0xbf1a0d48	-0.60176516
187	0x3e8907f8	0.26763892
188	0x3f913454	1.1344094
189	0x3f343ded	0.7040699
190	0xbf0dd888	-0.55408525
191	0x3ce1da7f	0.027570007
192	0xbf72f14f	-0.9489946
193	0x3f2dba42	0.6786233
194	0xbf1f50a7	-0.6223244
195	0x3f682fcc	0.9069793
196	0xbe76dd52	-0.24107864
197	0x3f7d9046	0.9904827
198	0x3f083979	0.53212696
199	0x3f91aba6	1.1380508
200	0xbf5e3512	-0.8679973
201	0x3b97a7bf	0.004628151
202	0x3f7298ed	0.94764596
203	0x3ff0d8cc	1.8816161
204	0xbe1295aa	-0.14314905
205	0x3f9cb9d4	1.224421
206	0xbfa9b777	-1.3259114
207	0x3edf0c53	0.4356409
208	0x3f524e3a	0.82150614
209	0xbfccbe2f	-1.599554
210	0xbf12d085	-0.57349426
211	0xbfa12b65	-1.2591368
212	0x3f177702	0.59165967
213	0x3e6989ad	0.22806425
214	0x3fbfe47a	1.49916
215	0xbfddd2b6	-1.7329929
216	0x3fc595f7	1.5436391
217	0xbeb07183	-0.34461603
218	0xbff381af	-1.9023951
219	0xbe943c41	-0.2895222
220	0x3f989522	1.1920512
221	0x3fae1f23	1.3603252
222	0xbe2f9cbf	-0.17149638
223	0xbfa43760	-1.2829399
224	0x400678d4	2.1011248
225	0x3d1c573d	0.038169134
226	0x3faa2325	1.3291975
227	0xbf8a028e	-1.078203
228	0xbeb66265	-0.35621944
229	0xbf6537a1	-0.8953801
230	0x3e6cb380	0.23115349
231	0x3ffd1952	1.9773352
232	0x3f8a6edf	1.0815085
233	0x3f9d5988	1.2292948
234	0xbcbe75d8	-0.023249552
235	0x3fa810bc	1.3130107
236	0xbf9af860	-1.2107048
237	0x3dcc3e10	0.09972775
238	0x3f294ac4	0.6612971
239	0xbf3c301e	-0.7351092
240	0x3ed12297	0.40846702
241	0xbf4ba429	-0.79547364
242	0x3f992181	1.196335
243	0xbf19912e	-0.5998715
244	0x3f8574ea	1.0426304
245	0x3f12f815	0.57409793
246	0x3f491320	0.7854481
247	0xbf9c717f	-1.2222136
248	0x3f240d23	0.64082545
249	0xbf8334b3	-1.0250458
250	0xbf1ed64c	-0.6204574
251	0x3f947be7	1.1600312
252	0xbf722fba	-0.94604075
253	0xc014fea9	-2.3280432
254	0x3f41ed06	0.75752294
255	0xbfaf4f77	-1.3696126
