palm_detection/pretrained_weights/depthwise_conv2d_16_Kernel.npy (npy, 4688 bytes, 1 tensors)

array f4 [1, 3, 3, 128]
000000 a8 46 59 3e 09 fa 10 3e 1d d4 1c 3e 9c d0 dc be
       0.2121836 0.14157881 0.1531529 -0.43127906
000010 69 e1 35 bf 7c 5b 50 bf 7c db 09 3f 84 39 b8 be
       -0.71047074 -0.81389594 0.5385053 -0.3598138
000020 6a 47 40 3f a9 ca da bc ff dc 3d be ed 3d ed be
       0.7510897 -0.026707964 -0.18541335 -0.46336308
000030 df 4b 49 3f ed 26 1a bf a4 f5 66 be b2 8c 1e 3f
       0.78631395 -0.60215646 -0.22554642 0.61933434
000040 0a 06 d7 3e a0 1f 50 3f 4d ac 94 3b fb be b8 3d
       0.41996795 0.81298256 0.0045371414 0.09020802
000050 7d d9 22 3f 70 8a d9 be 30 3d 6f bf f7 6f c6 be
       0.6361311 -0.42488432 -0.9345274 -0.38757297
000060 f7 7a d3 3e b4 ef 22 3f f1 a0 e4 3e ef fc 6a 3f
       0.41304752 0.6364701 0.4465404 0.91792196
000070 2d 8b 35 3e ab 01 18 3f 69 ce cb be 4f 53 df be
       0.17728873 0.59377545 -0.39805916 -0.43618247
000080 3f 81 fd be 8d 09 5e be b6 ca 6b 39 f8 98 43 bd
       -0.4951267 -0.21683331 0.00022486862 -0.047753304
000090 99 53 a1 3b 62 79 c0 3e 75 05 49 3e 7b a1 c6 3e
       0.0049232957 0.37592608 0.19630988 0.38795075
0000a0 be 01 5e 3f ed d3 79 be d1 5d 78 3e 09 92 06 3f
       0.8672141 -0.2439725 0.24254538 0.5256658
0000b0 e0 d1 98 bf 04 1f b5 be 44 d2 51 3e 44 fa af 3f
       -1.1939049 -0.35375226 0.20490366 1.374825
0000c0 24 74 82 3e ae e3 a1 3e 3d d0 98 be 38 9b 22 bd
       0.25479233 0.31619018 -0.29846373 -0.03969881
0000d0 92 56 0f bf 40 75 62 3f a6 ae 71 bf c5 c0 1f bf
       -0.5599147 0.8846016 -0.9440712 -0.6240352
0000e0 83 09 6e bc e1 31 35 bf e4 72 97 3e 3c 7f 8a bf
       -0.014528635 -0.70779234 0.29579842 -1.0820079
0000f0 c7 6a 20 bf 2b 1b c1 3e 25 68 92 3d 18 28 5d 3e
       -0.6266293 0.3771604 0.0714877 0.21597326
000100 77 61 cb 3f bd d5 4b bf 62 89 32 c0 ff f7 32 bf
       1.5889119 -0.79623014 -2.7896352 -0.6990966
000110 8f 2a aa bf c2 ab 09 bd a7 72 12 3f 8e e8 02 c0
       -1.3294238 -0.033611067 0.57206196 -2.045444
000120 1d c0 9e 3e 2a 4d f3 3e 8b a7 75 bf 2a 6f 89 be
       0.31005946 0.4751981 -0.95958775 -0.26842624
000130 50 11 f9 3f c4 17 62 3f d2 4e 6d 3f 8e 8a 35 c0
       1.9458408 0.88317513 0.92698395 -2.8365817
000140 0c 09 dd be d7 d6 86 3f e1 d8 fe 3e 58 01 03 c0
       -0.43170965 1.0534314 0.4977484 -2.046957
000150 46 7e 54 be 0e b9 3c bf 3e ac 4f c0 b2 42 c8 be
       -0.20751294 -0.7371987 -3.2448878 -0.39113384
000160 c0 d2 98 bc 88 16 d5 3f 3f 10 af 3f a8 ff 64 bf
       -0.01865518 1.6647501 1.3676833 -0.894526
000170 a6 6c 34 40 25 03 fe be 42 ce ab bf 6a d3 e4 bf
       2.8191314 -0.49611774 -1.342232 -1.7877018
000180 68 f8 45 bf f2 de 1d 3f 62 da 03 3e 70 ad 33 3e
       -0.7733216 0.6166831 0.12876275 0.1754663
000190 a4 a0 be bf 1f c2 b5 3f 3c 3a 87 be a5 ce f5 3f
       -1.4892774 1.4199866 -0.26411617 1.9203688
0001a0 3b 32 96 3f 62 fa 53 be 51 29 0c c0 2e e6 c6 3f
       1.1734079 -0.20700982 -2.1900218 1.5538995
0001b0 2b 42 b4 3d 64 39 5e 3f 69 00 19 bf 1d 44 da 3e
       0.08801683 0.8680632 -0.5976625 0.4263009
0001c0 ca b3 b5 3f b7 79 55 bd bc 02 1c 40 4a 31 f8 3f
       1.4195492 -0.05211803 2.437667 1.9390042
0001d0 c0 56 1f 3f e9 8e c9 3f 4a 50 35 3f 80 46 e9 3e
       0.62241745 1.5746738 0.70825636 0.455616
0001e0 8f 5b d7 3f 3d 4f fd 3e 87 b3 fb bf 47 ef 19 be
       1.6824816 0.49474517 -1.9664162 -0.15032683
0001f0 0d 76 28 3e 4e bd 95 bf 52 30 ad bf 96 3e 84 3f
       0.16451283 -1.1698396 -1.3530371 1.03316
000200 c9 e8 af 3f 8b ba 6d be a2 d0 98 bd a8 87 7e 3f
       1.3742915 -0.23215692 -0.074616686 0.99425745
000210 45 10 7e bf 18 fc cc be 57 66 ff 3e d1 c1 99 3f
       -0.99243575 -0.40036082 0.49882767 1.2012273
000220 db 55 2f 3f 74 9e 34 3f 5f 1f 8d bf d8 76 92 bf
       0.6849038 0.7055428 -1.1025199 -1.1442518
000230 28 21 a9 3f c8 ad 86 be 4e 6e 0e bf 0f af 5b 3f
       1.3213243 -0.2630446 -0.5563706 0.85813993
000240 1b 66 fb be 84 e8 84 3f d8 89 6b 3e ab a7 97 bf
       -0.49101338 1.0383458 0.23001802 -1.1848043
000250 f9 37 d9 3e 5f 68 c4 be 17 59 3c 3f c5 c1 ae bf
       0.42425516 -0.3836088 0.7357344 -1.3652884
000260 cc 68 bc 3e f1 73 86 3f b3 b8 7a 3f 30 a3 5b 3f
       0.36798704 1.0504133 0.9793808 0.8579588
000270 8e b8 71 3f 02 0a 77 3e 87 39 62 be af b0 64 3c
       0.94422233 0.24124911 -0.22092257 0.01395814
000280 d8 47 19 bf 7d 95 cf be 90 45 48 bf dc 1a 90 bf
       -0.5987525 -0.40543738 -0.78231144 -1.1258197
000290 1a 1c 88 bd 73 b4 5b be a3 bb 40 bf 62 35 23 3d
       -0.06645985 -0.21455555 -0.7528631 0.03984583
0002a0 27 da 12 3e a1 70 f1 bc e8 3b ad bf e9 80 00 3f
       0.14341031 -0.029472651 -1.3533907 0.501967
0002b0 b3 29 d3 bf 94 cc 1c bf 4d fd 9a 3e 01 c6 0e 3f
       -1.64971 -0.6124966 0.30271378 0.5577088
0002c0 55 55 ef 3e dc 49 47 3f ba 77 5b bf 4a b8 48 bf
       0.4674479 0.77847075 -0.85729563 -0.784062
0002d0 2a 0d 64 3f 76 9a cd 3e 2e 1d 6c bb 99 c7 08 c0
       0.89082587 0.40156907 -0.0036028135 -2.1371825
0002e0 6c 68 25 3e 7f c1 22 bf b8 45 9f 3e c3 ef cb bf
       0.16153115 -0.635765 0.3110788 -1.5932544
0002f0 ea 58 af be f7 62 96 3d c0 50 c0 3f e8 b5 ad be
       -0.34247524 0.07343095 1.5024643 -0.33927846
000300 67 12 16 be 22 a2 b0 3f 20 d5 2f c0 68 f9 20 bf
       -0.14655457 1.3799479 -2.747383 -0.62880564
000310 38 94 af bf 03 bb 24 3f 76 2a 5b 3e d1 47 9a bf
       -1.3717108 0.6434786 0.21402916 -1.2053167
000320 d7 2b ed bf 02 ed af be 36 e9 28 bf 86 c7 2f bf
       -1.8529004 -0.3436051 -0.6598085 -0.68663824
000330 61 98 ca 3f 47 f7 c1 be b5 dd 2c 3f ba 54 51 bf
       1.5827752 -0.3788397 0.675258 -0.8176991
000340 4e 94 c1 3e 82 ca de 3f a9 f2 12 bf f8 86 96 bf
       0.3780846 1.740555 -0.5740152 -1.1759939
000350 9e 85 31 bf 4e c2 0e c0 63 a5 3f bf e2 91 a7 bf
       -0.6934451 -2.2306094 -0.74861735 -1.3091395
000360 78 9a 9b 3f 87 e8 9f bf 4a 87 05 40 0f 28 c9 3f
       1.2156515 -1.2492837 2.0863824 1.571535
000370 40 7b 8d 3f ea 81 76 be 95 58 15 bf 15 e3 89 bf
       1.1053238 -0.24072996 -0.5833829 -1.0772425
000380 66 ac 19 bf 26 c3 ac bf 3f 13 82 bc 15 71 1b 3f
       -0.60028684 -1.3497055 -0.015878318 0.60719424
000390 57 8b 41 bf ae a2 89 3f df 4b 24 c0 19 cf 05 40
       -0.7560324 1.0752771 -2.5671308 2.0907652
0003a0 5b bc 31 40 e2 ef fb 3e 94 91 ed bf 92 90 6f 3f
       2.7771213 0.49206454 -1.8560052 0.9357997
0003b0 f7 11 e3 3f fe d1 c2 3f 0e 70 ee bf a1 dc 60 3f
       1.7739857 1.5220335 -1.8627946 0.87836653
0003c0 39 c6 63 3f 82 ab 9e 3d 2e e6 82 3e 2f 13 94 3f
       0.8897434 0.07747556 0.25566238 1.1568354
0003d0 8e bd 10 3f 6e ab b6 be 95 e5 9f 3f be 71 0e 40
       0.5653924 -0.35677665 1.2491938 2.2256923
0003e0 da 61 88 3f 6f f0 b4 bf 4f a3 c5 bf c8 87 2c be
       1.0654862 -1.4135875 -1.5440463 -0.16848671
0003f0 3b 2e bb bf f6 82 8a 3f e0 b9 2a c0 c7 0e a5 bc
       -1.4623483 1.0821216 -2.667595 -0.020148648
