palm_detection/pretrained_weights/depthwise_conv2d_35_Kernel.npy (npy, 9296 bytes, 1 tensors)

array f4 [1, 3, 3, 256]
00000000: 1a33 0f3f 6b92 9c3f 034f 50bf 7436 19bb
00000010: f0c6 41bf e274 81bf 43e1 06be 502f 353e
00000020: 1704 b73f 4d1f ecbe f2b2 b63f aa60 873e
00000030: 79e5 d13e 55bd b3bf 9550 b1bf 2978 2e3f
00000040: 7b82 66bf 13e5 13bf 4986 313f f43e c53f
00000050: d9ba 613c c620 3fbe 20fd 4d3f 25cd 0cbf
00000060: c908 83bf ad60 46bf 1c7a 25be 6fcc 5b3e
00000070: 0fc5 fdbe da75 ba3b 6dce f63d 6cab 163d
00000080: 622d 923f a8c7 d03e b22c 10bf e651 8a3e
00000090: 6a0d cb3d 7ccb a0bf 1a1f a63f 9314 a5bf
000000a0: 52ec 423e 380b f93e 3275 55bf 2fef ac3f
000000b0: d398 44bf d83f e13d 70ad 32bf bd3e 173f
000000c0: 4210 3a3f 42a4 583f c4cf 3fbf 737a 0dbf
000000d0: 899b 8dbf bed3 c13e f3c9 1abc f249 fd3d
000000e0: 08d3 2abf d810 893f 33ad 7ebe d811 5e3e
000000f0: 2f5b a1bf 35e1 f23e b9ee 0f3f ad79 233f
00000100: 2054 10bf ae88 08bf deb8 5dbe 4b24 c6bf
00000110: a42b c3bf da93 a13e 3f69 433f 7f66 0e3e
00000120: a5cf 263f 9df8 383f 4128 06bf 8e48 2ebf
00000130: 4541 643e 697e 883f cbbd 923f 987e e83f
00000140: f73a 64bf 1549 823f b71f 8ebf 3b0e a03f
00000150: 6868 743f c0fb 8e3f 47ff f53e c168 02bd
00000160: 5dcb 8cbe 4464 0c3e 13fe 933f fdfc 803f
00000170: 230a d23e 251a f7be e094 493f 28e8 02bf
00000180: d571 08bf 4162 583f 3e83 143e 318a b9bf
00000190: 63dc 12bf 86c2 493f 0e7e cd3e 3691 3bbe
000001a0: 571d 44bf 16c9 0c3f 4e7f e9bd 6033 353f
000001b0: 8583 0a3f 102b fbbe a910 a2bd 473b 903f
000001c0: 16b3 10be a6be cf3f ae18 373e afe9 75bf
000001d0: 1edf d33f 591b 9bbe 1ed3 1ebe a689 893f
000001e0: 3b3c cc3f 9da6 ca3f 9fb2 a53f 8af2 03bd
000001f0: 670e 2f3e 3526 0b40 b2b8 c03e 5913 14c0
00000200: a2bd 213e 7c79 94bf e77b 1c3f 9c50 24bf
00000210: d105 19bf 3de0 0cbf 0639 823e f6bd 21bf
00000220: aae1 b53f c45b 033f 3ae7 223f b7f3 443e
00000230: 0741 cdbf ddd5 dfbf fd9b 11bd 74d6 7cbf
00000240: 8fc8 cabf 9c55 89be 16fd dbbc 9f2b a5bf
00000250: c9a4 dfbd 83ed b83e ca85 9dbf dd75 363f
00000260: 6cab 553f c869 893f 941c 983f e235 cebe
00000270: afd1 463e 3383 95bf e355 66be 530f 873e
00000280: 6b86 debe c223 063f 0fc5 b03e 26ad 403f
00000290: f298 bfbf 27f8 3bbf 80d7 863f 770d 383f
000002a0: 6faf d33f a970 74bf 4e8a 66be 1157 f9bd
000002b0: 46ae 14bf a338 0640 a303 1bbf 7e33 f33e
000002c0: cb60 813f 3355 d13f 160f a7be 1f71 4bbf
000002d0: 6296 94bf 3896 86bf 00e4 4ebf 28e4 9d3f
000002e0: 46e6 b4be bc34 a63e fec0 cd3f d4b0 8fbe
000002f0: 6087 eebe a64b f13e b1d7 a93f 3e81 383f
00000300: 305f d8bd 39f1 95bf c16d 54bf 8ed7 9f3d
00000310: 57e3 75bf 9802 9ebf ce99 e9be 3041 d6bf
00000320: 768d 8ebe dff3 893d 562d 8c3f db6f dfbf
00000330: 51ac 90bf b249 01bf 971c 3c3f 2b53 a73f
00000340: 0bec a3be a6f0 efbf 9599 0fbf 6cdb 323f
00000350: 2c19 babf a18c ab3f 799b 9bbf fe18 a0bf
00000360: 082e f7be 5fb2 e8bf 4281 303f 0b94 393f
00000370: 32e1 bcbf b974 b8be 089a 18c0 867d a6bc
00000380: e5fa 953f 7511 543f f47f fabf 5a40 50bf
00000390: 17b6 be3d 15ee 7b3f 99f6 a63e 0ae5 6bbf
000003a0: ea63 5abf 165b 93bf 696a 313f 6c3b 30bf
000003b0: c701 763f 5dfb bfbd 5ee5 49bd 57c0 b83f
000003c0: 5b11 ebbd 0cdd aa3f 25dd c6bf 6200 1bbf
000003d0: fb0b 953f 6075 eabe f8f3 c3be e815 273e
000003e0: 6f50 c7bf c9d4 113e ccf0 40be c9df a8bf
000003f0: 8a1d 14c0 2905 8abe 9df5 64bf 041a 5fbf
0.5593735 1.2232183 -0.8137056 -0.0023378404 -0.7569418 -1.0113795 -0.13171868 0.1769383
1.4298123 -0.4611763 1.427336 0.26440936 0.40995386 -1.4042155 -1.3852717 0.681521
-0.9004285 -0.57771415 0.6934553 1.5409837 0.013777458 -0.18664846 0.80464363 -0.55000526
-1.0237056 -0.77491266 -0.16159862 0.21464704 -0.49564406 0.0056903185 0.12051091 0.036784574
1.14201 0.40777326 -0.563182 0.2701561 0.09914668 -1.2562099 1.2978241 -1.2896904
0.19035462 0.48641372 -0.8338195 1.3510493 -0.7679569 0.10998505 -0.69795895 0.59080106
0.7268106 0.8462564 -0.749264 -0.5526497 -1.106309 0.3785686 -0.0094475625 0.123676196
-0.6672826 1.0708265 -0.24870758 0.21686494 -1.2605952 0.47437444 0.56223637 0.6385754
-0.56378365 -0.53333557 -0.21652552 -1.5479826 -1.5247693 0.31558114 0.7633247 0.13906287
0.6516059 0.72254354 -0.5240517 -0.6807946 0.22290523 1.0663577 1.146417 1.8163633
-0.89152473 1.0178553 -1.1103429 1.2504343 0.9547181 1.1170578 0.48046324 -0.031838182
-0.27498904 0.13710123 1.1561912 1.0077206 0.4102336 -0.48262134 0.7874279 -0.5113549
-0.53298694 0.84524924 0.1450319 -1.4495298 -0.57367533 0.78812444 0.40135235 -0.18317112
-0.7660727 0.5499433 -0.114012346 0.7078152 0.5410693 -0.49056292 -0.07913334 1.126809
-0.14130816 1.6230056 0.17880508 -0.960597 1.6552465 -0.30294302 -0.15510222 1.0745132
1.5955881 1.5832096 1.2945136 -0.032213725 0.17095338 2.174207 0.3764091 -2.313681
0.15794995 -1.1599574 0.6112656 -0.641855 -0.597745 -0.5502966 0.2543413 -0.6318048
1.4209492 0.513119 0.63634074 0.19233595 -1.603547 -1.7487141 -0.035549153 -0.9876473
-1.5842456 -0.26823127 -0.02685408 -1.2903937 -0.10920102 0.36118707 -1.2306454 0.71273595
0.83464694 1.0735407 1.1883721 -0.40275484 0.19415925 -1.1680664 -0.224937 0.2637888
-0.43461928 0.5239831 0.34525344 0.75264204 -1.496855 -0.73425525 1.0534515 0.71895546
1.6537913 -0.95484406 -0.22513697 -0.1217481 -0.5807842 2.0972068 -0.60552424 0.47500223
1.0107664 1.6354126 -0.32628697 -0.79469484 -1.1608393 -1.0514593 -0.8081665 1.2335253
-0.35331935 0.32462108 1.6074522 -0.28064597 -0.46587658 0.47128028 1.3268949 0.7207221
-0.105650306 -1.171424 -0.8297997 0.07804786 -0.9605002 -1.2344542 -0.45625156 -1.6738644
-0.278423 0.06735968 1.0951335 -1.745601 -1.1302587 -0.50503075 0.73481125 1.3072256
-0.32016024 -1.8745315 -0.5609372 0.6986606 -1.4538932 1.3402292 -1.2156821 -1.2507627
-0.48277307 -1.8179435 0.6894723 0.7249152 -1.4756224 -0.36026552 -2.3844013 -0.020323526
1.1717192 0.8283914 -1.9570298 -0.8134819 0.09312075 0.9841016 0.32610014 -0.9214636
-0.85308707 -1.1512172 0.69302994 -0.6884067 0.9609646 -0.093741156 -0.049291007 1.4433697
-0.1147792 1.3348708 -1.5536238 -0.6054746 1.1644281 -0.45792675 -0.3827207 0.1631695
-1.5571421 0.14241327 -0.18841857 -1.3193294 -2.314303 -0.26957062 -0.89437276 -0.8714907
