palm_detection/pretrained_weights/depthwise_conv2d_21_Kernel.npy (npy, 4688 bytes, 1 tensors)

array f4 [1, 3, 3, 128]
0.53783435 -1.8509123 -0.22014298 1.0977278 0.5826367 -0.23414944 -0.07402088 -1.515945
1.006918 -0.9276923 -0.2589096 -0.13475741 -1.1438031 -0.18304892 -0.46066356 -0.260974
-0.3662475 0.08070039 1.0295504 -0.2645063 -0.71623945 0.29255936 1.2395337 -0.5026051
-0.6008458 0.65025985 0.7999344 -0.47371018 -0.21000126 0.6316676 0.043405846 0.88478166
0.8949157 -0.37694097 0.24981871 -0.28427464 -0.6947283 0.15277635 0.09724928 -0.0009767391
0.8747234 0.62310153 -1.2950561 0.44429004 -0.71516764 -0.618212 -0.39905778 -0.28964338
0.5262092 1.437832 -0.3762794 0.8939423 -1.5069581 0.056833696 0.9830916 -0.2888715
-0.09833138 0.8118901 -0.09838723 0.8939655 1.4658478 -0.75845647 -1.2562858 1.085069
1.1867429 -0.11575073 1.1717074 -0.64029694 1.5418751 0.796624 -1.437253 0.60834587
0.24851203 0.7484662 0.12882298 0.7804459 -0.3769928 -0.44331905 2.6429017 -0.10600727
0.6032419 -0.019765064 0.66036695 -0.9501645 -2.1764047 0.78755206 -0.62299913 -0.45031244
1.6518947 0.46371943 1.5982302 1.0810919 0.5755859 0.8947468 -0.68039054 -0.8838223
-0.41778818 -1.1679686 -0.35708916 -0.7521451 -0.12146355 1.1581888 0.5061585 1.8014038
0.50974745 1.9779866 0.61420995 0.9566147 0.5636598 -0.39982882 -0.7137554 0.51309246
1.1066095 -0.54439855 -1.0588121 0.51513225 -1.1242293 1.2504542 1.0330267 1.0730616
1.3552841 1.5999463 0.27764404 -0.21233644 -0.8039697 0.3378169 -0.7808777 -0.25473592
1.1291748 -0.5710177 -0.5614186 0.73205507 -0.4904849 -0.24228026 0.31649148 -0.3718935
-0.58954966 -0.101963796 -0.40945736 -1.1816853 -0.63363206 -0.21961755 0.08174376 0.9123275
-0.82451916 0.5878602 1.1765033 -1.068124 -0.16916355 0.33292255 1.0465678 -0.91477203
-0.7797792 -0.52864474 0.28144968 0.72765523 0.324602 1.2031603 0.14034022 1.3242834
1.0704011 -0.39647028 0.4567337 -1.5955321 -0.9498374 -0.6988828 -0.7274293 0.5462484
0.65718895 -0.3402386 -1.2220854 -0.35426766 -0.50585186 -1.3886105 -0.5063479 0.26684842
0.38688633 0.89992684 0.05653721 -0.112671435 -1.3446234 1.0036157 -0.22977261 0.47672024
0.19550604 -0.44197232 2.238997 -0.07602422 0.9565588 -0.22780637 0.96203524 0.8276796
-0.21670176 -0.4499116 0.98646 0.20876472 0.73277915 -0.42598957 -1.6603028 1.2472507
-0.42661136 1.1378816 -0.6207097 -0.24466386 -0.6577846 -0.95938903 0.7067043 -0.791353
1.1822293 -1.2759571 0.6644231 -1.6631678 -0.5740477 1.5069984 -1.4955446 -1.1181958
0.53220767 -0.113101885 0.42041284 0.34304142 1.5088727 0.13188611 -0.33114144 0.70265573
-0.47694966 -0.9922113 0.7220941 -0.35082245 -1.1265717 0.7930637 -0.7708962 0.06418853
1.4770361 1.4203007 1.9664066 0.79931855 0.029817492 -0.34397164 -1.1001583 1.1438104
1.5561842 -1.1150906 0.2209648 0.20831099 -0.67484933 -0.39971665 -0.27526128 1.2704518
-0.4873779 0.23158808 -1.2935805 -0.7820296 -1.0631737 -0.9079816 -0.16628869 -0.575905
00000000: 83af 093f b2ea ecbf 296d 61be 5882 8c3f
00000010: ae27 153f dfc4 6fbe 4298 97bd 7c0a c2bf
00000020: b0e2 803f 3e7d 6dbf cd8f 84be d9fd 09be
00000030: 2468 92bf 2d71 3bbe 18dc ebbe 629e 85be
00000040: cb84 bbbe 3f46 a53d 4fc8 833f 5f6d 87be
00000050: 785b 37bf 57ca 953e 0aa9 9e3f baaa 00bf
00000060: 08d1 19bf 6e77 263f 80c8 4c3f 248a f2be
00000070: 920a 57be f8b4 213f 54ca 313d 0d81 623f
00000080: 3219 653f 68fe c0be 7ad0 7f3e 728c 91be
00000090: b7d9 31bf 6771 1c3e a12a c73d ed05 80ba
000000a0: dfed 5f3f 9583 1f3f 66c4 a5bf fc79 e33e
000000b0: 3a15 37bf 2443 1ebf 4d51 ccbe 234c 94be
000000c0: a5b5 063f e10a b83f b2a7 c0be 67d9 643f
000000d0: 01e4 c0bf 73ca 683d e4ab 7b3f f7e6 93be
000000e0: f661 c9bd 08d8 4f3f 3e7f c9bd ecda 643f
000000f0: e7a0 bb3f 342a 42bf f9cd a0bf 8ae3 8a3f
00000100: 31e7 973f b80e edbd 82fa 953f 80ea 23bf
00000110: 2a5c c53f 8def 4b3f e8f7 b7bf 8ebc 1b3f
00000120: f079 7e3e 7b9b 3f3f 2cea 033e 4dcb 473f
00000130: 3305 c1be b7fa e2be 4d25 2940 571a d9bd
00000140: 106e 1a3f 58ea a1bc cf0d 293f fb3d 73bf
00000150: 374a 0bc0 039d 493f df7c 1fbf 5a8f e6be
00000160: 4971 d33f a26c ed3e cf92 cc3f 3861 8a3f
00000170: 9959 133f 200e 653f 132e 2ebf 2e42 62bf
00000180: 55e8 d5be ff7f 95bf 64d4 b6be 958c 40bf
00000190: e2c1 f8bd 883f 943f 9a93 013f 6694 e63f
000001a0: cf7e 023f aa2e fd3f dd3c 1d3f b3e4 743f
000001b0: 024c 103f 5db6 ccbe adb8 36bf 075a 033f
000001c0: 61a5 8d3f b45d 0bbf 2887 87bf b5df 033f
000001d0: bfe6 8fbf e20e a03f 383a 843f 155a 893f
000001e0: f379 ad3f 0acb cc3f 5c27 8e3e b96e 59be
000001f0: f5d0 4dbf 56f6 ac3e 9ae7 47bf bf6c 82be
00000200: cd88 903f 372e 12bf 21b9 0fbf f667 3b3f
00000210: d620 fbbe 5118 78be 2c0b a23e d368 bebe
00000220: baec 16bf 65d2 d0bd 65a4 d1be 7741 97bf
00000230: b635 22bf 6ce3 60be 4669 a73d 4c8e 693f
00000240: b013 53bf 027e 163f a997 963f 4ab8 88bf
00000250: 3639 2dbe d374 aa3e eff5 853f 802e 6abf
00000260: 9c9f 47bf 4355 07bf 2c1a 903e 9d47 3a3f
00000270: 3c32 a63e 2801 9a3f 59b5 0f3e 1e82 a93f
00000280: e702 893f 27fe cabe 00d9 e93e 653a ccbf
00000290: 8b28 73bf fce9 32bf ce38 3abf efd6 0b3f
000002a0: 893d 283f c133 aebe 4b6d 9cbf 9262 b5be
000002b0: 827f 01bf fdbd b1bf 04a0 01bf 5ba0 883e
000002c0: f715 c63e 9b61 663f 9093 673d 48c0 e6bd
000002d0: 9f1c acbf 7b76 803f 8349 6bbe ad14 f43e
000002e0: bc32 483e 324a e2be ba4b 0f40 96b2 9bbd
000002f0: 0ae1 743f 1346 69be f147 763f cfe2 533f
00000300: 11e7 5dbe d05a e6be a488 7c3f 6bc6 553e
00000310: 6a97 3b3f 4e1b dabe cd84 d4bf e9a5 9f3f
00000320: ce6c dabe 1ba6 913f d5e6 1ebf 2a89 7abe
00000330: 9264 28bf 859a 75bf 93ea 343f 1c96 4abf
00000340: 4a53 973f 9052 a3bf a217 2a3f afe2 d4bf
00000350: caf4 12bf 53e5 c03f 016e bfbf 0a21 8fbf
00000360: c33e 083f f6a1 e7bd 5a40 d73e 20a3 af3e
00000370: be22 c13f 270d 073e 5f8b a9be 3fe1 333f
00000380: bf32 f4be 8f01 7ebf 29db 383f 009f b3be
00000390: 8033 90bf 3906 4b3f 7459 45bf 4775 833d
000003a0: 850f bd3f 6acc b53f 36b3 fb3f 24a0 4c3f
000003b0: d043 f43c 0d1d b0be fdd1 8cbf 6168 923f
000003c0: 0b31 c73f 4abb 8ebf 9944 623e 7a4f 553e
000003d0: edc2 2cbf a9a7 ccbe 0cef 8cbe 2a9e a23f
000003e0: 9989 f9be 6d25 6d3e 0c94 a5bf 1833 48bf
000003f0: 1316 88bf 7b71 68bf 9547 2abe 836e 13bf
