palm_detection/pretrained_weights/depthwise_conv2d_6_Kernel.npy (npy, 1232 bytes, 1 tensors)

array f4 [1, 3, 3, 32]
00000000: 20e1 7c3f 18b9 fd3e 2bc4 ed3e c1f5 09bf
00000010: 6c20 583f 2dc0 adbf d288 38be f97d 02bf
00000020: f654 903e 679b 09bf ec34 27bf 7d92 ef3d
00000030: bace 36bf 8124 c63e f223 27bf 9242 a1bf
00000040: f665 673f d5b7 b43e ec50 ef3e 28e9 4a3f
00000050: 1f90 bd3e 1612 f93f 8b36 423f 9218 0c3f
00000060: 0cd5 743f 296c 833f 2f5d fe3e 2ce5 3ebf
00000070: ea31 6bbf ff45 7a3f e903 6e3d 903f 85be
00000080: 771c 843f de22 ecbf 7060 433e 84f0 023f
00000090: b9de b3bc 59ee cbbe 63b7 67bf 7bf3 73bf
000000a0: b863 b3bd a0d2 73be cfc2 65be 3b23 10be
000000b0: e048 30bf bef9 0fbc 2711 4abf 9011 61bf
000000c0: 92d1 dd3f b117 f83e b09b 9f3d 3290 223f
000000d0: db1f a83e f599 aabf 7fe0 bfbe c293 08c0
000000e0: 198e 03be e3f8 a1bc 2096 7cbf 0208 f5bf
000000f0: d3fa 56be 98bb f1be eca0 843f 3338 cfbf
00000100: 0ce0 1a3e c04d 01be 9873 ddbe 99ef c83e
00000110: 8a73 36be a97a 593e 9cf3 ab3e 67f9 563f
00000120: bd51 efbc fa89 c3be 132d 873f 3909 cd3d
00000130: 2236 dabe dfdb db3e f118 08be 6894 7bbd
00000140: c560 703e cdae 61be 30c3 613e 3100 e4bd
00000150: 12df 10bf 66f2 953e 839d 6fbf 3b37 2c3f
00000160: 187f 6bbf 50ba bfbe 1c9f 84bf b483 ffbe
00000170: f866 223f ce8a e3be 1d50 273f 9567 bfbf
00000180: cabc 413f 0ddd 5e3f c589 af3f d392 58bc
00000190: 30fa d7be 4d6e 0240 e40f 6d3f ad34 94bd
000001a0: fe9d bbbf c552 3ebe 2573 81be dacb 2b3f
000001b0: b001 2ebf 6a72 57be c18d 60bf d4c5 023f
000001c0: 5461 963e 3490 993f ed92 14bf a12e 3abf
000001d0: 793a 113f 5e89 67be 0698 b63f 9b1e 953f
000001e0: d68f b0be 0381 173f fb20 4f3f 22c3 8d3f
000001f0: 91ef 90bf 532b 5e3f 3f01 7f3f 3898 1b3f
00000200: 4c56 533f f1c7 6ebf c99c 04be 6bfc be3f
00000210: 85ba 1d40 4ac4 fe3e 90e5 16c0 3178 c8bf
00000220: 79b4 d4bf 0dc0 b73f 313a fabf 1572 003f
00000230: f584 3ec0 46d8 b33f dadc a8bf 84b0 833f
00000240: bdbe 613f 8f19 f73e 9e78 a1bf 21ea fcbe
00000250: d472 783f aab5 bebe 4bde a83f 84b4 0bbf
00000260: 225a 4abf 911a 173e 030a a13f 2dcc 09bf
00000270: 93e8 eabe 2a33 963e ca28 7bbf 78ee 88bf
00000280: 9b2a 8bbe 9418 5dbd 29df 1abf bdd4 ee3e
00000290: ba49 0a3f 8a54 0e3f 11b9 933f 56b2 343f
000002a0: 5101 14be e0b4 cc3c 13b1 d7be a0d3 a4be
000002b0: 2b90 cbbe a15c 8cbe d01c 993f 025c 67be
000002c0: 4ea6 85bf 47a1 8abf 5184 febe d986 6ebf
000002d0: f735 f13e 8c35 2a3e f8f7 7ebe 22c7 ba3e
000002e0: 4fe4 acbe bfbf cfbe 78f4 bbbe 2808 1bbd
000002f0: 104e 4e3f d3ab a0bf 2d7c 99bf 8291 2dbf
00000300: 9e01 2ebe e3b7 e93e b535 d13d ba9e 47bf
00000310: 5873 0bbf b503 37bf cea9 eabe 44da 413e
00000320: 89bf 563d ec5f 31bf 3b48 093f df46 283f
00000330: 76b2 a1be 23c7 63bf 6e86 34bd dd30 753d
00000340: 8442 09bf 79af e03e bc14 b7bf 0d40 c2be
00000350: fb2f ab3f 676b 70be 5148 b9be aa6e 8a3e
00000360: 6432 c33e b090 55bf 1481 403a 51b6 893f
00000370: f6be 0f3f b7b0 883f 9590 523f 1eb7 cd3e
00000380: 59b5 85bf 4197 b03c abc1 943f 624a 01bd
00000390: d110 383f 9b4c a2be 52be 3e3f f673 503f
000003a0: 3287 43bd ed39 81bf 1db7 2e3f f332 393f
000003b0: 5f8d 2cbf 7932 91be d7de 14bf 33ad af3e
000003c0: 015f 18bf 8013 663d 5e60 5bbf 20ba 513f
000003d0: 4a45 d03f 9585 c1bd c1ac b13c e1d9 afbe
000003e0: 5453 f6be 2f94 2b3e da37 913f d0a2 523f
000003f0: ffd0 d83f b64a 79bd 80a5 fbbe 4de6 6b3e
0.98781013 0.49555278 0.46438727 -0.53890616 0.8442447 -1.3574272 -0.18020943 -0.5097347
0.2818982 -0.5375275 -0.6531513 0.11697862 -0.7140919 0.38699725 -0.65289223 -1.2598441
0.90389955 0.35296503 0.46741426 0.7926202 0.37024018 1.9458644 0.75864476 0.5472499
0.95637584 1.0267383 0.49680468 -0.7456844 -0.9187304 0.97763056 0.058109198 -0.26025057
1.0321187 -1.8448141 0.19079757 0.5114825 -0.021956788 -0.39830282 -0.905142 -0.95293397
-0.08759254 -0.23810816 -0.22437595 -0.1407594 -0.688612 -0.0087875705 -0.7893242 -0.87917423
1.7329581 0.48455575 0.07793367 0.63501275 0.32836804 -1.3328234 -0.37475964 -2.1340184
-0.12847175 -0.019771999 -0.9866657 -1.9143069 -0.2099412 -0.47213435 1.036161 -1.6189026
0.1512453 -0.12627316 -0.43252254 0.39245299 -0.17817512 0.21238197 0.33584297 0.8397431
-0.02921378 -0.38191205 1.056063 0.10011525 -0.42619425 0.42941186 -0.13290764 -0.061420828
0.23474415 -0.22039337 0.22047114 -0.11132849 -0.5659038 0.29286498 -0.9359972 0.67271775
-0.91990805 -0.37446833 -1.0361056 -0.4990517 0.6343837 -0.44441837 0.6535662 -1.4953486
0.75678694 0.87056047 1.3713919 -0.013218599 -0.42183065 2.0379822 0.9260237 -0.072366096
-1.465759 -0.18586262 -0.2528316 0.6710793 -0.67971325 -0.21039739 -0.877163 0.5108311
0.2937113 1.1997132 -0.5803669 -0.727274 0.5672985 -0.22610995 1.4265144 1.1649965
-0.34484738 0.5918123 0.809097 1.1075175 -1.132311 0.8678486 0.99611276 0.6077914
0.82553554 -0.93273836 -0.12950434 1.4920782 2.4645092 0.49759132 -2.3577614 -1.566168
-1.6617576 1.4355484 -1.9549009 0.50174075 -2.976865 1.4050376 -1.3192399 1.0288243
0.8818167 0.48261687 -1.2614934 -0.49397376 0.97050214 -0.37247974 1.3192838 -0.5457232
-0.7904378 0.14756228 1.258118 -0.5382717 -0.45880565 0.2933591 -0.98109114 -1.0697775
-0.27180943 -0.053978518 -0.60496765 0.4664668 0.5401875 0.55597746 1.1540853 0.7058462
-0.14453627 0.024988592 -0.42127284 -0.32192707 -0.3975843 -0.2741442 1.1961918 -0.22593692
-1.0441377 -1.0830468 -0.49710324 -0.9317451 0.47111484 0.16621989 -0.2489928 0.3648005
-0.33767936 -0.40575978 -0.36709952 -0.037849575 0.80587864 -1.2552437 -1.199102 -0.6780015
-0.16992804 0.45648107 0.10215322 -0.7797657 -0.54472876 -0.7149003 -0.45832676 0.18930918
0.052428756 -0.6928699 0.5362584 0.6573314 -0.31581467 -0.88975734 -0.044073515 0.059861053
-0.5361712 0.43883875 -1.4303203 -0.37939492 1.3374017 -0.2347847 -0.36187986 0.27037555
0.38124382 -0.834239 0.0007343453 1.0758764 0.5615076 1.0678929 0.82251865 0.4017877
-1.0445968 0.021556498 1.1621603 -0.031565078 0.7190066 -0.3169907 0.74509156 0.8142694
-0.047736354 -1.0095803 0.6824816 0.7234337 -0.67403215 -0.2835882 -0.58152527 0.34311828
-0.59519964 0.05617094 -0.8569392 0.8192463 1.6271145 -0.09449307 0.02168882 -0.34345916
-0.4811045 0.16755746 1.134517 0.8227968 1.693878 -0.060862266 -0.49149704 0.23037072
