palm_detection/pretrained_weights/depthwise_conv2d_15_Kernel.npy (npy, 2384 bytes, 1 tensors)

array f4 [1, 3, 3, 64]
0	0xbe425f83	-0.18981747
1	0x3ee89675	0.4542729
2	0xbf17047c	-0.5899122
3	0x3fa51117	1.289584
4	0xbd426f9e	-0.047469728
5	0x3f1c2c35	0.61004955
6	0x3e8f688a	0.28009444
7	0xbf0d4592	-0.5518428
8	0xbc590f4e	-0.013248278
9	0x3f9ae3e5	1.2100798
10	0xbe6f06e9	-0.2334248
11	0x3eda9c22	0.42697245
12	0xbf1b7fcc	-0.6074188
13	0xbfba311e	-1.4546239
14	0x3f930a4e	1.148752
15	0xbf55a475	-0.83454067
16	0x3cced1f8	0.025246605
17	0xbf5cd591	-0.86263376
18	0xbee315f5	-0.4435269
19	0xbe1733e2	-0.14765885
20	0xbf7cc2d3	-0.9873478
21	0xbe8e5477	-0.27798817
22	0x3fcb5ed1	1.5888311
23	0xbd9420a2	-0.07232787
24	0xbf0470f3	-0.51734847
25	0x3edd4c14	0.43222106
26	0xbfc269f2	-1.5188582
27	0x3fa51c37	1.2899235
28	0x3f19c7c7	0.6007046
29	0x3f065e3e	0.5248755
30	0x3ef7a534	0.48368227
31	0xbf1c6e17	-0.61105484
32	0xbddf9f08	-0.10919005
33	0x3fadd6fb	1.3581232
34	0xbf7672e7	-0.9626908
35	0x3f9c4e22	1.2211344
36	0x3ee2c81b	0.44293293
37	0xbef9e05e	-0.4880399
38	0xbe5da480	-0.21644783
39	0xbfef58e2	-1.8699
40	0x3ff0c29c	1.880939
41	0x3ee9cb0f	0.45662734
42	0xbfb77e07	-1.4335335
43	0x3eb2efc4	0.34948552
44	0xbfa56778	-1.2922201
45	0x3f707fc5	0.9394496
46	0xbf80edc2	-1.0072558
47	0xbefd7d88	-0.49509835
48	0x3f4dc786	0.80382574
49	0xbf380e39	-0.718967
50	0x3f08f5eb	0.5350024
51	0xbd02fc9c	-0.03197919
52	0xbf06ac53	-0.52606696
53	0x3f8bfdee	1.0936868
54	0x3f58e1db	0.8471963
55	0x3f3541f3	0.70803756
56	0x3d18a800	0.037269592
57	0xbf06b4e1	-0.5261975
58	0xbfe29d3e	-1.7704237
59	0xbe80a548	-0.251261
60	0x3f6f3185	0.93434936
61	0xbf11900c	-0.56860423
62	0x3ebf406c	0.37353837
63	0x3eb4967f	0.3527107
64	0xbe2fe154	-0.171758
65	0x3f9b6892	1.2141287
66	0x3e6dff99	0.23242034
67	0x3f8e92c1	1.1138536
68	0x3ee57bfc	0.44821155
69	0xbe7af7b9	-0.24508561
70	0x3d08feee	0.033446245
71	0xbf791846	-0.97302663
72	0x3e2d1bb3	0.16905098
73	0x3f318fb0	0.69359875
74	0x3f0e5d4d	0.55611116
75	0x3f82aa33	1.0208191
76	0xbea80f81	-0.3282433
77	0x3e012ecc	0.12615508
78	0x3f2b7e2e	0.6698941
79	0xbeb1fb36	-0.3476197
80	0xbf4036ca	-0.750836
81	0xbfd72733	-1.6808838
82	0xbf5d6c66	-0.8649353
83	0xbf77b16b	-0.96755093
84	0xbf340c58	-0.70331335
85	0xbf36c322	-0.713915
86	0x3f99e0b9	1.2021705
87	0xbfd86396	-1.6905391
88	0xbf1c411d	-0.61036855
89	0x3f4bf066	0.79663694
90	0xbfabf1eb	-1.3433203
91	0xbe5c6cdf	-0.21525906
92	0x3f797728	0.97447443
93	0x3a0b84c9	0.0005322216
94	0x3ee431b6	0.44569176
95	0x3e5a7bc8	0.21336281
96	0xbe9d0c21	-0.30673316
97	0x3fdbb803	1.7165531
98	0xbfb60c6d	-1.4222542
99	0x3f42ecaa	0.7614237
100	0x3f88293d	1.0637585
101	0xbf9ee134	-1.2412477
102	0xbf808409	-1.0040294
103	0xbf15ebfe	-0.5856322
104	0x4009a74c	2.150836
105	0xbf88d065	-1.0688597
106	0xbf55c375	-0.8350137
107	0x3f0336c8	0.51255465
108	0xc0096108	-2.1465473
109	0xbeb2b536	-0.34903878
110	0xbf32e23c	-0.69876456
111	0xbd40032e	-0.046878032
112	0x3f9dd699	1.2331115
113	0xbf14c349	-0.5811048
114	0x3f970d2a	1.1800892
115	0x3fd9ea84	1.7024693
116	0xbfc82659	-1.5636703
117	0x3fcac090	1.5840015
118	0x3f50c280	0.81546783
119	0x3f6541b1	0.8955336
120	0xbe4e7b68	-0.20164263
121	0xbf1ab9bd	-0.60439664
122	0xbf002bf0	-0.50067043
123	0xbed40ec5	-0.41417518
124	0x3f4b1191	0.7932368
125	0xbf058142	-0.52150357
126	0x3f9fcde7	1.2484711
127	0x3f4b4cb9	0.79413944
128	0x3d3992ec	0.04530613
129	0x3f6f6666	0.9351562
130	0x3f76760a	0.96273863
131	0xbdc2b8b5	-0.09507886
132	0x3f1ba817	0.6080336
133	0xbe934452	-0.28763062
134	0xbdbab6d4	-0.09116903
135	0x3e4daffb	0.20086662
136	0x3f161132	0.5861999
137	0x3ecf3956	0.4047343
138	0x3f24ee78	0.64426374
139	0x3fae6cd6	1.3626964
140	0xbd8b3cbb	-0.06798693
141	0x3f9df2b6	1.2339694
142	0x3e68c240	0.2273035
143	0x3f0b5626	0.5442833
144	0xbf39b411	-0.72540385
145	0xbf76b2cf	-0.9636659
146	0xbf3cc269	-0.73734146
147	0xbfae553f	-1.3619765
148	0xbf109744	-0.56480813
149	0xbee1c117	-0.44092628
150	0x3f07dd85	0.53072387
151	0xbfa55146	-1.2915428
152	0x3dae4a76	0.08510296
153	0x3f15b10e	0.5847329
154	0xbf680ef1	-0.906478
155	0xbf7e7699	-0.99399716
156	0x3e9bd87f	0.3043861
157	0xbe05f728	-0.13082564
158	0xbea0dbf7	-0.3141782
159	0x3f5aeebf	0.8552055
160	0xbefbd333	-0.4918457
161	0x3fa433cb	1.2828306
162	0xbf5e2d83	-0.86788195
163	0xbed1f5ec	-0.41007936
164	0x3f62e333	0.8862793
165	0xbfc7b67b	-1.5602564
166	0xbf823840	-1.0173416
167	0x3fa0b871	1.2556287
168	0x3f8c9d9f	1.0985602
169	0xbfb70dd6	-1.4301097
170	0x3dfe989a	0.1243145
171	0x3f2c88e1	0.6739636
172	0xbf90cf9d	-1.1313359
173	0xbf7159d4	-0.9427769
174	0xbd893449	-0.06699426
175	0x3f566f88	0.83763933
176	0x3f6ac361	0.91704375
177	0xbe3ef235	-0.18647082
178	0x3f95909c	1.1684756
179	0x3fafc103	1.3730778
180	0xbfee931b	-1.8638643
181	0x3f938ed9	1.1527969
182	0xbeeae53c	-0.45878017
183	0x3e932483	0.28738794
184	0xbe462dcf	-0.19353412
185	0x3f14e9c9	0.5816923
186	0x3e835f15	0.2565848
187	0xbd6fc67d	-0.058538903
188	0x3e3ff21c	0.18744701
189	0xbeae9d9a	-0.34104615
190	0x3f67e401	0.9058228
191	0x3f620747	0.88292354
192	0x3e5654f4	0.20930845
193	0x3f3e2d9c	0.74288344
194	0xbfb881ac	-1.4414573
195	0x3f4c7b54	0.79875684
196	0x3f09d960	0.5384731
197	0xbea47420	-0.32119846
198	0xbe222697	-0.15835033
199	0xbf8757e6	-1.05737
200	0x3ee277b0	0.4423194
201	0x3f8a9e3b	1.0829538
202	0x3edf0856	0.43561047
203	0x3eef0d7f	0.46689984
204	0xbf4b62fa	-0.794479
205	0xbe7cac79	-0.24675168
206	0x3fc4f9a2	1.5388682
207	0xbfa0cf26	-1.2563217
208	0x3f21fe6e	0.63278854
209	0xbc6f33fa	-0.0145997945
210	0xbea33560	-0.3187666
211	0x3c35c2dd	0.011093822
212	0xbfbb62b2	-1.4639494
213	0xbf6924df	-0.91071886
214	0x3fab8471	1.3399793
215	0xbf115523	-0.56770533
216	0xbf39d1c7	-0.7258572
217	0x3f4eb66d	0.8074711
218	0xbf5bdc31	-0.8588286
219	0x3dbf2f6d	0.093352176
220	0x3fa8baf5	1.3182055
221	0x3e8ad688	0.271168
222	0x401098de	2.2593303
223	0xbf99d53c	-1.2018199
224	0xbf500fc2	-0.81274045
225	0x3f97c55b	1.1857103
226	0xbfd13922	-1.634556
227	0x3f5c5378	0.86064863
228	0x3f9ad529	1.2096301
229	0x3e6e7279	0.23285855
230	0x3ea9da68	0.33174443
231	0xc0041826	-2.063974
232	0x3f50eff3	0.81616133
233	0x3f09ff4d	0.53905183
234	0xbf8a7a59	-1.0818588
235	0x3f8eb3f4	1.1148667
236	0xbf327de0	-0.6972332
237	0x3fed0a6f	1.8518809
238	0xbf935536	-1.1510379
239	0xbe3d89d2	-0.18509606
240	0x3fa7be78	1.3105001
241	0xbeec5108	-0.46155572
242	0x3f57e865	0.8433898
243	0xbfbabc66	-1.4588745
244	0x3b484a20	0.003056176
245	0xbf57a036	-0.8422884
246	0x3f7b391a	0.98134005
247	0xbe2b4e29	-0.16729034
248	0xbefad3a5	-0.48989597
249	0xbfcf53a8	-1.6197405
250	0xbffb4517	-1.963046
251	0xbf8c9637	-1.0983342
252	0x3f80ce9a	1.006305
253	0xbf7a7aa1	-0.97843367
254	0x3f590cc8	0.8478513
255	0xbf607358	-0.87676
