palm_detection/pretrained_weights/depthwise_conv2d_22_Kernel.npy (npy, 4688 bytes, 1 tensors)

array f4 [1, 3, 3, 128]
000000 97 06 b4 be 38 c8 c6 be 92 0d d3 3e f6 15 a5 bf
       -0.35161278 -0.3882463 0.4122129 -1.2897327
000010 88 39 5d 3f ef 12 37 3f 51 d2 ca be 5b 02 21 3f
       0.8641591 0.71513265 -0.39613584 0.6289422
000020 d7 45 54 3f 31 87 6a bf fc ea e9 3d 4e 57 1c bf
       0.8291907 -0.91612536 0.11421773 -0.61070716
000030 19 86 d7 3e 29 4e 49 3f 88 c6 91 bf 31 4c 05 bf
       0.42094496 0.7863489 -1.1388712 -0.52069384
000040 83 0f 0f c0 aa 70 88 be 41 25 bb be 0a 29 10 3f
       -2.2353218 -0.26648456 -0.3655186 0.5631262
000050 f5 90 2a 3e c6 63 6c bd cb 73 d8 be a6 61 c4 3d
       0.16656859 -0.05771234 -0.42275843 0.095889375
000060 61 9a cd 3d 18 7f 39 3f f4 a1 46 3a ee 28 9a bf
       0.10039211 0.72459555 0.00075772335 -1.2043741
000070 db e9 63 3f bc 16 6f 3d 75 f7 ee 3b 42 ab fd bd
       0.8902871 0.05837129 0.007292683 -0.123861805
000080 b2 af 24 3f 01 de f3 3c a9 82 33 3e 65 18 58 bf
       0.6433059 0.029768946 0.17530312 -0.84412223
000090 0d d1 8d bf a6 2e a0 3f 2f 46 77 be d7 e1 31 3f
       -1.1079422 1.2514236 -0.24147867 0.6948523
0000a0 e3 ec 9b bf fd ce 24 bf 57 93 f1 be 31 51 00 be
       -1.2181667 -0.6437834 -0.47182724 -0.12530972
0000b0 10 26 ad 3e 19 2d 4e 3e 5b 42 cc 3e d4 04 0b 3f
       0.33818102 0.20134391 0.39894375 0.5430424
0000c0 a7 eb 6e bf 15 2b 4d 3f b5 d6 8e bf d3 8d 26 bf
       -0.93328327 0.8014386 -1.1159273 -0.65060157
0000d0 6a 89 69 bf 86 56 6c be e1 98 51 bf 80 94 7a be
       -0.912253 -0.23079881 -0.818739 -0.24470711
0000e0 cb b6 41 3f b8 0a 8a 3f 6b b6 ec be b2 2b 6d be
       0.75669545 1.0784521 -0.46232924 -0.231612
0000f0 d8 56 f4 3e 4c e4 03 bf a8 e2 94 3f 55 ca 0e 3d
       0.47722507 -0.5152023 1.163167 0.034860928
000100 50 d1 ac 3d 30 ca b2 be 1f f1 bc be d0 35 be 3d
       0.08438361 -0.34919882 -0.3690271 0.09287608
000110 1b 0e da be 7a 61 a0 3f 60 04 63 3d 05 5c b9 bf
       -0.42588887 1.2529747 0.055424094 -1.4481207
000120 6c c2 97 bd 4e e5 b4 bf ae 3c e5 bf 3d 08 87 bf
       -0.0741013 -1.4132478 -1.7909143 -1.0549389
000130 bd f9 89 bc 90 0d ae bf a6 e6 01 40 06 24 6c bd
       -0.016842717 -1.3597889 2.0297027 -0.057651542
000140 7b cc 5e bf a6 ce 03 c0 f9 49 03 c0 0d 19 ce 3e
       -0.8703076 -2.0594878 -2.05139 0.40253487
000150 c6 92 22 bf cc 79 55 be 64 d2 79 bf 9c e9 52 be
       -0.6350521 -0.20847243 -0.97586656 -0.20596927
000160 ef 48 0a 40 a6 9f bf bf 19 60 91 bf 50 c6 99 be
       2.1607015 -1.4970596 -1.1357452 -0.30034113
000170 37 7c 14 3f a0 b0 80 bf de 11 6b bf 89 76 2e 3f
       0.58002037 -1.0053902 -0.9182414 0.6814962
000180 09 d4 78 bf 23 03 cb bf 29 eb ef bc c0 de 51 3f
       -0.9719854 -1.5860332 -0.029286938 0.81980515
000190 57 13 08 bf 6f 1d ab 3d 19 d9 ed be fe 8d ce bf
       -0.5315451 0.083552234 -0.46454695 -1.6137083
0001a0 a1 3a 7b 3f 5d 49 a1 3e f7 e8 3c bf ef 87 b1 bf
       0.98136336 0.31501284 -0.73792976 -1.3869609
0001b0 f0 01 fc 3e 8e 8d 52 bd 9b 24 4b 3e e6 b8 1d bf
       0.49220228 -0.05140453 0.19838183 -0.6161026
0001c0 97 bb d7 3f 3a a5 c4 be e7 2e 7a 3e ba 66 18 bf
       1.6854123 -0.38407308 0.24431954 -0.5953175
0001d0 73 94 f5 be a0 8f 3d 3f f3 e3 a0 3d a5 4f 89 3f
       -0.4796482 0.7404728 0.07855978 1.072743
0001e0 92 22 f3 be 6a ac fa 3e b2 d1 1e 3f bd 47 a2 bf
       -0.47487313 0.48959666 0.6203872 -1.2678143
0001f0 ae 4e 33 3f 11 9e be bf 44 8a 2e bf 09 5f 6f bf
       0.7004193 -1.4891988 -0.68179727 -0.9350439
000200 32 64 99 bf d3 09 e9 be e1 ca a5 3e 7e 03 0e bf
       -1.1983702 -0.45515308 0.32381347 -0.5547408
000210 5c 83 dd be 87 d0 9c 3e 09 d6 e2 be d3 ee 0c 3d
       -0.43264282 0.30627844 -0.4430392 0.034407448
000220 50 09 ab 3e 78 2e 5d be 58 60 07 3f 4c c2 cb bd
       0.33405542 -0.21599758 0.52881384 -0.099491686
000230 28 92 0f 3e 91 80 8d 3f 3a e8 82 bf 4f f9 dd 3d
       0.14020598 1.105486 -1.022712 0.108385675
000240 d7 5a bb bf e5 68 8f bd 1b 61 07 bf c9 bf 50 3f
       -1.4637097 -0.07002429 -0.52882546 0.8154264
000250 20 61 84 3f 69 1a 33 be cc e1 8b be 81 91 64 be
       1.034214 -0.17490543 -0.27320707 -0.2232113
000260 d6 40 b2 bd a8 e0 6c 3f a6 90 b0 3e 40 8f f5 3e
       -0.08703773 0.925303 0.34485358 0.47960854
000270 ca f3 e8 3e 59 02 bf 3d ba ca 1e 3e b7 7d 64 bf
       0.45498496 0.0932662 0.15507022 -0.89254326
000280 df 42 8a 3f 3a b4 a6 be 8a 68 ae bf e3 ac b9 be
       1.0801657 -0.32559377 -1.3625653 -0.36264715
000290 fd 2b 96 bf ce bf b3 3e 6b d4 e9 bd 44 41 3f bf
       -1.1732174 0.35107273 -0.11417469 -0.7470896
0002a0 18 b9 0c bd 55 54 0c bf 9a 48 46 bd e0 c3 5c be
       -0.034356207 -0.5481618 -0.048409082 -0.21559095
0002b0 bb 77 0a 3f c0 45 0e 3f 9e 2d 87 3e 35 07 4d bf
       0.54088944 0.5557518 0.2640199 -0.8008912
0002c0 3f 15 d9 bf 1d e4 9e 3f bd a5 9f bf d2 a6 4d bf
       -1.6959609 1.2413365 -1.2472454 -0.8033267
0002d0 4b c5 ba 3e 05 95 1d bf eb 8e cf be 20 1b 3b 3e
       0.36478648 -0.6155551 -0.40538725 0.18272066
0002e0 6b 72 76 3e 90 7b 7a 3f 74 f6 7a bf f0 ff 2f bf
       0.24067084 0.9784479 -0.9803231 -0.68749905
0002f0 f9 8a ca bf 86 ed 92 bf 41 43 c1 3f 88 32 32 3f
       -1.5823661 -1.1478736 1.5098649 0.69608355
000300 4a 96 44 bf 05 6e 10 3d 07 69 1f 3f c5 14 ff bd
       -0.7679182 0.035261173 0.62269634 -0.12455133
000310 5f da 0b 3e 98 65 b0 be e0 81 cc 3e 07 7a 95 bf
       0.1365752 -0.3445251 0.39942837 -1.1677865
000320 5b 30 d8 3e d6 02 bf be b4 9a c1 bf 9a 55 f9 3e
       0.42224392 -0.3730685 -1.5125337 0.4869812
000330 af 69 8e 3f 57 65 17 c0 f3 fa 57 3f cf e9 99 3e
       1.1126002 -2.3655603 0.84367293 0.30061194
000340 2c 57 fa bb 46 d7 6f 3e 0f 13 b6 bf 99 a0 5b 3f
       -0.007639786 0.23421964 -1.4224566 0.8579193
000350 c6 cb 09 bf 74 0b 35 bf 42 1f 94 be e4 cd 64 bf
       -0.5382656 -0.707206 -0.28930098 -0.89376664
000360 7b e7 b7 3f 77 e2 aa be fa 04 97 bf 69 6d 45 bf
       1.4367517 -0.33375904 -1.1798394 -0.7712007
000370 74 72 30 bf 60 db a2 bf df a6 ee 3d 9c 5f d6 3e
       -0.6892464 -1.2723198 0.11652922 0.4186982
000380 91 68 c5 bf 09 8b fb be 07 19 69 bf 26 39 3f 3f
       -1.5422536 -0.49129513 -0.91053814 0.74696577
000390 82 f3 ac bf 67 29 21 be 4f 73 49 bf ce 54 30 bf
       -1.3511813 -0.1573845 -0.7869157 -0.688794
0003a0 00 2a 2c 3f 85 3b c3 be ef fd 15 bf be 7b 4a bf
       0.67251587 -0.38131347 -0.58590597 -0.79095066
0003b0 8b 27 9b 3f 6c 5a 85 3e 5a 00 df 3e 09 d9 7a 3e
       1.2121443 0.2604555 0.43554956 0.24496855
0003c0 9b ae 10 3f 18 54 fc bd ea bb c1 bc b1 b8 71 3f
       0.56516427 -0.12320727 -0.023649175 0.9442244
0003d0 e8 c6 9b be 8b 43 42 3f 54 3c 05 bf 82 a6 4c 3f
       -0.3042519 0.7588431 -0.5204518 0.7994157
0003e0 8f 7a 20 bf 35 e2 8b 3f a7 d8 de 3c 60 0f d6 bf
       -0.6268701 1.0928408 0.027202917 -1.6723442
0003f0 55 85 30 3f d3 fa c2 bf cc e4 6e bf 6d f7 97 bf
       0.6895345 -1.5232795 -0.93317866 -1.1872383
