palm_detection/pretrained_weights/depthwise_conv2d_Kernel.npy (npy, 1232 bytes, 1 tensors)

array f4 [1, 3, 3, 32]
0.031431198 0.030815324 -0.48564103 1.0188988 0.5292953 -0.09092224 0.24396868 0.6567999
0.23081623 -0.26163197 0.011421016 -0.51817745 -0.11098604 -0.06929469 0.2731117 0.08358114
-0.04613686 0.23262404 -0.48060727 0.524468 -0.37998214 -0.07995742 -0.1676863 -0.93703395
-0.2701297 0.72086084 0.24527295 0.06427467 0.111505486 0.11211836 -0.057591263 -0.61268216
-0.26672682 -0.8767204 -0.31832144 0.8800546 0.4976203 0.1491124 0.37612066 1.1985188
0.11954335 0.017808897 0.1417955 -0.1387162 -0.2940105 -0.6685836 -0.15380564 0.099931896
0.036687493 0.52371377 -0.6641539 0.018189346 -0.5756727 -0.20443092 -0.25870013 -0.124735154
-0.2090999 0.012402972 -0.05541267 -0.111191995 -0.15891486 0.2564915 -0.7831557 -0.5922916
-0.22723141 -0.079114504 -0.18495946 -0.042414214 -0.22888815 -0.11896377 0.31539166 -0.013741937
-0.0165842 -0.047356684 0.06496822 -0.5971519 -0.15007536 0.014391304 0.19126768 0.03962807
-0.030484026 0.14783262 -0.38340396 0.15421268 0.31583408 -0.3245382 -0.00409247 0.03020391
-0.3100122 -0.09971522 0.53057057 0.12777518 -0.07536916 0.13884702 -0.46498808 -0.25246876
-0.45734137 0.1986784 0.12172449 0.4681799 0.45830667 0.45503795 -1.1389567 0.58793145
0.43502966 0.6804022 -0.70557326 0.22778988 -0.4113617 -0.257893 0.6689622 0.605643
0.013466973 0.28026515 -0.2587235 -0.13106123 -0.30741268 -1.6141312 -0.4113775 -1.1293396
0.32415828 1.2442394 0.18681084 -0.017933007 -0.71068174 0.63155603 -0.16410528 -0.6527106
2.4662786 2.1554844 2.3131647 1.4719964 1.3745092 -1.8456599 -0.18304823 1.6180354
-2.482404 1.6504375 2.0079648 1.9449108 1.4307997 2.5944133 -2.232338 -2.8627014
-1.1203053 -0.79001063 1.4013689 -0.8956359 -1.0562209 -1.9989623 -1.4269466 1.6826875
2.4706557 0.3592691 -2.2709699 2.413478 2.0596316 -0.4783835 -0.8822266 -0.08943973
-0.65018225 -1.0831885 -0.15830974 -0.6251393 -0.044980787 -0.26298347 0.72216165 -0.16849752
-0.009862027 -0.3587809 0.1312978 -0.44225857 0.105132245 -0.15714249 -0.076828726 0.32535377
-0.1128803 0.018018447 -0.2326984 -0.089028634 0.47574693 -0.13520508 0.38768095 0.35294044
-0.44601852 -0.31648204 -0.15187414 0.103206836 0.1048992 0.33989695 -0.2865844 0.2588855
0.01998146 -0.31266376 -0.1571332 0.37092012 -0.55710864 0.039379135 -1.5964887 -0.47686887
0.30082488 0.15662026 -0.17911851 -0.4351658 -0.67847574 -0.1842411 0.551966 0.26694235
-0.20354293 -0.40416908 -0.16692047 -0.36596036 0.047978245 -0.4699046 -0.105739005 -0.6148225
-0.2803797 0.4876433 0.3939003 -0.0027911358 0.022709766 0.42661747 0.2679366 -0.3000194
0.1201138 -0.027037865 0.23196696 -0.17524123 0.30424026 -1.195043 -1.2021325 -0.70640683
0.6394866 0.9068358 -0.020901477 0.6185348 -0.33967763 -0.45723817 0.46979335 0.38259232
2.370796 -0.42294154 1.6711138 -0.47592136 0.050215293 -0.61501604 -0.41487354 0.7974589
0.32094288 0.79504246 0.5813795 -0.25888488 -0.10152343 -2.6615365 1.8504335 1.9576244
00000000: 00be 003d 6b70 fc3c f1a5 f8be 476b 823f
00000010: e67f 073f 7035 babd edd2 793e 0a24 283f
00000020: 175b 6c3e a0f4 85be 371f 3b3c 47a7 04bf
00000030: a64c e3bd 60ea 8dbd 4cd5 8b3e 972c ab3d
00000040: 01fa 3cbd ff34 6e3e 2812 f6be 8943 063f
00000050: 058d c2be b7c0 a3bd f5b5 2bbe 75e1 6fbf
00000060: 714e 8abe 568a 383f d528 7b3e 70a2 833d
00000070: fd5c e43d 509e e53d d1e4 6bbd bdd8 1cbf
00000080: 6b90 88be c070 60bf 07fb a2be 424b 613f
00000090: 17c8 fe3e ecb0 183e e392 c03e 1069 993f
000000a0: 25d3 f43d f7e3 913c d732 113e 9f0b 0ebe
000000b0: 8b88 96be 4b28 2bbf 3a7f 1dbe 18a9 cc3d
000000c0: a045 163d 1b12 063f fd05 2abf d301 953c
000000d0: 495f 13bf 5756 51be 5874 84be 2575 ffbd
000000e0: 491e 56be d635 4b3c 65f8 62bd a1b8 e3bd
000000f0: 94ba 22be db52 833e e47c 48bf 6ca0 17bf
00000100: 5aaf 68be c906 a2bd 0366 3dbe 87ba 2dbd
00000110: a861 6abe 47a3 f3bd 047b a13e dc25 61bc
00000120: 97db 87bc 15f9 41bd 0f0e 853d f2de 18bf
00000130: 5bad 19be 81c9 6b3c addb 433e 0b51 223d
00000140: a3b9 f9bc 6f61 173e 864d c4be eee9 1d3e
00000150: 01b5 a13e df29 a6be 201a 86bb 316e f73c
00000160: ebb9 9ebe 7e37 ccbd 79d3 073f 7fd7 023e
00000170: 255b 9abd ea2d 0e3e eb12 eebe 9643 81be
00000180: a628 eabe 5a72 4b3e b04a f93d 47b5 ef3e
00000190: 2ca7 ea3e bcfa e83e 55c9 91bf ad82 163f
000001a0: 35bc de3e d72e 2e3f 73a0 34bf c041 693e
000001b0: 009e d2be 8d0a 84be 1b41 2b3f 6b0b 1b3f
000001c0: 94a4 5c3c ea7e 8f3e 6877 84be ea34 06be
000001d0: 3265 9dbe da9b cebf 12a0 d2be 338e 90bf
000001e0: 13f8 a53e 3d43 9f3f 574b 3f3e 3ee8 92bc
000001f0: 3def 35bf a8ad 213f 370b 28be 0b18 27bf
00000200: 82d7 1d40 75f3 0940 e40a 1440 616a bc3f
00000210: ebef af3f 953e ecbf ff70 3bbe c91b cf3f
00000220: b5df 1ec0 8941 d33f 7f82 0040 d6f2 f83f
00000230: 7224 b73f de0a 2640 a0de 0ec0 8036 37c0
00000240: 2a66 8fbf 233e 4abf 0e60 b33f 6548 65bf
00000250: 3f32 87bf ffdd ffbf 30a6 b6bf 4e62 d73f
00000260: 391f 1e40 1ff2 b73e 9257 11c0 6c76 1a40
00000270: 01d1 0340 afee f4be 9ad9 61bf 2d2c b7bd
00000280: 5872 26bf eca5 8abf f31b 22be 2109 20bf
00000290: c63d 38bd c5a5 86be 96df 383f 9d8a 2cbe
000002a0: 5794 21bc 21b2 b7be ee72 063e b76f e2be
000002b0: 934f d73d f6e9 20be 6158 9dbd c594 a63e
000002c0: c92d e7bd 6c9b 933c 7d48 6ebe a554 b6bd
000002d0: 1a95 f33e 3373 0abe 1e7e c63e 9cb4 b43e
000002e0: 8a5c e4be ef09 a2be e584 1bbe 1b5e d33d
000002f0: 64d5 d63d f906 ae3e 31bb 92be a48c 843e
00000300: 29b0 a33c 7715 a0be 87e7 20be 3ee9 bd3e
00000310: ac9e 0ebf 044c 213d be59 ccbf 2828 f4be
00000320: b805 9a3e 1061 203e d86a 37be 0dce debe
00000330: 96b0 2dbf b3a9 3cbe a54d 0d3f abac 883e
00000340: 8f6d 50be 40ef cebe 33ed 2abe 285f bbbe
00000350: d684 443d 5697 f0be b18d d8bd 0265 1dbf
00000360: ee8d 8fbe 62ac f93e 4dad c93e 7deb 36bb
00000370: d509 ba3c 9b6d da3e fc2e 893e 259c 99be
00000380: 39fe f53d 837e ddbc bf88 6d3e 7072 33be
00000390: 61c5 9b3e 2bf7 98bf 7adf 99bf 14d7 34bf
000003a0: 65b5 233f 6426 683f 9339 abbc 4c58 1e3f
000003b0: 3aea adbe 1f1b eabe c188 f03e 24e3 c33e
000003c0: 1fbb 1740 cb8b d8be 0fe7 d53f f7ab f3be
000003d0: 8dae 4d3d b171 1dbf 4e6a d4be 4426 4c3f
000003e0: a052 a43e e787 4b3f 49d5 143f 8f8c 84be
000003f0: 84eb cfbd 9d56 2ac0 01db ec3f 7093 fa3f
