palm_detection/pretrained_weights/depthwise_conv2d_9_Kernel.npy (npy, 2384 bytes, 1 tensors)

array f4 [1, 3, 3, 64]
00000000: 142c 233e 5287 9b3e bf9c 34be 8b64 873d
00000010: cd96 b23d 9e19 b53e ad79 e3be 873e 683e
00000020: 515b b0be 382d 9ebe 4ae2 10bf f64b 43bf
00000030: d399 a13f 9435 01bf c06b 293f 9528 d1be
00000040: 2b3d 15bf a3df 8abe e987 a1be 7dfe bebe
00000050: 1017 a4be 8a1d aabe 99c4 9c3f c17e eb3e
00000060: 90e3 703e d624 ee3d 8666 4f3d a417 96bd
00000070: a0a2 35be 2359 043d 14af 45be 2de3 16bf
00000080: 3394 0ec0 448e 48bf 2425 e53f d274 a4bf
00000090: 255b 4abf 2401 07c0 2d0c 86bf 66f0 943f
000000a0: d757 babf 5b8d 1a3e c2ea cc3f acd9 ce3e
000000b0: e41b e4bc 52cf 72be 728f 8fbf f8a9 4d3f
000000c0: 39f2 babf f01a 083f 76a7 c03f 74ec a93f
000000d0: 7abd 4cbf 0bc4 a5bf a4e6 e93f 2803 50bf
000000e0: e9da c63e d1db 303f 06fc d7be c89a 753f
000000f0: c06c 34bf 97a0 b6bf 383a bebe 2070 c63e
00000100: 99a3 033f 08cc 4d3f 2ade 20bf 707c 983e
00000110: 87b3 d7bc cf58 06bf 1798 10be 61d1 9b3f
00000120: f568 1abf 8949 27bf 606b 193f f0c2 c7bc
00000130: b0ed 9a3f e8e8 fdbf 6268 b93e 7f53 753e
00000140: 7e4c e83e 67b8 5d3e 296f 89be afbc 5cbe
00000150: edf1 92bf 66ca 67bf 1a2c 82bf 6769 753f
00000160: b99f 86bc fbcb 5f3f 69f3 2e3f c01e afbe
00000170: 9288 5cbd 6630 1d3f 99a6 1fbe e7c4 06bf
00000180: 5317 19c0 14cc a63f f87a 1640 db06 173f
00000190: d5c8 43bf a55e f6bf 5770 85bf 15ce c33f
000001a0: 3559 a0be 975b 8f3f 7580 833f 6ec0 833e
000001b0: 4543 dc3f 9604 7ebd 1289 88bf cadd cc3f
000001c0: 725f e1bf 6a8d 913f b77c 9f3f 51ba e23f
000001d0: 6a5a c53f 9597 3f3f 741b 4e3e 00c6 7fbf
000001e0: bd72 cfbe cf69 893f c779 93bf 8a73 833f
000001f0: 6ce2 db3d 7b3d bf3e 62c9 b5bf fa07 b93e
00000200: 63d2 943e f6a8 663f 6259 12bf 5400 2a3f
00000210: f63b afbe 5e10 6dbf d120 acbe 3ae0 5c3f
00000220: 9ace 003e 4abc 51bf 260e aebd ba15 df3e
00000230: d180 943d 76da 56bf ef4a 693e 6752 a13f
00000240: 9cb2 a93e cbba debd a2ad 0d3f 5806 e2bd
00000250: 7c05 e8be 35cd 8e3d 5b96 673e 624f 60bf
00000260: 9266 983d 8f2a 053f 5736 223f 3e88 acbe
00000270: 7643 80bf 718e 4a3c d4d9 313e 72ab c0be
00000280: 2548 99bf 1123 b53f 9712 0240 056c ba3f
00000290: ccde 2d3e df81 57bf bd59 5e3a 12fb a53f
000002a0: 59ec 45be b8dd 5fbe 739b 62be 7c64 73bf
000002b0: 4f0e 983e 084c 893f 708d 21bf 59dd 3a3e
000002c0: 1cb1 d9bf f6aa 1a3f af7b b9be 4f5b bb3f
000002d0: b3e5 0840 51a0 113f 88ae 36bf d692 2d3e
000002e0: a5d3 51bf e6ad 733e 9971 1ebf bf39 3b3f
000002f0: 45e8 b8be a97f 353e c06c 99bf 3212 fa3c
00000300: c9a3 613f c2f2 54be beb4 20be 54e0 3c3f
00000310: 8e30 4f3f fe1b 703f 060c b7be 6e98 8dbf
00000320: e429 663f 9595 373e 4dac 633f 4e30 8bbf
00000330: 6fd7 063f 6cfb dcbd 2e72 893f 4ee8 6cbf
00000340: 02dc f8be b49b 8ebf 2237 d0be 21b9 acbd
00000350: 3f82 f1be 0bfe 13bf 6f83 c83f becb e93d
00000360: 46d0 eabe 1817 133f c392 e8bf 7b1d c5be
00000370: 6a9f 843f 12c3 e43e 145e 8e3e d075 d9bc
00000380: 784e 8ebf b0b1 a0bf 7462 9dbe 20e4 42bf
00000390: ccfc e0bf 455a f0bf 64e8 56bf 5156 f23f
000003a0: c5b8 05c0 5293 253f daf5 0240 9d6f 9d3f
000003b0: e971 523f 983e 1b3e 41ae dcbf 4af3 f23f
000003c0: 3142 8ebf 665e 303f fed2 a73f 3239 f03f
000003d0: 49b1 1bbf 0d71 a7bf 1c21 713f 9509 a1be
000003e0: 69bf f8bf 15da 4bbf 1b28 fd3f 12ef 4ebb
000003f0: f292 a6bf 79a9 8abc a553 283f 4765 633f
0.15934783 0.3037668 -0.17637919 0.06610974 0.08720169 0.35371107 -0.4442877 0.22680102
-0.3444467 -0.30893874 -0.5659529 -0.7628778 1.2625068 -0.5047238 0.6618004 -0.40851274
-0.5829646 -0.27123746 -0.31549004 -0.37303534 -0.32048845 -0.33225662 1.2247497 0.45995143
0.23524308 0.1162812 0.050634883 -0.07328728 -0.17737818 0.03231157 -0.19305068 -0.5894039
-2.2277954 -0.7834208 1.790196 -1.2848151 -0.79045326 -2.1094446 -1.0472466 1.1635864
-1.4558057 0.15092985 1.6009142 0.40400445 -0.02784533 -0.23711899 -1.1215651 0.80337477
-1.460517 0.53166103 1.5051105 1.3275285 -0.7997662 -1.2950453 1.8273511 -0.81254816
0.3883889 0.69085413 -0.42184466 0.959393 -0.7047844 -1.4267758 -0.37153792 0.3875742
0.51421505 0.8038945 -0.62838995 0.29782438 -0.026330722 -0.5247926 -0.14120518 1.2173272
-0.603164 -0.6534658 0.59929466 -0.024384946 1.2103786 -1.9836702 0.3621245 0.23957632
0.4537086 0.21652375 -0.2684262 -0.21556352 -1.148008 -0.9054321 -1.0169709 0.95863956
-0.016433584 0.87420624 0.68340164 -0.34203148 -0.05384118 0.61401975 -0.15590896 -0.526442
-2.3920486 1.303103 2.3512554 0.58994836 -0.7647832 -1.9247633 -1.0424908 1.5297266
-0.3131806 1.1199826 1.0273577 0.2573275 1.7208029 -0.062016092 -1.066683 1.6005185
-1.7607253 1.1371281 1.2459935 1.7713109 1.5418217 0.7484067 0.2012766 -0.999115
-0.40517226 1.0735415 -1.1521538 1.0269635 0.10736546 0.37351593 -1.4202082 0.36138898
0.29066762 0.90101564 -0.5716764 0.6640675 -0.34225434 -0.926031 -0.33618787 0.8627964
0.12578812 -0.8192793 -0.08498792 0.43571264 0.07251132 -0.83927095 0.22782491 1.2603272
0.3314408 -0.10875472 0.5534307 -0.11036366 -0.45316684 0.06972734 0.2261595 -0.8762113
0.07441439 0.52018064 0.63364166 -0.33697695 -1.0020587 0.012363062 0.17368251 -0.37630802
-1.1975142 1.4151326 2.0323846 1.4564215 0.16979522 -0.8418254 0.0008482 1.2967246
-0.1932844 -0.21861923 -0.22129612 -0.950752 0.29698417 1.0726328 -0.6310644 0.182485
-1.7007174 0.60417116 -0.36227176 1.463724 2.1390197 0.5688525 -0.71360064 0.16950545
-0.8196357 0.23796806 -0.61892086 0.7313499 -0.36114708 0.1772448 -1.1986313 0.030526254
0.8814054 -0.2079573 -0.15693948 0.737798 0.80933464 0.9379271 -0.3575136 -1.1062143
0.8990767 0.17928155 0.88934785 -1.0874116 0.52672476 -0.107901424 1.073797 -0.9254197
-0.48605353 -1.1141267 -0.40667063 -0.08433748 -0.47169682 -0.57809514 1.566511 0.11415814
-0.45862025 0.57457113 -1.8169788 -0.38499054 1.0361149 0.44680077 0.2780615 -0.026545435
-1.1117697 -1.2554226 -0.30739176 -0.7612934 -1.7577147 -1.8777548 -0.8394835 1.8932592
-2.0894024 0.6467792 2.0462556 1.2299687 0.82205063 0.15160596 -1.7240678 1.8980496
-1.111395 0.6889404 1.3111265 1.8767455 -0.6081739 -1.3081375 0.94191146 -0.31452623
-1.9433414 -0.7962964 1.9777864 -0.0031575602 -1.3013594 -0.016926514 0.6575263 0.8882641
