palm_detection/pretrained_weights/depthwise_conv2d_20_Kernel.npy (npy, 4688 bytes, 1 tensors)

array f4 [1, 3, 3, 128]
00000000: cb75 7c3e 1c32 5dbd 71d5 773d 52c9 0dbf
00000010: ef14 ae3f 8339 063f 5cb4 953d 1f9b 203f
00000020: df7b 893f f88d d33d 3e07 65be 1b38 3b3f
00000030: f16e 713e 50d3 25bf d9b8 983f baf9 77bf
00000040: c637 53bf e1ed f73d 4408 6ebe d573 18bf
00000050: 965e 0e3f 3614 83bd 3b09 05be d3b1 ec3e
00000060: f878 0dbe ffc1 a83f 0a49 113f eb1b 1b3f
00000070: 78f9 633f 6aa9 29bf 3222 97bf 9f22 cd3e
00000080: 8351 abbf 3e9b 833f ffcc 88bf f64a 403f
00000090: 7781 5fbf 39cc bdbe dd72 183e 7a80 c0bf
000000a0: 91aa 24bf 70c4 493f 09fa cdbf f2f4 0abf
000000b0: 2fff a5bf daba 5b3c 50b3 aa3e 3166 3b3f
000000c0: 7314 d63e 8042 98bf 7ac7 0abf 8532 bc3f
000000d0: e0c8 293f 5cc2 5d3e 681b aa3f 2775 df3e
000000e0: 5a7f 503e b064 6a3f bed0 503e 9b5a 09be
000000f0: 1e87 a2bf 384a afbd 155e 103f 28c9 833d
00000100: a1ef 1940 4a95 ce3e 32c2 06c0 f3fe af3f
00000110: e975 e0bf 81bb 46bf 70a9 a6bf 68e9 be3f
00000120: 7ff5 403f 7eb2 c93d 4b0e 0d40 363c 7dbf
00000130: b707 d23e ca7b 81be 67bb 323f 3a85 ffbf
00000140: ea7b 08bf 25a5 87bf 74a4 9a3e 33fe a0bf
00000150: dc92 cf3f 9e37 69be a22c 423f d970 dbbf
00000160: 815e c2bf e858 793e 853c 773e 2d84 e4be
00000170: c761 ae3e 25bd 1b3f c58b ea3e 341e 1fbf
00000180: bc20 9fbf c56a b13e 2a28 b33e b01f 863e
00000190: 0316 db3f 18d1 4b3f ed89 3bbf 27a1 1fbf
000001a0: da1d cebe 76f2 a5bf 4bcb 1ac0 2ead babe
000001b0: 88bd c83f a56d 2f3e 29cf 33bf b962 493e
000001c0: faf3 953f 959a 0d3f cfb8 90bf 0f38 013f
000001d0: 11ae 323f 8f99 4cbf 22a8 5d3e c62a e3bf
000001e0: 2745 3d3f 222c 58bf e3c7 383f 6349 b93e
000001f0: e4aa 49bf 91f5 68bf 6ca8 e0be c10f f83e
00000200: 3856 c63e 7ff4 673f d53d 73bf 3c01 d7be
00000210: 3345 d73e decf 10bf 71d6 893d 8748 c93f
00000220: 074f 203f d9e4 8a3f fba1 bb3e 7255 8fbf
00000230: 8681 3abf b366 19bf c6a1 0cbf 1be3 6fbe
00000240: 2d7a 12bf 4417 3ebe 8bb8 c33e 89a2 183f
00000250: 8522 f8be 5c37 903e 4166 76bf 7aa9 02bf
00000260: 30d8 38bf 52f7 533f d8e1 5e3e 384d ea3f
00000270: 10b8 44bf ace2 1e3f 6095 b0be 638f f33f
00000280: ba13 5dbf 26d5 a7be 50fc 94be 3e1d 6e3f
00000290: dd9a 2fbf e83e 49be 5d6e 8e3f 655d aebf
000002a0: 2828 41bf 9207 cabd 6125 a5bf 7437 2fbf
000002b0: 6873 23bf f5ce d53d 790d ee3e e130 dc3e
000002c0: ec83 4b3f 986c 1cbf a1bd a83e 04bd 9b3e
000002d0: db54 d33f ca86 74be 062a 303f a23e 963f
000002e0: 69af 863f a004 403e facc c93f b3cf e53e
000002f0: b2ff e1bf 71b7 ccbf 6fc0 ed3e 036f 37bf
00000300: 9c93 b73f 531f 143f efa3 a0bf 21df e23f
00000310: 8a7e 89bf 33bb b1bf eef9 8fbf ee6e e73e
00000320: 54b0 2f3f 06d2 303d 9b84 8c3f 2c4c 633d
00000330: 3935 2bbf 8b47 46bf b635 9a3f e6b3 94bf
00000340: 2f93 87bf d5bc 96bf 5a42 4dbf 487b 31bf
00000350: e271 53bf f14f 94bf 8ea8 50bf e23c 17bf
00000360: a70f 39bf bc27 0bbf 54ed d2be 4c2b 97be
00000370: 7102 6d3f 0796 be3f 70a2 7e3f 5208 83bf
00000380: 4311 05c0 31a3 ef3d f39a 913f b355 7a3f
00000390: fdc9 dd3f bb78 623e 3066 8abf b4c2 8bbf
000003a0: 5192 4d3e 00d9 b2be c325 63bf 1cb3 69bf
000003b0: c274 653f ed49 8a3d f6e3 1bbf f8b5 603f
000003c0: 6539 863f d177 ce3f 1b7a e5bd e2be a33f
000003d0: e356 7e3e 7992 063e 16b8 303f f211 54be
000003e0: 80e0 043f 5dd4 f33e 8130 143f 5ba6 a13f
000003f0: e2d3 1c3d 91ca 9a3f 0147 c6bf e931 38bf
0.2465431 -0.054002866 0.060506288 -0.55385315 1.3600138 0.52431506 0.073097914 0.62736696
1.0740927 0.10329813 -0.22366044 0.73132485 0.23577477 -0.6477556 1.1931411 -0.9686543
-0.8250698 0.12105919 -0.2324534 -0.59551746 0.55613077 -0.06400339 -0.12991802 0.4622942
-0.13815677 1.3184203 0.56752074 0.60589474 0.89052534 -0.6627413 -1.180731 0.40065476
-1.338425 1.0281751 -1.068756 0.7511438 -0.8730692 -0.37069872 0.14887567 -1.5039208
-0.64322764 0.78815365 -1.609193 -0.54280007 -1.2968501 0.013411248 0.3333993 0.73202807
0.41812477 -1.1895294 -0.5421063 1.4702917 0.66322136 0.21656173 1.3289614 0.43644068
0.20361081 0.91559887 0.20392129 -0.1341347 -1.2697484 -0.08559078 0.5639356 0.06434852
2.4052508 0.40348274 -2.1056027 1.3749679 -1.7535983 -0.7762986 -1.3020458 1.491498
0.753746 0.09848498 2.2039974 -0.9892 0.4102151 -0.25289756 0.69817203 -1.9962533
-0.5331408 -1.0597273 0.30203593 -1.2577575 1.6216693 -0.22775123 0.75849354 -1.7143813
-1.518509 0.24350321 0.2414418 -0.44632092 0.34058973 0.60835487 0.4580976 -0.6215546
-1.2431865 0.3465177 0.3499158 0.2619605 1.7116092 0.79615927 -0.73257333 -0.62355274
-0.4025715 -1.2964618 -2.418658 -0.3646025 1.568284 0.1713167 -0.70237976 0.19666566
1.1715081 0.55314 -1.1306399 0.50476164 0.69796854 -0.7992181 0.21646169 -1.7747428
0.73933643 -0.8444234 0.7218 0.36188802 -0.78776383 -0.90999705 -0.43878496 0.4844952
0.38737655 0.90607446 -0.95016223 -0.4199313 0.42044982 -0.5656718 0.067303546 1.5725259
0.62620586 1.0851089 0.3664702 -1.1197951 -0.7285389 -0.5992233 -0.54934347 -0.23426478
-0.57217675 -0.18563563 0.38226733 0.5962301 -0.48463836 0.28167236 -0.9624978 -0.5103985
-0.72204876 0.82799256 0.2176584 1.8304815 -0.7684336 0.62064624 -0.34488964 1.9028133
-0.86358225 -0.32779807 -0.2909875 0.9301337 -0.6859568 -0.19652903 1.112743 -1.3622252
-0.754519 -0.09864725 -1.2902032 -0.6844399 -0.6384797 0.104398645 0.46494654 0.43006042
0.7949817 -0.611032 0.32957175 0.30417645 1.6510271 -0.23879543 0.6881412 1.1737864
1.0522281 0.18751764 1.5765679 0.44885024 -1.7656157 -1.5993482 0.46435878 -0.71653765
1.4341922 0.57860297 -1.2550029 1.7724344 -1.0741742 -1.3885254 -1.1248147 0.4520182
0.6862843 0.043169044 1.0977968 0.055492565 -0.66878086 -0.77452916 1.2047641 -1.1617401
-1.0591792 -1.1776377 -0.8017937 -0.6932874 -0.82595646 -1.1586896 -0.81507194 -0.59077275
-0.7228951 -0.54357505 -0.41196692 -0.2952522 0.9258185 1.4889535 0.9946661 -1.0236914
-2.0791786 0.11701048 1.1375412 0.97787017 1.7327267 0.22116368 -1.0812435 -1.0918794
0.20075347 -0.34931183 -0.88729495 -0.91288924 0.89631283 0.067523815 -0.60894716 0.8777766
1.0486265 1.6130315 -0.112049304 1.2792628 0.24837832 0.13141812 0.6903089 -0.2070997
0.5190506 0.47622958 0.5788651 1.2628893 0.038288005 1.2093068 -1.5490419 -0.71951157
