palm_detection/pretrained_weights/depthwise_conv2d_40_Kernel.npy (npy, 4688 bytes, 1 tensors)

array f4 [1, 3, 3, 128]
0	0x3e61ef39	0.22063912
1	0x3f83c8ac	1.0295615
2	0x3df4e6d4	0.119580895
3	0x3f22d4de	0.6360606
4	0xbf0819e0	-0.5316448
5	0xbf2094bb	-0.62726945
6	0xbe9b44d2	-0.30325943
7	0x3e7e62b2	0.24842337
8	0xbfb3c26c	-1.4043708
9	0xbec7d9c2	-0.39033324
10	0xbe4b3d1f	-0.19847535
11	0x3f5a54b2	0.85285485
12	0xbec8e3da	-0.39236337
13	0x3eed1517	0.46305153
14	0x3f856878	1.0422506
15	0xbe92e9b9	-0.2869394
16	0x3f40efbf	0.75365824
17	0x3ed88e4b	0.4229606
18	0x3e18db20	0.1492734
19	0x3e5a4e29	0.21318878
20	0x3de8395b	0.11339065
21	0xbe2c7f16	-0.16845354
22	0xbf5a0fbb	-0.8518025
23	0x3eea3ff1	0.45751908
24	0x3e6b86d2	0.23000649
25	0xc0029818	-2.040533
26	0xbf1868e2	-0.5953504
27	0xbef8d615	-0.48600832
28	0xbecb2699	-0.39677885
29	0xbd973c0a	-0.073844984
30	0x3ddb3d0d	0.10705004
31	0x3f04dffe	0.51904285
32	0x3ea9d3ed	0.331695
33	0x3db86589	0.09003741
34	0x3f944ffd	1.158691
35	0xbe60c983	-0.2195187
36	0xbf70e4c0	-0.94099045
37	0x3f0446ea	0.51670706
38	0xbf003f74	-0.5009682
39	0x3fb9e2e1	1.4522363
40	0xbf672016	-0.90283334
41	0x3d6f7cf4	0.058468774
42	0xbf68e382	-0.9097215
43	0xbe912a7b	-0.28352723
44	0x3d0e31d0	0.034715474
45	0x3f01e78e	0.5074395
46	0xbe62ea45	-0.22159679
47	0x3eb3f090	0.35144472
48	0xbf8539f3	-1.040831
49	0x3f072245	0.52786666
50	0xbdf21054	-0.118195206
51	0xbeff4ebd	-0.4986476
52	0xbe9dbdfb	-0.30809006
53	0xbf0ff610	-0.56234837
54	0xbedb6bc2	-0.4285565
55	0xbf247f35	-0.642566
56	0xbe8ed9ef	-0.27900645
57	0x3e40f4ae	0.18843338
58	0x3e9110b6	0.28333062
59	0x3ef2afa2	0.47399622
60	0x3e40363c	0.18770689
61	0x3f81cdd0	1.0140934
62	0x3f00eac4	0.50358224
63	0xbf8f7450	-1.1207371
64	0xbc0672cd	-0.008206082
65	0xbedd2ca2	-0.43198115
66	0xbeba1a12	-0.36348015
67	0x3e6af4cd	0.22944947
68	0xbf05cac9	-0.5226255
69	0x3ee77c37	0.45211956
70	0x3f51a0e2	0.8188611
71	0x3f51571c	0.81773543
72	0x3f2c64c0	0.6734123
73	0xbdf2addf	-0.118495695
74	0xbfa19f32	-1.2626708
75	0x4002feb9	2.046797
76	0xbf7775d5	-0.9666417
77	0xbfaff632	-1.3747008
78	0xbf5d4ff0	-0.864501
79	0xbf805d3a	-1.002845
80	0xbf1b36a5	-0.60630256
81	0xbf5c5b0f	-0.86076444
82	0xbe65af52	-0.2243016
83	0x3e4d08b1	0.20022847
84	0x3edbb185	0.42908874
85	0xbdcebc3b	-0.10094496
86	0xbf898e13	-1.0746483
87	0xbf81f903	-1.0154117
88	0xbf8709b6	-1.0549839
89	0x3f067ed0	0.5253725
90	0x3e1d63f1	0.15370156
91	0xbf3f3068	-0.7468324
92	0x3f9babb2	1.2161772
93	0x3f4fd84d	0.81189424
94	0xbee89b2f	-0.45430896
95	0x3ffb5768	1.9636049
96	0xbf3028c6	-0.68812215
97	0x3f83c5d5	1.0294749
98	0xbdc1e69f	-0.094678156
99	0x3fac18cd	1.3445069
100	0x3fbfcd39	1.4984504
101	0x3fddbfc1	1.7324144
102	0x3f866181	1.0498506
103	0xbde7b04f	-0.11312925
104	0xbf1fc5df	-0.624113
105	0x3f7d5827	0.98962635
106	0xbef72b19	-0.48275068
107	0xbf3eedde	-0.74581707
108	0xc00d7dd6	-2.2108054
109	0x3e4c634a	0.19959751
110	0xbe9fca6d	-0.31209126
111	0xbf9b07e1	-1.211178
112	0x3fe5a69b	1.7941469
113	0xbe57da77	-0.21079431
114	0x3eaf76a8	0.34270215
115	0xbeedf1b6	-0.46473473
116	0xbdd75114	-0.10513511
117	0xbf2cc082	-0.67481244
118	0x3f3ddfe2	0.74169743
119	0x3f8b90e0	1.0903587
120	0x3f92c3e1	1.1466027
121	0x3f371899	0.7152191
122	0x3d9a61dc	0.075381964
123	0xbee7a84f	-0.45245597
124	0xbedb6a80	-0.4285469
125	0xbef0e2e0	-0.47048092
126	0xbf7f6241	-0.997593
127	0xbf236cb6	-0.63837755
128	0xbef8d4ac	-0.48599756
129	0x3f4136b9	0.75474125
130	0x3e25b821	0.16183521
131	0x3f2c4427	0.6729149
132	0xbf914561	-1.1349298
133	0xbf47fa75	-0.7811654
134	0xbf0fad27	-0.56123585
135	0x3e0741a8	0.1320864
136	0xbfdb4c7f	-1.713272
137	0xbf18e7ae	-0.59728515
138	0xbeb83c30	-0.3598342
139	0x3f887d9a	1.066333
140	0x3f1d6ebd	0.614971
141	0x3f3ae3b0	0.73003674
142	0x3fe5cbb4	1.795279
143	0xbe93b1bf	-0.28846547
144	0x3faef2ce	1.3667848
145	0x3f4033e3	0.7507917
146	0xbdfba236	-0.12286799
147	0xbf9ee896	-1.241473
148	0x3f15833e	0.58403385
149	0xbefda62c	-0.49540842
150	0xbd247dd0	-0.040159047
151	0x3f1f4cae	0.6222638
152	0x3f0c40d8	0.54786444
153	0xc01e72c2	-2.4757543
154	0xbf49edf5	-0.7887872
155	0xbf387d23	-0.72065943
156	0xbf2a15dd	-0.6643961
157	0xbf85f1a9	-1.0464374
158	0xbdd64317	-0.10462015
159	0xbef722b6	-0.4826867
160	0xbe08927d	-0.13337131
161	0x3f62bddb	0.88570946
162	0x3fb9e868	1.452405
163	0x3f22d224	0.636019
164	0xbf3d8c02	-0.7404176
165	0x3f2c38fd	0.6727446
166	0xbf630d4b	-0.8869216
167	0x3fdf1bf0	1.7430401
168	0xbf982695	-1.1886774
169	0x3e2ded8b	0.16985147
170	0xbf94c024	-1.1621137
171	0xbef26f88	-0.47350717
172	0x3ea75b54	0.32686865
173	0x3fb8d7d4	1.4440866
174	0x3f4d8c45	0.8029216
175	0x3f70da33	0.94082946
176	0xbfa5f41f	-1.2965125
177	0xbe55c808	-0.20877087
178	0xbf4aa93c	-0.7916448
179	0x3f0abbdf	0.5419292
180	0xbf71653f	-0.94295114
181	0x3eee2c2a	0.4651807
182	0xbf2d629c	-0.6772859
183	0xbc1c14d5	-0.009526451
184	0xbd3754d4	-0.044758633
185	0x3e9999f6	0.30000275
186	0x3f72ef1b	0.94896096
187	0x3f286c33	0.657901
188	0xbf9a6dd4	-1.2064767
189	0x3e339563	0.17537455
190	0x3f3cf1f7	0.7380671
191	0xbf8db2dc	-1.1070209
192	0xbdef1985	-0.11674789
193	0xbf10984c	-0.56482387
194	0xbefc5e78	-0.49290824
195	0xbf4374fc	-0.7635038
196	0xbf425d2c	-0.7592342
197	0x3f36ad42	0.7135812
198	0x3f1bb1b3	0.6081802
199	0x3fab8c8c	1.3402267
200	0x3f3e7975	0.7440408
201	0x3f7ac769	0.97960526
202	0xc04978f4	-3.1480074
203	0x3fbc8d6b	1.4730657
204	0xbfafb680	-1.372757
205	0xbfb3e082	-1.4052889
206	0xbf819916	-1.0124843
207	0xbf21d438	-0.63214445
208	0xbf818199	-1.0117675
209	0xbf08bb3e	-0.5341071
210	0xbe83b2b4	-0.25722277
211	0x3f5939dd	0.8485392
212	0x3f5e85a8	0.86922693
213	0xbfb6a5eb	-1.4269384
214	0xbf8d021f	-1.1016272
215	0xbfc15faa	-1.5107319
216	0xbf698306	-0.9121555
217	0x3f726e8a	0.9469992
218	0xbe9cd061	-0.3062773
219	0xbfc58129	-1.5430042
220	0x3f106a10	0.5641184
221	0xbe46d469	-0.19416966
222	0xbf6f6c5e	-0.9352473
223	0x3fb79e8a	1.4345257
224	0xbf8c6e04	-1.0971074
225	0xbe84bb08	-0.25923944
226	0x3f27b54e	0.65511024
227	0x401b0f29	2.4228003
228	0x3fb3aa76	1.4036396
229	0x3f0d698b	0.5523917
230	0x3fb317bc	1.3991618
231	0xbf4ace35	-0.79220897
232	0xbf895c17	-1.0731229
233	0x3f29014c	0.66017604
234	0xbe22c276	-0.15894493
235	0xbf49a904	-0.7877352
236	0xbf55c5d5	-0.8350499
237	0x3fb868dc	1.4407
238	0xbd0e8237	-0.03479215
239	0xc0048498	-2.0705929
240	0x3fba53ed	1.4556862
241	0x3e4fd91e	0.20297667
242	0x3edb6234	0.4284836
243	0xbf4b6671	-0.7945319
244	0xbd51f4f3	-0.051258992
245	0xbf4ed596	-0.80794656
246	0x3efe037d	0.49612036
247	0x3fa5a4a7	1.2940873
248	0x3fb4443a	1.4083321
249	0x3f9b2139	1.2119514
250	0xbf6c0ff5	-0.9221185
251	0xbf49730c	-0.7869117
252	0xbf93454d	-1.1505524
253	0xbed39943	-0.41327867
254	0x3e00f099	0.1259178
255	0xbe87b802	-0.26507574
