palm_detection/pretrained_weights/depthwise_conv2d_30_Kernel.npy (npy, 9296 bytes, 1 tensors)

array f4 [1, 3, 3, 256]
00000000: 976e a83f 9439 18c0 864c e5be b664 9c3f
00000010: 400c ed3c dfe0 8f3f bd62 c33e 66f5 47bf
00000020: 1294 a6bf 965e 103f 3494 163e 4fb7 833e
00000030: 1daa 5ebf 9246 89bd 1409 87bf 7b50 1d3f
00000040: 45ee aebe b648 47bf 40a1 59be 6bf7 2bbf
00000050: 4587 4fbe 2512 943f 7802 6d3f d001 cdbe
00000060: 8342 0b3f e563 a03e 8426 013f eba2 a5bd
00000070: 3df3 8d3f 62e7 b2be cbb6 6fbe 4cc7 14bf
00000080: dc45 553f d22b 89bf 0d18 453e 01ec 8dbe
00000090: 872c 79bf 2773 38be f4ee 36bf b28d 33bf
000000a0: 0990 393e b2fe d53f 0614 75be c67a 7d3f
000000b0: 37b6 0140 98e1 eabe 76a5 f3be e974 99bf
000000c0: 9d91 b63e 60cc be3f 5dfc f23e e6d8 4c3f
000000d0: b76f a93f 2d2e 52bd 3b45 8b3f 8f7c 573f
000000e0: ede6 b9be be14 1bbf 6d64 0f3f 58bf e5be
000000f0: f7a0 1a3f ce84 ec3f 3f81 893f b53c 8dbf
00000100: 7469 16bd 12a2 69be 25fd 513e b2b3 da3d
00000110: fd50 06c0 844d 07bf 0f95 2c3f 5a01 86be
00000120: 9acf c73f 62c6 b93e 1d31 453f a9cc 8abe
00000130: bbc8 22bf 4e4e f0bd bf77 5cbf f64e 78bf
00000140: e32f 6bbf 93f0 bc3f bf70 2d3f 6432 4e3e
00000150: 1617 91bf dffa bdbf 29ce 1cbf 652e 573f
00000160: 9154 7cbf 7522 c53d 3219 26be c6b6 f83e
00000170: ceb1 3bbf eb97 883f fff1 91be bc91 863e
00000180: 3ecc bbbf bcd7 4f3f 41a7 493f 7683 01bf
00000190: cfd6 b63f 533b 753f 4f32 81bf 4a4a 263f
000001a0: f9c1 5cbf 32be 6fbe 7f38 843e 7c3e c0bf
000001b0: 4fe8 83bf 5ded 8e3f cdcb 203f ef97 7e3f
000001c0: cf72 7abf 8222 9e3e 333e 303f 2723 6ebf
000001d0: db29 953f 847c a2bd a826 3cbe 988b 85bd
000001e0: 60e5 7b3f ab50 e0be c32c 39bf c2de a63f
000001f0: ebe5 df3e 7c47 c0bf d047 e63d dc64 63bf
00000200: 5f58 0bbf e149 863f 0ed2 963f 58f3 bdbf
00000210: 048f 8bbf c0c6 323f ed7a b13f 321a ee3f
00000220: 47ac 913e 9a77 adbe ae1a 353f e855 a33e
00000230: 2922 c5bf 8865 843f abbb 93be a3d6 3dbf
00000240: 0eb2 c5bf a086 73bf f61b 96bf ea37 233f
00000250: ac98 63bf 3fdd 13c0 89cc 313c 5af7 d2be
00000260: 230d ac3f 26c3 2e3f cd04 9bbe d5d4 a53f
00000270: d8e4 64be ca36 a1bf cb27 af3f 4fe2 bfbf
00000280: 5854 02c0 527b 003f d656 523f 62d2 db3f
00000290: 00b3 fb3f fbd4 a93f 6be1 a0be bb24 d6bf
000002a0: a1db e33f dfaa c93f a8a8 cabf 9bf0 b1bd
000002b0: d850 c23f 83eb 3fbf f6f7 ba3e 8d75 56bd
000002c0: 2459 19bf 8067 90bd bb12 d7be fe4c 7b3f
000002d0: 5d58 403f 6fb0 de3e 019a c73f f5ab 0140
000002e0: 05cb 363f 9b1d d2bc e7c3 603f 7003 483e
000002f0: b715 d2bf c03f 913f 807e ce3f 8a92 0b3d
00000300: a182 923e 6ed0 91bf 98b2 ee3e 4256 1f3d
00000310: 3ad2 2d40 268b 013f 1733 7cbe 52c6 5cbf
00000320: 6f95 c3bf ec1f 563f 160b acbf e92a 4e40
00000330: f50e 6f3b 6fbc 223f cfec 423d d08d 49bf
00000340: a151 dc3f 8f45 11bf da1a f83f 6c9b 09c0
00000350: 5f22 143e 6993 b43f f87a 863f 8bf3 4fbf
00000360: 8b7d 8ebf 1d99 b9be da5f d4bf 0907 863e
00000370: 497a 0540 1e85 d03f 1f38 fb3c b2e9 ea3f
00000380: 312a c7bf 6568 2d3e 593f dabe 790b 22bf
00000390: fc42 90be 2aa8 fe3e 0ed7 d1be de7e 0b3f
000003a0: ae2c 683f 97e4 cbbe 2075 9dbe 8494 8d3f
000003b0: 7845 753f 5987 4e3f d836 4c3f 3190 80bf
000003c0: 2af7 aa3f f216 113e 1792 fdbf 4a2e 73bf
000003d0: 5fcc ffbd 80d4 e43f 7ca7 fbbe d35e 7f3f
000003e0: 74c2 53bf 9a0c 673e 4c79 333f 1b84 483f
000003f0: a843 d5bf e8d4 9f3e 49dc f83f e0eb 9ebf
1.3158749 -2.3785143 -0.44784945 1.2218235 0.028936505 1.12405 0.3816127 -0.78108823
-1.3013937 0.56394327 0.14704973 0.2572579 -0.8697832 -0.06702913 -1.0549645 0.6145093
-0.3416616 -0.77845323 -0.21252918 -0.67174405 -0.20266445 1.1568037 0.9258189 -0.40040445
0.54398364 0.31326213 0.50449395 -0.08087715 1.1089855 -0.34942156 -0.23409574 -0.581166
0.8330972 -1.0716498 0.19247456 -0.2771912 -0.9733357 -0.18012677 -0.71458364 -0.70138085
0.18121351 1.6718352 -0.2393342 0.9901546 2.0267465 -0.4587524 -0.47587174 -1.1988803
0.3565797 1.490612 0.47458163 0.8001846 1.3237218 -0.051313568 1.0880502 0.84174436
-0.36308995 -0.60578525 0.5601261 -0.44872546 0.6040186 1.8478029 1.0742568 -1.1034151
-0.03672166 -0.22815731 0.20506723 0.106788054 -2.0986931 -0.52852654 0.67414945 -0.26172906
1.561023 0.36284167 0.77028066 -0.27109268 -0.6358754 -0.117336854 -0.8612022 -0.96995485
-0.91869944 1.4760917 0.6775016 0.2013641 -1.133517 -1.4842185 -0.61252075 0.8405517
-0.9856654 0.09625713 -0.16220549 0.48576945 -0.73318183 1.0671362 -0.2850494 0.26283062
-1.4671705 0.8118856 0.78770834 -0.5059122 1.4284304 0.95793647 -1.0093478 0.64957106
-0.8623348 -0.23412398 0.25824353 -1.5019069 -1.030527 1.1166188 0.62810975 0.9945058
-0.97831434 0.30885702 0.6884491 -0.9302239 1.1653398 -0.07933906 -0.18374121 -0.06520766
0.98396873 -0.43811545 -0.72333926 1.303673 0.437301 -1.5021815 0.11244166 -0.88825774
-0.5443172 1.0491296 1.1782854 -1.4839888 -1.090302 0.6983452 1.3865639 1.8601744
0.2845175 -0.3388031 0.70743835 0.3190148 -1.540105 1.0343485 -0.28854117 -0.74155635
-1.5444963 -0.95127296 -1.1727283 0.63757193 -0.88904834 -2.3103788 0.010851988 -0.4120434
1.3441509 0.6826652 -0.302771 1.2955576 -0.22352922 -1.2594845 1.3684019 -1.4990939
-2.036398 0.5018817 0.8216375 1.7173579 1.9664001 1.3268121 -0.3142198 -1.6729959
1.78014 1.5755271 -1.583272 -0.0868847 1.5180922 -0.7496874 0.36517304 -0.0523582
-0.5990164 -0.07050991 -0.42006478 0.98164356 0.7513483 0.43493983 1.5593873 2.0261204
0.71403533 -0.025648883 0.87798923 0.19532561 -1.6412877 1.134758 1.6132355 0.034075297
0.28615287 -1.1391733 0.4662063 0.03890062 2.7159562 0.5060295 -0.24628864 -0.8624011
-1.5279979 0.8364246 -1.3440883 3.221369 0.003647742 0.63568777 0.04758912 -0.78732014
1.7212411 -0.56746763 1.9383194 -2.1501112 0.14466237 1.4107486 1.0506277 -0.8123099
-1.1132063 -0.3624963 -1.6591752 0.26177242 2.0855887 1.6290624 0.030666409 1.8352568
-1.5559751 0.16934355 -0.42626455 -0.63298756 -0.28176105 0.49737674 -0.40984386 0.5449046
0.90693176 -0.39822838 -0.30753422 1.1060948 0.95809126 0.80675274 0.79771185 -1.0044004
1.3356678 0.14168909 -1.9810208 -0.94992507 -0.124901526 1.787735 -0.49151218 0.99754065
-0.82718587 0.22563401 0.7010696 0.78326577 -1.6661272 0.31217122 1.9442226 -1.2415733
