palm_detection/pretrained_weights/depthwise_conv2d_25_Kernel.npy (npy, 9296 bytes, 1 tensors)

array f4 [1, 3, 3, 256]
-0.73238003 -1.6967462 1.4430355 -0.6908517 -0.121530645 0.39542365 -0.5365472 -0.45596138
1.879642 -0.7095754 0.66400886 -0.9274882 0.4235023 -0.3116402 -0.69159454 1.3639207
0.37447196 -0.27395132 -0.36528683 1.1634263 0.43008667 0.040226795 -0.93924665 0.5410412
-0.44187343 -0.5182689 -1.1480471 0.1084982 -0.8878546 1.2168939 -0.38996926 -0.96367127
-0.9499753 0.754242 -1.9678093 0.50072485 -0.17762466 -0.7013888 0.7893579 1.1383396
0.78279364 1.3147899 -1.2542787 1.2259077 1.9210111 0.5375323 1.8078974 0.093509644
-0.35349098 0.089380324 1.3055272 -0.6644431 -1.2372959 -0.8564427 0.68028384 0.23447675
-0.69469696 -0.9789973 0.7876484 -0.7218164 -0.46047774 -0.011391265 -0.61685926 -1.8479398
-0.9589469 -0.22576997 0.43267652 0.009047643 -1.2411631 -0.3434544 -0.072577305 0.63310957
-1.3799452 0.7470029 -0.93515754 -0.48830894 -1.5405768 -0.34377602 0.2870762 0.95285743
0.028102508 0.6232723 -1.468547 -0.54204214 -0.1716532 0.66748154 -0.95193565 -1.3344848
0.91662365 -0.114707164 -0.8416503 -0.55220866 -1.2377704 0.18059278 1.6281053 1.1388779
1.1771799 -1.2411399 0.35064575 -2.1264 1.531617 -0.27854347 0.66005445 -2.0361352
0.6557444 0.7950535 -0.18890512 -0.17958811 1.3647256 -0.200307 -0.0211554 -2.0376163
-1.3102514 -0.3586051 -0.98123497 -1.313566 0.8197115 -0.9147126 0.63465536 1.6163812
0.92503387 0.33079925 0.37435114 -0.88387585 -0.40569434 -1.212088 0.7141982 0.0918971
2.2372992 -2.3833342 0.3991547 -0.62013745 -0.50013304 0.91960704 -2.553691 -1.8900032
0.16449423 0.5006628 0.7018512 -1.8489228 0.011648952 0.9503646 1.7361887 1.1337262
-0.7488102 -0.30854344 0.36343274 1.7032818 -1.5202905 2.2128234 -0.0835611 0.5344779
-0.6584022 -0.17823888 -0.5732348 0.6732526 -2.037805 2.313951 -0.50147337 -0.118888244
-1.3541212 0.61759245 -1.0582626 -1.1299623 1.3796705 0.22606052 0.27215093 0.737207
0.7845389 -0.8692241 0.13868429 -0.8875523 0.6132555 -0.9323023 2.1203747 0.2851071
0.45738298 1.533026 -0.973456 -0.45692557 2.232511 -0.17730083 -0.6891012 0.2659641
1.196003 -0.6582589 0.26062074 -1.1564274 -0.7503273 -1.6906625 -1.2952039 0.01570448
1.937257 -0.06586627 -1.5140811 1.5265265 1.2138069 -0.7511108 0.24745294 -0.3190238
-0.41713428 0.3487968 -0.29205906 1.1209196 -0.7667089 0.47088152 -2.2799666 -0.42325106
0.05794086 -1.5091588 -0.40880588 1.9726177 -1.6483229 -0.55553657 1.7854818 -0.07429147
-1.0236896 0.16435023 -1.5997689 0.35474968 -2.0049086 -0.61144507 2.087903 1.1764646
1.2966452 -0.73805165 -0.59223354 -1.4333155 0.99580145 0.3607477 -1.0578305 1.0063467
-0.09368148 -0.93886924 0.45119628 -1.4037378 -1.2675482 0.6447077 1.5873144 0.3575391
2.0578132 0.7473439 -2.3354475 -0.84573317 -0.6685797 -0.82433105 0.7976101 -0.45554286
-2.457607 -0.005409177 1.9390763 -0.018878652 -0.282607 0.19693121 -0.57305396 1.2529491
00000000: 427d 3bbf fb2e d9bf 63b5 b83f a8db 30bf
00000010: 0fe5 f8bd f874 ca3e 285b 09bf c573 e9be
00000020: 1c98 f03f bca6 35bf 7cfc 293f de6f 6dbf
00000030: 4bd5 d83e 4e8f 9fbe 570c 31bf f494 ae3f
00000040: caba bf3e 5943 8cbe e006 bbbe 27eb 943f
00000050: 5234 dc3e dac4 243d 7872 70bf ad81 0a3f
00000060: 3c3d e2be 45ad 04bf 35f3 92bf 4e34 de3d
00000070: 704a 63bf 2ec3 9b3f 0daa c7be 29b3 76bf
00000080: 9531 73bf 0116 413f 2de1 fbbf 812f 003f
00000090: 3de3 35be 378e 33bf 5c13 4a3f 1db5 913f
000000a0: 2a65 483f 094b a83f 348c a0bf 8bea 9c3f
000000b0: b1e3 f53f b89b 093f 2f69 e73f fc81 bf3d
000000c0: c5fc b4be 080d b73d 841b a73f f118 2abf
000000d0: b65f 9ebf d43f 5bbf 1527 2e3f ac1a 703e
000000e0: a9d7 31bf 919f 7abf 53a3 493f f6c8 38bf
000000f0: bdc3 ebbe 6ea2 3abc 7dea 1dbf 4b89 ecbf
00000100: 8b7d 75bf 3e30 67be c787 dd3e 913c 143c
00000110: 6fde 9ebf 41d9 afbe 69a3 94bd 7813 223f
00000120: 0ba2 b0bf 953b 3f3f 7c66 6fbf a103 fabe
00000130: 9f31 c5bf 6903 b0be a7fb 923e 77ee 733f
00000140: 3b37 e63c c68e 1f3f 59f9 bbbf 46c3 0abf
00000150: dbc5 2fbe 12e0 2a3f 0eb2 73bf 66d0 aabf
00000160: d9a7 6a3f 97eb eabd 6576 57bf 8c5d 0dbf
00000170: 436f 9ebf 50ed 383e c165 d03f c0c6 913f
00000180: d5ad 963f acdd 9ebf d787 b33e f016 08c0
00000190: 070c c43f 409d 8ebe 54f9 283f 0a50 02c0
000001a0: ddde 273f a088 4b3f 5870 41be f2e5 37be
000001b0: 54af ae3f 471d 4dbe 174e adbc 4e68 02c0
000001c0: 51b6 a7bf 169b b7be 3732 7bbf ee22 a8bf
000001d0: 9dd8 513f 9b2a 6abf c678 223f 94e5 ce3f
000001e0: 05cf 6c3f 855e a93e f4aa bf3e b045 62bf
000001f0: 2bb7 cfbe b325 9bbf b1d5 363f 8c34 bc3d
00000200: e92f 0f40 8c88 18c0 015e cc3e 54c1 1ebf
00000210: b808 00bf 5e6b 6b3f ac6f 23c0 a0eb f1bf
00000220: 2d71 283e 702b 003f 85ac 333f 81a9 ecbf
00000230: 3fdb 3e3c 184b 733f 6e3b de3f f11d 913f
00000240: 06b2 3fbf 68f9 9dbe db13 ba3e 2305 da3f
00000250: e198 c2bf e69e 0d40 1522 abbd 8bd3 083f
00000260: 0c8d 28bf 4184 36be 84bf 12bf 485a 2c3f
00000270: 666b 02c0 c617 1440 8f60 00bf ae7b f3bd
00000280: d853 adbf 8a1a 1e3f 2675 87bf 9ba2 90bf
00000290: 0b99 b03f 697c 673e 5e57 8b3e 99b9 3c3f
000002a0: 8bd7 483f 7885 5ebf 4103 0e3e a136 63bf
000002b0: 50fe 1c3f 5dab 6ebf 38b4 0740 8ff9 913e
000002c0: 1a2e ea3e 323a c43f 6a34 79bf 26f2 e9be
000002d0: 76e1 0e40 598e 35be f068 30bf 722c 883e
000002e0: a016 993f a883 28bf 1570 853e d005 94bf
000002f0: 7315 40bf a167 d8bf 3ec9 a5bf afa6 803c
00000300: 0af8 f73f e5e4 86bd 69cd c1bf 3865 c33f
00000310: 065e 9b3f cc48 40bf 4e64 7d3e 1657 a3be
00000320: a092 d5be 7f95 b23e c488 95be 4b7a 8f3f
00000330: 0947 44bf 6217 f13e f9ea 11c0 5db4 d8be
00000340: 6553 6d3d 1e2c c1bf 014f d1be bd7e fc3f
00000350: 3ffc d2bf a537 0ebf ab8a e43f 2026 98bd
00000360: 4308 83bf 6d4b 283e 3ac5 ccbf c0a1 b53e
00000370: 6c50 00c0 aa87 1cbf 34a0 0540 6496 963f
00000380: 78f8 a53f f4f0 3cbf 9e9c 17bf e276 b7bf
00000390: d8ec 7e3f ecb3 b83e fd66 87bf f8cf 803f
000003a0: 13dc bfbd bc59 70bf 3303 e73e aead b3bf
000003b0: 053f a2bf 900b 253f 1e2d cb3f 5d0f b73e
000003c0: 36b3 0340 ee51 3f3f f977 15c0 f881 58bf
000003d0: 0a28 2bbf 5c07 53bf 2d30 4c3f ea3c e9be
000003e0: 6f49 1dc0 773f b1bb a733 f83f 67a7 9abc
000003f0: ddb1 90be 56a8 493e aab3 12bf a360 a03f
