palm_detection/pretrained_weights/regressor_32_Kernel.npy (npy, 110688 bytes, 1 tensors)

array f4 [108, 1, 1, 256]
000000 0d ad de be d4 ca 6f 3e 28 c3 b4 3d 00 0a 8f be
       -0.43491402 0.23417217 0.088262856 -0.27937317
000010 73 be 69 3e b2 47 41 bd fa 82 04 3e cb 79 e5 3c
       0.22826557 -0.047187515 0.12940589 0.028012177
000020 c4 31 ee be 05 09 25 3e 36 a1 6e 3d 0c 45 f5 bd
       -0.46522343 0.16116722 0.05825921 -0.1197606
000030 4d c9 5d 3e ad bf 4f 3e 8a 3f 3b be 10 ab 74 3d
       0.21658821 0.20287962 -0.18285957 0.05973345
000040 32 c5 7c bd 86 05 69 be e5 3b 4b 3d ad 61 db 3d
       -0.061711498 -0.22756013 0.049617667 0.107119896
000050 fe ce b4 3c 50 c6 83 3e 41 80 0b 3f be ae b5 3d
       0.022071358 0.25737238 0.54492575 0.0887122
000060 0f 6d 11 3e 0c d4 bd 3d 2e a4 cc 3d 52 3f 63 bc
       0.14201759 0.0926896 0.09992252 -0.013870077
000070 12 a8 17 be 0e 09 9a 3b 68 d6 20 bc 64 26 bc 3d
       -0.14810207 0.0047007864 -0.009816743 0.0918701
000080 04 61 c3 bd f6 a9 c9 be 50 40 af 3d f2 e0 02 bd
       -0.09539989 -0.39387482 0.085571885 -0.031952806
000090 c6 11 b0 3e b6 04 32 3e f2 ca fc bd 4a b0 e2 3d
       0.3438856 0.1738461 -0.12343396 0.11068781
0000a0 5b 85 22 be a1 00 0d 3e 60 df 87 be a6 5d 50 3e
       -0.15871184 0.13769771 -0.2653761 0.20348224
0000b0 d0 f7 82 be 07 c4 a2 3d aa dd 18 3e 79 ce 34 bd
       -0.2557969 0.079475455 0.14928308 -0.04414222
0000c0 7f 7f 6c 3d c3 ac 90 be fc 90 5c 3e a9 59 7d 3e
       0.057738777 -0.28256807 0.21539682 0.24741234
0000d0 d3 f6 11 bd 80 63 bb 3d a2 ca 4a 3d 6e ca 22 be
       -0.03563578 0.091498375 0.049509652 -0.15897533
0000e0 8f 2f 66 3d 2b 92 2b bd f5 81 91 be 37 c4 a2 3e
       0.0561977 -0.041887444 -0.28419462 0.31790325
0000f0 aa ac 7b be a5 6c 62 be 99 28 02 bd c8 f4 ae 3d
       -0.24577585 -0.22111757 -0.031777 0.08542782
000100 e7 37 b8 3d 1e da 38 3e 95 c7 18 3e 19 da 2b 3e
       0.089950375 0.18051955 0.14919885 0.16782416
000110 a5 46 25 3e 8f 68 15 bd e8 04 51 be 4e 0c 18 3b
       0.1614023 -0.036476668 -0.20412028 0.0023200694
000120 41 3c e3 be 82 37 60 3e 16 34 30 3c 9c 42 54 be
       -0.44381908 0.21896175 0.010754606 -0.20728534
000130 02 a7 b0 37 cd 5e 00 3c 91 7c 8b 3d ec da 2c be
       2.1058604e-05 0.007835102 0.068108685 -0.16880387
000140 8c c4 28 bd 46 1d 8d bd 33 4d 1b bd a2 da 5b be
       -0.041203067 -0.06890349 -0.03791542 -0.2147012
000150 8e 90 cf 3e b8 d0 73 3d b9 e5 b0 3e cf ca 0e bc
       0.40539974 0.05952522 0.34550264 -0.0087153455
000160 fb 57 9a 3d 6e 8c 05 3e aa f9 db 3d da 12 3b 3d
       0.07536312 0.13041851 0.10740979 0.045672275
000170 6d 4d 1c be 9c f3 13 be b1 02 7c be 59 4f 83 be
       -0.1526391 -0.14448398 -0.24610402 -0.25646475
000180 46 55 0b bf 93 d3 ec 3d 64 89 76 be 1c 76 d5 be
       -0.5442699 0.11563792 -0.24075848 -0.41691673
000190 57 ce f3 bd 18 27 54 be d5 14 99 bb 6a ba 16 be
       -0.119045906 -0.20718038 -0.004671673 -0.14719549
0001a0 a1 7b 87 bd 46 30 e3 3d 0f 01 70 3e 86 98 08 3e
       -0.06615377 0.11093192 0.23437904 0.13339433
0001b0 2e 3c 39 bc 0f b9 f2 3e af d6 ee bd 71 8a 16 bd
       -0.011305852 0.47406814 -0.116620414 -0.03675312
0001c0 10 87 04 3e 03 0d 03 3e a9 85 78 3e ec 4c 9a be
       0.12942147 0.12797932 0.24269737 -0.30136812
0001d0 05 7a b6 bc c6 1e fe 3c f0 82 f5 3d 37 0c 26 3e
       -0.02227498 0.031020533 0.11987865 0.16215597
0001e0 61 84 e2 bd d2 ba db 3d 89 c2 7c be 11 75 68 be
       -0.110604055 0.107289925 -0.24683584 -0.22700907
0001f0 85 af 7e bd c5 25 c4 3e c2 2a b7 be 31 aa 5e be
       -0.062179107 0.38310066 -0.3577481 -0.2174461
000200 41 6c 09 be e2 f1 3f bd 2f 58 05 bf 83 fb ec 3c
       -0.13420202 -0.046861537 -0.5208768 0.028928524
000210 50 5f da bd 81 19 86 3e 48 99 0d 3e f6 07 2d 3d
       -0.10662711 0.26191333 0.13828003 0.04224392
000220 5a d1 7f 3e 1a fa 62 3e 2b a5 95 be e5 d0 88 3e
       0.24982205 0.22165719 -0.29227576 0.26721874
000230 4d 45 01 3e 64 a2 57 be 8d 7e e8 3c b8 67 a9 3d
       0.12624092 -0.21058041 0.028380657 0.08271736
000240 6e ea e0 bd 6c 6a 00 bf 62 3e 3f 3e c2 cb e2 3d
       -0.10982214 -0.50162387 0.18676141 0.1107402
000250 f2 2d 7c 3d ae ff 4d 3e 8a d1 b0 3e 78 00 4d 3e
       0.061567254 0.20117065 0.34534866 0.2001971
000260 4c c3 88 bc 85 d1 ee 3d 6d 9b cc 3d 08 12 44 be
       -0.016694687 0.116610564 0.099905826 -0.19147503
000270 e0 0d 88 bd a8 d4 1e be 26 74 02 3e 0b b1 06 3e
       -0.066432714 -0.1551081 0.1273962 0.13153474
000280 ab f8 21 be b1 3a 81 3e ce 03 e5 3d ab e0 42 be
       -0.15817516 0.2524009 0.11182366 -0.19031017
000290 0a b8 83 be 70 12 b9 be e0 c6 41 3e ac 80 8c 3d
       -0.25726348 -0.3614688 0.18923521 0.0686048
0002a0 3f 70 f2 3e 8b 83 a7 3e 1c 39 87 3c 8d ff 42 3e
       0.47351262 0.32717547 0.016506724 0.19042797
0002b0 67 8e 45 3b 18 6d 1a bc f1 63 32 3e 7a dc 8f bd
       0.0030144693 -0.009425424 0.17420937 -0.070244744
0002c0 37 ba 93 be c2 44 3d 3e 92 2b 40 3d 03 9f 81 3e
       -0.28853008 0.1848326 0.046916552 0.2531663
0002d0 a8 71 14 be 13 ad 8b 3e d6 d3 7f 3e 35 f2 cf bd
       -0.14496481 0.27280483 0.24983153 -0.10153619
0002e0 75 8d 1e bf 1c 21 bd 3d 26 e5 d2 bc a5 e9 46 be
       -0.61934596 0.09234831 -0.025744032 -0.19425066
0002f0 57 e0 9d be 6a af d4 bd 8e 6e e2 bd a3 a7 5c be
       -0.3083522 -0.1038502 -0.11056243 -0.21548323
000300 3e 12 bb be 50 31 0e be 76 ba 85 3e 10 a2 a5 3c
       -0.36537355 -0.13885999 0.2611882 0.020218879
000310 dc b2 b2 3b 8b da 86 3d 6c 6d ae be 8f 22 85 be
       0.0054534506 0.065846525 -0.34067857 -0.2600293
000320 cf 74 05 bf c8 f3 86 3e 2b 56 fa 3d 8b 04 8f bd
       -0.5213136 0.26357865 0.122234665 -0.069832884
000330 d8 48 55 be f9 90 9f 3d 82 7e d1 be bf 32 ba 3d
       -0.20828569 0.07791323 -0.4091683 0.0909171
000340 16 ef 90 3d 8e ee 0d 3f 18 48 ac 3e 87 4f c4 bd
       0.07076852 0.5544213 0.33648753 -0.09585481
000350 d2 33 26 3e bf 2f b4 bd 7c 31 8c 3d 04 4c d9 bd
       0.16230705 -0.08798169 0.06845376 -0.10610202
000360 12 f8 f1 3d 8c 4c 61 3e 2f 1f 70 3d 52 64 fc 3d
       0.11814894 0.22001857 0.05862349 0.12323822
000370 d6 0b 9d bd 32 5f e9 3b 18 a0 76 be 23 61 9d bd
       -0.07668273 0.007121944 -0.24084508 -0.07684543
000380 84 07 0d bd 0c 3b fe bc 8f 04 f9 bd d6 07 27 3e
       -0.034430996 -0.031034015 -0.121590726 0.16311583
000390 d5 7b 73 3e 26 03 a2 3d f3 41 b8 3e f1 ce 1b be
       0.23777707 0.07910757 0.35987815 -0.1521566
0003a0 75 d8 5a 3e 24 82 98 be 14 da ce 3c 97 25 4a 3e
       0.21371634 -0.2978679 0.025250472 0.19740902
0003b0 d9 69 7c be 71 5a 1b bd 32 23 16 be cb 79 ae 3c
       -0.24649753 -0.03792805 -0.14661863 0.02129831
0003c0 44 6f db bc 45 70 c6 3e 7e a3 82 bd d5 b2 28 3e
       -0.026786454 0.3875753 -0.0637884 0.16474469
0003d0 17 66 36 be fb 84 34 bd fd ad 0d 3e 22 f1 f6 3d
       -0.17812382 -0.044072133 0.13835903 0.12057711
0003e0 7e 8b 65 be d9 02 b4 3e 2a 1e a9 3e 2b ed b1 3d
       -0.22416493 0.35158423 0.33030826 0.08687814
0003f0 d5 ae 08 bf 16 99 f5 3d 7f 80 99 bd 11 93 2a be
       -0.5339177 0.119920895 -0.07495212 -0.16657664
