palm_detection/pretrained_weights/regressor_16_Kernel.npy (npy, 36944 bytes, 1 tensors)

array f4 [36, 1, 1, 256]
0	0x3d3bdfee	0.045867853
1	0x3dcb9563	0.09940603
2	0xbe011ba3	-0.12608199
3	0xbd87fda4	-0.06640175
4	0xbe89d1fb	-0.26918015
5	0x3c35a61d	0.011086968
6	0x3da0c9e1	0.07851005
7	0x3e22dc26	0.15904292
8	0xbdee7dc3	-0.11645081
9	0x3ddd7f0d	0.10815249
10	0x3d6e7e8f	0.058226164
11	0xbd407bdd	-0.046993125
12	0x3e14fdea	0.14549986
13	0xbdb7c42b	-0.08972963
14	0xbe2451b4	-0.16046792
15	0xbce06fcf	-0.027397064
16	0x3cb7099d	0.022343451
17	0x3d537600	0.051626205
18	0xbcdbc9ab	-0.026829561
19	0xbe0c1f83	-0.13683896
20	0x3be90e31	0.0071122875
21	0x3caf18ce	0.021374132
22	0x3e4bfc76	0.19920525
23	0x3cf7f11d	0.030266339
24	0x3d911f8a	0.07086094
25	0x3dd00adc	0.10158321
26	0x3e32a95e	0.17447421
27	0x3d880989	0.06642444
28	0x3db2d24f	0.087315194
29	0xbdeee478	-0.11664671
30	0xbdfad0a8	-0.12246829
31	0x3d951c1a	0.072807506
32	0xbdb32fc2	-0.087493435
33	0xbe7aefe8	-0.2450558
34	0xbdc2467d	-0.09486101
35	0xbb0b9f76	-0.0021304763
36	0xbd988df4	-0.074489504
37	0xbd9c713c	-0.07638785
38	0xbe0bb862	-0.13644555
39	0x3d4e0e62	0.050306685
40	0xbdbbefa7	-0.091765694
41	0xbe047166	-0.12933883
42	0x3d52f604	0.05150415
43	0x3e391fa3	0.18078475
44	0xbe1afb3d	-0.15134902
45	0x3e2363fe	0.15956113
46	0xbbaa2968	-0.0051929243
47	0x3e31e303	0.17371754
48	0x3c5ab57b	0.013348932
49	0xbca6acea	-0.020346124
50	0x3e95824c	0.2920097
51	0x3df83f2c	0.12121424
52	0xbda571b8	-0.08078331
53	0x3d78f52b	0.060780685
54	0x3cd748f7	0.02627991
55	0xbd86af6a	-0.06576426
56	0x3d193c13	0.037410807
57	0xbe6f0ba7	-0.23344289
58	0xbe1eb652	-0.15499237
59	0xbcf349af	-0.029698221
60	0xbd9329b8	-0.071856916
61	0xbe8a59d8	-0.2702167
62	0x3da8ddc1	0.08245421
63	0x3e37ed00	0.17961502
64	0x3c6b34fa	0.014355892
65	0x3d9835f6	0.07432167
66	0xbc34ea0b	-0.011042128
67	0xbca4ac51	-0.020101698
68	0xbd1c8952	-0.038216896
69	0xbe64700c	-0.22308367
70	0x3d94360a	0.0723687
71	0x3abeb6b1	0.0014550296
72	0xbd5aa0c4	-0.053375974
73	0x3dd4f12a	0.10397561
74	0xbdf02e1e	-0.11727546
75	0xbebeed79	-0.37290552
76	0x3d754a60	0.059885383
77	0x3e001348	0.12507355
78	0xbda62c9e	-0.08113979
79	0xbe3247ed	-0.1741025
80	0xbd1289c5	-0.03577592
81	0xbe82c0c2	-0.25537688
82	0xbc86d0d8	-0.016457006
83	0xbd93de12	-0.07220091
84	0x3db5e66f	0.08881842
85	0x3ddc520b	0.10757836
86	0x3e29870f	0.16555427
87	0xbcaa5af6	-0.020795327
88	0x3d6c9074	0.05775495
89	0x3e0b5140	0.13605213
90	0x3e52f5c9	0.20601572
91	0x3dfb238c	0.122626394
92	0xbe73d92a	-0.2381331
93	0xbd9efce9	-0.077630825
94	0xbd9790b9	-0.074006505
95	0x3c30f791	0.010801212
96	0xbe3c5623	-0.18392234
97	0x3d8df040	0.0693059
98	0xbe0cc77a	-0.1374797
99	0x3bdc40e3	0.0067216023
100	0xbd2e5fcb	-0.042571824
101	0xbdc7ed93	-0.097621106
102	0xbe15584b	-0.14584462
103	0xbe73b6c1	-0.23800184
104	0x3d47409e	0.048645608
105	0xbe89439e	-0.268094
106	0x3db3f56e	0.087870464
107	0x3e5f1b80	0.21787834
108	0xbd7730e5	-0.060349364
109	0x3eeba786	0.46026248
110	0xbe4764e5	-0.19472082
111	0x3db2b150	0.08725226
112	0x3d820fa6	0.06350641
113	0x3d5536ed	0.052054334
114	0xbdf93b5d	-0.12169526
115	0x3dddfac5	0.10838846
116	0x3e28ac4e	0.16471979
117	0xbda3ecb8	-0.08004135
118	0x3d5fda5a	0.054651596
119	0x3cbed9ef	0.023297278
120	0xbe577f2f	-0.2104461
121	0x3e12e469	0.14344944
122	0x3c2b8397	0.010468385
123	0xbc63eac7	-0.013910956
124	0x3d856fe4	0.06515482
125	0x3c26f6bc	0.010190662
126	0xbdda6ae2	-0.106649175
127	0x3e5b200b	0.21398942
128	0xbe04d97c	-0.12973589
129	0xbc4c48f8	-0.012468569
130	0xbeb8d797	-0.36101982
131	0x3d95cc0d	0.0731431
132	0xbe0a1829	-0.13485779
133	0x3ce8f277	0.028435929
134	0x3cc58cdc	0.024115019
135	0xbe649815	-0.2232364
136	0xbe1341f5	-0.1438063
137	0xbd9bce59	-0.07607717
138	0x3ce55912	0.027996574
139	0x3e36909b	0.178286
140	0x3c0b1cbe	0.008490739
141	0xbe542fa1	-0.20721294
142	0xbe418a14	-0.18900329
143	0x3d87980e	0.06620799
144	0xbe95c0b0	-0.2924857
145	0xbd937e6c	-0.072018474
146	0x3d4af74a	0.04955224
147	0x3ec30493	0.38089427
148	0x3ebe0743	0.37114915
149	0x3c000691	0.007814066
150	0x3e13ff27	0.14452802
151	0xbb08059a	-0.0020755292
152	0x3ca6b760	0.020351112
153	0xbd91687a	-0.071000054
154	0x3dc3e08b	0.095643125
155	0xbe2275d5	-0.15865262
156	0xbcad1874	-0.021129824
157	0xbdd3dd92	-0.103449956
158	0xbcc3c6a6	-0.023898434
159	0x3ed2f27f	0.41200635
160	0x3c4d24a8	0.012520947
161	0x3d656094	0.056000307
162	0x3de6e90e	0.112749204
163	0xbcec2984	-0.02882839
164	0x3e71ac51	0.2360089
165	0x3d5c37e9	0.053764258
166	0xbe5de787	-0.21670352
167	0xbb00dd78	-0.0019663256
168	0x3e591fe6	0.21203575
169	0xbe455554	-0.19270831
170	0xbdac7bf1	-0.084220774
171	0x3dace155	0.08441416
172	0x3e05c6f7	0.1306418
173	0x3d85c8b4	0.06532422
174	0xbcf9aec4	-0.030478843
175	0xbd809186	-0.062777564
176	0x3dac493b	0.08412405
177	0x3e495bf5	0.19663985
178	0xbc00879d	-0.007844833
179	0xbf321904	-0.6956942
180	0xbbd0a499	-0.006367278
181	0x3e0de14b	0.13855474
182	0xbe3e73c8	-0.18598855
183	0x3b9f5a52	0.004863062
184	0x3db13d04	0.08654216
185	0x3c924920	0.017857134
186	0x3eb368c4	0.35040867
187	0xbdc50d66	-0.09621696
188	0xbe243b20	-0.1603818
189	0xbca38d38	-0.0199648
190	0xbd9d0a30	-0.07667959
191	0xbd871d93	-0.06597438
192	0xbd006c54	-0.03135331
193	0x3d3dc6e0	0.04633224
194	0x3e12e21b	0.14344065
195	0x3e06d30a	0.13166443
196	0x3e29b319	0.16572227
197	0x3e9f32be	0.310934
198	0x3e48ca85	0.19608505
199	0x3d761c51	0.0600856
200	0x3ea1d544	0.3160802
201	0x3d0ab054	0.033859566
202	0xbcd12d2d	-0.025534237
203	0x3bdeefaf	0.006803475
204	0xbd6ab7c6	-0.057304166
205	0xbe2b0c2e	-0.16703865
206	0xbe1aafa2	-0.15106061
207	0x3ddb506e	0.107087
208	0x3af183c0	0.0018426105
209	0x3e20b12c	0.15692586
210	0x3d229d60	0.039700866
211	0x3d084572	0.033269353
212	0x3cba795c	0.022762947
213	0xbe0987cd	-0.1343071
214	0x3d7e6cc2	0.06211544
215	0xbde12abd	-0.1099448
216	0x3d7ae119	0.061249826
217	0xbd48cfd5	-0.04902633
218	0xbe6922c0	-0.22767162
219	0xbe07c022	-0.13256887
220	0xbd0c1de2	-0.034208186
221	0x3d8fb13e	0.07016228
222	0x3db7255a	0.08942671
223	0x3da297b0	0.07939088
224	0x3c278182	0.010223748
225	0xbce81ffe	-0.028335568
226	0xbe671048	-0.22564805
227	0x3dabde1a	0.08391972
228	0x3dde1317	0.10843485
229	0x3cc1552b	0.023600182
230	0x3e04fe97	0.12987743
231	0xbd7af8bc	-0.061272368
232	0x3e2d167e	0.16903111
233	0x3d37d62b	0.04488198
234	0xbbd55184	-0.0065099616
235	0xbd144ee4	-0.03620805
236	0xba9f6428	-0.0012160586
237	0xbdc4146f	-0.0957421
238	0xbe1ece79	-0.1550845
239	0xbd760aec	-0.06006901
240	0xbd6b8ecb	-0.057509225
241	0x3d5f7c5c	0.054561958
242	0xbe1dc3f8	-0.15406787
243	0x3d879241	0.066196926
244	0xbe26fc00	-0.16307068
245	0x3d4ce43a	0.05002234
246	0x3c0ebed5	0.00871249
247	0xbd6c7c8c	-0.057735965
248	0x3d9980f2	0.074952975
249	0x3f516676	0.8179697
250	0x3dc8e0c7	0.09808498
251	0xbdb2c076	-0.08728115
252	0x3bcaad09	0.006185178
253	0x3c4f023f	0.012634813
254	0x3e88e3a0	0.26736164
255	0xbb97272c	-0.004612824
