face_detection/mediapipe_models/face_detection_front_4channels.tflite (tflite, 424628 bytes, 70 tensors)

classificator_16/Conv2D_bias f4 [6]
00000000: 5133 153d a238 683b a551 8abe 559c 82be
00000010: d0e8 7fbe e43a 3bbe
0.036425892 0.0035434146 -0.27015415 -0.25509897 -0.24991155 -0.18284184

classificator_16/kernel f4 [6, 1, 1, 96]
00000000: d63a 2ebe a51e aabf 6deb d4bb 0495 e6bd
00000010: 7140 773d 18ae 2a3d d908 8f3d e860 bcbd
00000020: 810c ebbb 0a1e 70bd abec 2f3e b1be eb3a
00000030: 78a8 4d3d d3ce be3b b045 d3be fd16 f5bd
00000040: 188a 08be 55b1 333c ed84 823d 864f ffbd
00000050: 58a6 e4bd db61 6ebd 13bc 4f3d 9a8b ccbd
00000060: 42d6 90bd 0690 123d 7a1c 393d 6d27 fcbd
00000070: cce6 d3bd f230 bbbd e995 26bc bbfe 91be
00000080: ec95 19be 4d22 4ebe 1706 84be 8fb4 71be
00000090: 730e 203e 57ad 30bd edcb 063e 2ef3 023e
000000a0: f25e acbd e66d c63d b799 233e c9c0 3f3e
000000b0: 06c1 963e 6f67 47be 8be8 493e ee0d 773d
000000c0: 8354 e73b cc9a 793d feed 91bd 1c58 91bd
000000d0: 5c15 e83c 86cd 2bbe ae9e 70bc d4ee f3bc
000000e0: 3217 ae3d aacd 21be 6b6c f0bd 4275 d83d
000000f0: 3c1c 083e 1d51 70bf f040 26bd 6f4b 07be
00000100: 4ed3 9d3d 7529 6ebc 29a0 543d 13ed a6be
00000110: fb49 223e b410 1d3e 74f6 86bc 6265 a8bd
00000120: 5e1e ac3b 3003 983d 77ad 303d cdce c4be
00000130: 2910 c2bd e01b efbd 0e39 e93d d3d2 b2bd
00000140: 6eb8 b5be 804f 383e 0164 fa3c bc23 b1be
00000150: 822e b73d c4f7 a83e 51f7 523e d0f4 573d
00000160: a1ef 44bd 81ce 0c3e f722 1e3e a82c 15be
00000170: 7d7a 263e 2fab 193e 6e32 f93d 5a3b 0cbe
00000180: 13c1 06be 77c1 aabf c783 8e3d 7859 23be
00000190: bd69 2d3e 4cc5 87bd 857c 573d d700 09be
000001a0: db0d 42bd 6c6f a9bd bc35 1e3e 0588 643d
000001b0: 6396 d5bc f053 193d 16cc 0ebe 1289 d9bd
000001c0: eb9b efbd abe4 213c 6c91 a93d 458a 2bbe
000001d0: 7ef8 c4bc 80b1 17bd 69be c93d 0f98 e0bd
000001e0: b57a 92bd b665 093e d2b9 a53d da4d 34be
000001f0: b03e 983c ed7e d8bd a149 b3bd a0eb b8be
00000200: 997d 1abe 5062 26be 87b6 9bbe 3e8d 56be
00000210: a78d 123e 43d4 51bc 3c23 263d 7a93 e93d
00000220: eaa3 cebd 0dfd 73bd 189c 8f3e 9133 4e3e
00000230: 6e8d 543e 36e4 8fbe 949b 793e a09f c53d
00000240: 1470 5e3c 14c5 cf3d 6d12 b0bd 1781 e1bd
00000250: d5bc ea3d b431 e7bd c667 63bd 3273 8c3d
00000260: c3c0 6f3d bec6 0ebe 9be7 14be 4761 c53d
00000270: efe3 a5bc 8841 28bf c307 41bd 6d03 d2bc
00000280: 995a 27bd 34f0 8ebc d6f7 973d e492 18be
00000290: f826 f13d ad73 f33d 7881 aebe f5d7 eabd
000002a0: c991 323c a9a1 0a3d ce05 273d ceb2 833c
000002b0: 054a 23bd b1f6 f9bd 4f33 793c c8a0 9ebd
000002c0: 885b a9be 6430 153e 506a 0a3e 52ce 16be
000002d0: 0160 213e bc69 7c3e 6552 1ebd fb5e 2c3d
000002e0: 8e34 94bd 31e0 233e 854f 2f3e b5f1 913d
000002f0: 61e8 373e b2c3 4f3d 9008 c53c 027f 1e3e
00000300: 5039 bebd 8094 8abf 3917 803d 6042 55be
00000310: d0e8 623e 15b8 0cbe 19ab 9d3d 646c cebd
00000320: 16ca f0bd c1a0 afbd 61d2 183d e7ab cd3d
00000330: 6e91 84bd 654b b53d 16b3 c33d 9531 11be
00000340: ac8f fabd a9e3 55bd 1dca 9c3c 7dbb b7bd
00000350: d3c6 4c3c 1e59 6ebd 323a 3a3d f662 a2bd
00000360: 90e0 1f3d 0cd5 89bd 00cb be3d 53ec 99be
00000370: 8531 2a3e a3e5 0bbe dc9b a1bd 8de9 1bbe
00000380: 378b 52be 3c3a 513c 8176 69be cdd6 8fbd
00000390: 07b3 913d 8f31 b9bc ec24 843b 575d 9d3d
000003a0: b0e0 efbd d09b 53be 4327 913e 9fab 223e
000003b0: e32a 7bba 7be3 a8be f5c5 1b3e 7dd6 b73d
000003c0: 75be 6c3d f38a b53d 4c08 20be 8e6c 92bd
000003d0: a1ed 303e c56f 00be 8791 dcbd 01f5 e03c
000003e0: aa73 763c b59b 7cbd 3198 1cbe 402d f83c
000003f0: 2e1e 23be 6efb 1cbf 75a0 49bc 828e 923d
-0.17014632 -1.3290602 -0.0064977915 -0.11258891 0.06036419 0.041669935 0.069841094 -0.09198171
-0.0071731214 -0.058622397 0.17180125 0.0017985908 0.050209492 0.005822995 -0.41264105 -0.11967275
-0.13333929 0.010967572 0.0637301 -0.1246634 -0.1116454 -0.05819879 0.05071647 -0.099875644
-0.070721164 0.035781883 0.045193173 -0.12312207 -0.103467554 -0.09140195 -0.010167577 -0.28514656
-0.14998597 -0.20130272 -0.25785896 -0.23604034 0.15630512 -0.04313406 0.13163729 0.12788078
-0.08416547 0.0968893 0.15976606 0.18725885 0.2944414 -0.1947305 0.19717614 0.06031602
0.007059635 0.06093864 -0.071254715 -0.07096884 0.028330497 -0.1677762 -0.01468627 -0.029776968
0.08500518 -0.15801111 -0.11739429 0.1056924 0.1329202 -0.9387377 -0.040589273 -0.1321237
0.07706319 -0.014536251 0.051910553 -0.32602748 0.15848534 0.15338403 -0.01647494 -0.08222462
0.0052526435 0.07422483 0.04313418 -0.38439026 -0.094757386 -0.116752386 0.113878354 -0.08731618
-0.3549227 0.17999077 0.030565264 -0.34597576 0.089444175 0.3300153 0.20602156 0.052723706
-0.04808009 0.1375065 0.15443026 -0.14567816 0.16257663 0.15006708 0.12167822 -0.13694516
-0.1315959 -1.3340291 0.06958728 -0.15952098 0.16934867 -0.06629428 0.052608985 -0.13379227
-0.047376495 -0.08273205 0.15450186 0.05579378 -0.026072687 0.037433565 -0.1394504 -0.10621847
-0.11699661 0.009881179 0.0827969 -0.16751964 -0.024044272 -0.03703451 0.09850771 -0.10966503
-0.07152311 0.13417706 0.08092083 -0.17607823 0.01858458 -0.10571084 -0.08754278 -0.36117268
-0.15086974 -0.1624844 -0.30412695 -0.20952317 0.14311849 -0.012806955 0.040560946 0.11405082
-0.10089858 -0.0595675 0.28048778 0.20136859 0.20757076 -0.281038 0.24375755 0.09649587
0.013576526 0.101450115 -0.085972644 -0.1101095 0.11461798 -0.11288777 -0.055518888 0.06857909
0.05853344 -0.13943002 -0.14541475 0.09637695 -0.020250289 -0.6572499 -0.047126543 -0.0256364
-0.040857885 -0.017448522 0.07420318 -0.14899784 0.11775011 0.11887298 -0.34083152 -0.11466972
0.010899016 0.033845577 0.04077702 0.016076472 -0.039865512 -0.12205256 0.015209987 -0.0774551
-0.33077645 0.14569241 0.13517118 -0.14727142 0.15759279 0.2464971 -0.038652796 0.042082768
-0.072365865 0.16003491 0.17120178 0.0712618 0.1795974 0.05072374 0.024051934 0.15478137
-0.09288275 -1.0826569 0.06254429 -0.20826101 0.22159123 -0.13742097 0.0769865 -0.100792676
-0.11757295 -0.08575583 0.037310008 0.100425534 -0.06473051 0.08852271 0.09555642 -0.1417907
-0.122344345 -0.052219067 0.019139344 -0.089713074 0.012498575 -0.058190458 0.045465656 -0.079290316
0.03903252 -0.067300886 0.09316063 -0.30063114 0.16620453 -0.13661818 -0.07891056 -0.15225811
-0.20560919 0.012770232 -0.22799112 -0.07023392 0.07114225 -0.02260664 0.0040327217 0.07683819
-0.117127776 -0.20664907 0.28350267 0.15885781 -0.0009581281 -0.32986054 0.15212233 0.08976457
0.05779882 0.08864393 -0.15628165 -0.071496114 0.17278148 -0.12542637 -0.10769945 0.027460577
0.015042225 -0.06167193 -0.15292431 0.030295014 -0.15929481 -0.6132115 -0.012306322 0.071560875

classificator_8/Conv2D_bias f4 [2]
00000000: 8fde 03bc c6f3 abbe
-0.008048668 -0.33584422

classificator_8/kernel f4 [2, 1, 1, 88]
00000000: c15a 1fbe d71d e1be 71f4 f13c 0bff e43d
00000010: f1d5 de3c 2410 faba ad01 29be 6d9d bdbb
00000020: bcca 9bbd 7873 ddbd 66cb b33d 0024 34be
00000030: a4b1 21bd 8898 2c3e c386 6dbe 457f f1bd
00000040: a7f1 2dbe 57d3 66bd 070a b7bd d437 d9bd
00000050: ed58 4c3c 3dec b2bc 3275 103e 45db 25be
00000060: 020d 6cbc e29a 743d 3a40 733d 7b1a 983e
00000070: 60d6 6b3d fc8e 8e3d c41c 343e 8716 f3bd
00000080: e2a4 fb3c ff4b c6bd 6a0e aeba d37b a7bd
00000090: 18c8 3abd e378 633e f1a3 be3d 0ed9 33be
000000a0: e7e4 fcbd 5a5f 0abe e0e9 43be be78 79be
000000b0: 871c 65be 3ee2 55bd ee24 d63d f435 6dbe
000000c0: df85 86be f321 94be 9a9d 8c3c 85e1 8f3e
000000d0: 481d 64be 1198 d3bd fd7a 653d 6e22 663e
000000e0: a7e0 76bd f336 153e 97c0 493e 18c7 e2bd
000000f0: 533f 64be decc a0be b3af 6b3e 564a 3f3e
00000100: dede cbbd 65dd 92bd 9208 a1be 3779 243e
00000110: 48d7 983c c6f7 f63c 29ab babc 493e 97be
00000120: 15b6 f43d 466f 883e daea 7dbe d774 0abe
00000130: bd69 083e 3eeb efbc 44b0 ddbe d1de 86be
00000140: 9fd2 babe eb13 abbf c4a0 cfbe 510f 0cbf
00000150: 48b2 323e 8fba 5e3d 4be3 1cbf 4012 74be
00000160: 14b8 0cbe a856 f8be d930 6a3d d7db 843d
00000170: b4e8 c03d f3a7 66bc 1a5b 07be 2746 d2ba
00000180: d75b c9bd 103c 2e3d 5705 bc3d bb18 49be
00000190: 1b49 dabc 78de 013e d740 24be f57c 05be
000001a0: a345 09be 0f3a d63c 4bc8 60bd 5101 c7bd
000001b0: ad56 82bd e436 833c fd8a 013e 53fa 2bbe
000001c0: c651 65bd dcf8 c33c 9a2d 3c3d 32a8 7c3e
000001d0: 19c4 8d3d 21fe a73d fb9d 1a3e 8ff1 11bd
000001e0: 642c 9e3c 49ee ddbd c20a 773d 162b 68bd
000001f0: 7a28 54bd aa04 1b3e 15aa 453e c8f2 a8bd
00000200: 6f58 10be dd4e 293e ce9f 8ebe 63f6 acbe
00000210: 6b68 8abd cedd 93bd badf 8d3e 5ad6 a6be
00000220: 7b55 a0be 8235 89be 3c71 813d 2968 833e
00000230: 5c7a 70be 17f2 e1bd 23a6 813d 938c 7f3e
00000240: b759 463d 5c72 643d 6432 233e f462 82be
00000250: b1d8 2abd b3ea 94be 447b 883e 04e0 a13e
00000260: e314 ed3d e7e7 f9bd 2ad9 5e3e 38a9 1e3e
00000270: ccd6 763e 091e 0b3d 21da a93e 4bd5 ce3c
00000280: bc68 1c3e bef0 873e 5617 193d 1889 9bbc
00000290: 057d 963e dd81 be3e 0f75 89bd d820 bc3e
000002a0: 2e83 03bf fdd5 f4bf 1ca1 a3be e66f d8be
000002b0: 6388 133e 0205 3d3e eb88 c83e b35b 40be
-0.15561964 -0.43968078 0.029535504 0.11181458 0.027201625 -0.0019078297 -0.16504546 -0.005786589
-0.07607028 -0.108130395 0.087790295 -0.17591858 -0.039476052 0.16855061 -0.23195939 -0.11791853
-0.16986714 -0.056353893 -0.089374594 -0.106063515 0.012472373 -0.021841163 0.14107206 -0.16196926
-0.014407398 0.05971802 0.059387423 0.29707703 0.05757749 0.06960866 0.17589098 -0.11869531
0.03071827 -0.09682464 -0.0013279442 -0.081779145 -0.04560098 0.22214083 0.09308613 -0.17563269
-0.12348347 -0.13512936 -0.19132185 -0.24362466 -0.22374164 -0.052217714 0.104562625 -0.23165113
-0.2627401 -0.2893215 0.017164994 0.28101745 -0.22276795 -0.10331739 0.056025494 0.22474071
-0.06027284 0.14571743 0.19702373 -0.1107313 -0.22289781 -0.314063 0.23016243 0.186807
-0.09954618 -0.07171134 -0.3145185 0.16061865 0.018657342 0.030147444 -0.022786694 -0.29539707
0.11948792 0.26647395 -0.2479662 -0.13521133 0.13321586 -0.029286977 -0.43298542 -0.2634187
-0.36488816 -1.3365453 -0.40552342 -0.5471087 0.17450821 0.054377135 -0.6128432 -0.23835087
-0.13742095 -0.48503613 0.05717549 0.064872436 0.094193846 -0.014078128 -0.13218346 -0.0016042636
-0.0983197 0.04253775 0.09180706 -0.1963834 -0.026646188 0.12682521 -0.1604036 -0.13035949
-0.1340547 0.026150731 -0.054878514 -0.09717048 -0.06364188 0.016017385 0.12650676 -0.1679471
-0.05598619 0.023922376 0.045941927 0.24673536 0.06922168 0.08202768 0.15099327 -0.03563076
0.019308276 -0.10836465 0.060312994 -0.056681715 -0.051796414 0.15138498 0.19303162 -0.08249432
-0.14096235 0.1653399 -0.27856296 -0.33781728 -0.067581974 -0.0722004 0.27709752 -0.32585412
-0.31315216 -0.26798636 0.06320426 0.25665405 -0.23484176 -0.11032503 0.06330516 0.24955969
0.048425402 0.055773124 0.15937191 -0.2546612 -0.04171056 -0.2908531 0.26656544 0.31616223
0.115762495 -0.12202435 0.21762529 0.1549424 0.24105376 0.03396419 0.33174232 0.02524819
0.15274328 0.2655086 0.03737577 -0.01898627 0.29392257 0.37208453 -0.0671178 0.36743808
-0.5137204 -1.9127804 -0.31958854 -0.42272872 0.14407496 0.18458942 0.3916696 -0.1878498

conv2d/Conv2D_bias f4 [24]
00000000: a166 7a3e de7c a63e 99bf bf3b 20e8 013e
00000010: c6a1 0e3e 9b31 643d e57b 38bf 745e de3d
00000020: 08dc 2ebf d021 ab3d 6396 553e 9f2e 5d3e
00000030: 1a36 afbe 0502 403e e809 e73d 6059 573e
00000040: 4a68 333e bd4c aabf 5511 82be 3f21 e93c
00000050: f0ef c7bd 6654 0c3d d7eb 82bf 0af7 9dbf
0.24453212 0.3251714 0.0058516976 0.12686205 0.13928899 0.05571137 -0.7206405 0.10857859
-0.6830449 0.083560586 0.20858149 0.21599816 -0.34220964 0.1875077 0.11281186 0.21030188
0.17520252 -1.3304669 -0.25403848 0.028458236 -0.09762561 0.034260176 -1.0228223 -1.2341015

conv2d/kernel f4 [24, 5, 5, 3]
00000000: 20b9 163d 7ad8 6bbd ec81 8abd e934 4ebd
00000010: 5cf6 aabc fbcc e9bb 7ae8 a8bd 79d0 973c
00000020: f7e3 013d f85d d1bd 8913 383c bc8f e5bc
00000030: 5afd 24bd 40c9 2f3d 963c 453c 8c22 1ebd
00000040: ef73 b3bd b591 21bd fd9a 1a3d 8cba f43d
00000050: 3515 0b3e 25be a83d 9b4b 523e ee67 3b3e
00000060: 0120 d3bb 7cfa f53d bdee 953d 450a 9c3b
00000070: e9c7 b93d 9b47 833d dad5 f23c ebfa 45bc
00000080: df05 a33c 1396 bc3d cbf4 023e 824c 053e
00000090: be10 c33d 69ec 073e d0da d93d 4976 dabc
000000a0: 33a0 d83c 81b0 de3b d616 833b 6e2d 323d
000000b0: 2879 803c 73a8 103d 334d 6cbd 031f 26bd
000000c0: ef10 b8bc c746 85bd 9a22 57bd 0dd1 6cbd
000000d0: 78cd dfbd 9878 86bd 405d 6bbd 9015 d7bd
000000e0: a064 82bd 07b0 643c a48a 8abc 3976 aa3b
000000f0: ab8b 393d f1ae 64bd 966c 1ebd 82c6 b23c
00000100: 8a05 cabd 05ad 8cbd e985 44bb bea0 f7bd
00000110: 5b3d b1bd fba7 8d3c 9488 acbd 7112 6dbd
00000120: 0430 3c3d 608a 0abd 26fb 07bd f2a7 353d
00000130: c44e 8b3d 6758 91bd bdb4 7bbd 957a 3e3e
00000140: eda5 1cbe a177 3ebd 8192 323e baa1 09be
00000150: d389 993c b634 873d 1ce4 25be 0c56 1f3e
00000160: cb52 68bd b5b1 58bd 8f88 34bd 8a2a 3d3e
00000170: a220 1ebe 0cb7 3cbe 74f8 d13e 937c 85be
00000180: 2cc0 3fbe 2ef2 f73e 5e71 74be 32ba ffbd
00000190: 3579 6e3e a423 3abe 82ad 853d 4cb4 91bd
000001a0: 0867 cbbb 49e2 333c 2178 5d3d 2600 85bd
000001b0: 97b3 22bd 0f8e ad3e b592 3bbe 11f3 25bd
000001c0: b59d b93e fa03 70be 0707 a5bc 44aa 073e
000001d0: 5952 f0bd 45d1 533d da9d 68bd 1b76 bd3c
000001e0: 10fd 58bc 2c8a 2dbd 40b9 a63c 71e3 063d
000001f0: 47f8 a43b f552 8bbd 8f3e c73c 0c68 163d
00000200: 8c2a aabd 6226 a23c 9207 b4bc 7d41 91bc
00000210: 3638 163c 3d52 a9bd 245d 843d e259 6bbd
00000220: 9e13 80bd 5c37 043e 71d1 723b afab c1bd
00000230: e691 c63d e6bf 82bb 37ed 87bd 8469 f03d
00000240: 3426 b236 8ab0 bebd 1f6f c63d a02c f9bb
00000250: 6dd7 a7bd adde c23d 2ae8 11bd 7754 b6bc
00000260: 7821 873d 0eb6 c13c 9da7 bdba f4c4 263d
00000270: 4646 753c d0b6 92bb f5ce 793c b58c bb3c
00000280: 7dce 063d 570e 093d 076b aabd 069e 52bd
00000290: 052f 9bbd bba4 c73d bbd4 62bc 4bcc 9d3d
000002a0: 2dc2 ff3d b3bb b9bd dd7c a0bb 19f7 8a3d
000002b0: 8905 0cbe 6af1 c8bc 51e4 203e dabb 853c
000002c0: 28e6 8b3d 80d5 253d bf0e e53b 616e b53c
000002d0: 50a9 b43c 929c 2bbd d5f5 b73c 49c2 bc3d
000002e0: 598c dcbd f72f 28bd 167c c53d 624e 1fbe
000002f0: b63c a5bd c134 b93d 1fb1 83bd 1583 96bb
00000300: 892d f9ba 53c9 aabd 018b bfbc e034 aebc
00000310: 5569 8d3c 1afe 033d 3da4 043e 1651 e73c
00000320: 0124 0c3c fb7b 023e 047f 35bd e528 89bd
00000330: 5450 013e 55a3 57bd b70b 30bd 9763 cd3c
00000340: 5a47 95bd cf61 d9bc 6524 1abe 8688 88bc
00000350: 4a75 023d 5cc4 02bd 82bf f33b 731d b63c
00000360: b4a4 6abc 56bc 9d3b 2e8a 3ebc edf7 773d
00000370: 4ef6 a3ba 9144 103d 56d6 093c 36a7 163c
00000380: d649 503d a774 61bd 7675 3dbc 701a 1f3e
00000390: c5a4 89bd 3a50 b2bd ea5d 383d 53a1 203d
000003a0: e001 94bd 9981 fd3a e829 1d3d 84c9 64bd
000003b0: 2645 c7ba 4c5c 4cbd 73e9 13bc 02c1 b93c
000003c0: 95f2 123d aef7 87bc 3bee ab3d a0bb 913d
000003d0: 2290 bfbd e1d7 ba3c 5c72 573e e0b2 6c3d
000003e0: 9669 bfbc 828f 7a3e 9167 4f3e 73e7 c93c
000003f0: 2b2e 413d 362d 873d 0b77 55bd 76a4 be3c
0.036797643 -0.057579495 -0.06763062 -0.050343428 -0.020869426 -0.0071350313 -0.082474664 0.018532025
0.031711545 -0.10223001 0.011235126 -0.02802264 -0.040280677 0.042916536 0.012038371 -0.038607165
-0.08762347 -0.039445598 0.037745465 0.119496435 0.13582309 0.08239392 0.20536654 0.18301365
-0.006443024 0.12010667 0.07320926 0.0047619664 0.09071333 0.06410142 0.029642988 -0.012083749
0.01990026 0.09208312 0.12788694 0.13017467 0.09524678 0.13273777 0.10637438 -0.02666773
0.026443576 0.0067959432 0.004000525 0.043500356 0.015682772 0.035316896 -0.05769081 -0.04055692
-0.022469012 -0.0650764 -0.052523233 -0.057816554 -0.10927862 -0.0656597 -0.057461977 -0.105021596
-0.06366849 0.013957984 -0.016911812 0.0052020815 0.045299213 -0.0558309 -0.038677774 0.021823172
-0.09864338 -0.06868938 -0.0029987043 -0.12091206 -0.08654281 0.017292013 -0.08424488 -0.057878915
0.04594423 -0.03382337 -0.0331985 0.04434962 0.06802133 -0.070969395 -0.061451662 0.18601449
-0.1529767 -0.046500806 0.174387 -0.134406 0.018742478 0.06601851 -0.16200298 0.15560168
-0.056719583 -0.05290385 -0.044075545 0.18473259 -0.15442136 -0.18429202 0.41009867 -0.26071605
-0.18725652 0.48426956 -0.23871371 -0.12486686 0.23288424 -0.18177658 0.065272346 -0.07114467
-0.0062073506 0.010979244 0.054069642 -0.06494169 -0.03972205 0.33897445 -0.18317683 -0.04051501
0.36253133 -0.23439017 -0.020144952 0.13248545 -0.117344566 0.051713247 -0.056791164 0.023127606
-0.013243929 -0.0423681 0.020352006 0.03293175 0.00503448 -0.06802932 0.024321822 0.03672032
-0.083088964 0.019793693 -0.021976266 -0.017731423 0.009168675 -0.08267639 0.06463078 -0.057458766
-0.06253742 0.12911743 0.0037051106 -0.09456574 0.09695797 -0.003990161 -0.06637042 0.117388755
5.309261e-06 -0.09311016 0.096891634 -0.0076041967 -0.08195386 0.09515128 -0.0356218 -0.022257073
0.065981805 0.02364638 -0.0014469508 0.040715173 0.014970368 -0.0044773594 0.015247096 0.022894243
0.032911766 0.03346094 -0.08321195 -0.051420234 -0.07577328 0.09748217 -0.013844664 0.077049814
0.12488208 -0.09069004 -0.0048976974 0.067854114 -0.13673986 -0.024529178 0.15712096 0.016324926
0.06831008 0.040486813 0.0069902833 0.02214736 0.02205339 -0.041897364 0.022456089 0.092167445
-0.10768957 -0.041061368 0.09642808 -0.15557244 -0.0806822 0.09043265 -0.064302675 -0.004593263
-0.0019010763 -0.08339181 -0.023381712 -0.021265447 0.01726214 0.032224752 0.12953277 0.028236907
0.008553506 0.12742607 -0.044310585 -0.06697253 0.12628299 -0.052646 -0.042979922 0.025071902
-0.07289 -0.026535897 -0.15052946 -0.016666662 0.031850137 -0.031925544 0.007438601 0.02223084
-0.014321495 0.004813711 -0.011629624 0.060539175 -0.0012509318 0.03522164 0.008412918 0.00919514
0.050851665 -0.05504289 -0.011563649 0.15537429 -0.067208804 -0.08706708 0.04501144 0.03921635
-0.0722692 0.0019340991 0.038370043 -0.055856243 -0.0015203103 -0.04989271 -0.009027827 0.022675041
0.035875876 -0.016597595 0.08395048 0.07115865 -0.09353663 0.022808017 0.21039718 0.057787776
-0.023365777 0.24468806 0.20254351 0.024646496 0.04716317 0.0660042 -0.05211548 0.02327178

conv2d_1/Conv2D_bias f4 [24]
00000000: d660 9e3e 3813 423e e698 dc3e 136e 593e
00000010: 248b 623e e855 513f 5f25 91be 5875 213e
00000020: a2f4 9dbf 0d74 8a3f 51ab f73e d6a9 a03e
00000030: d710 ce3e 71aa 373f e658 2f3f 29f8 883f
00000040: 5ae7 943f 2401 febf c416 4b3f ca59 c83e
00000050: 4269 8f3e 25a7 873e efe7 4c3f ee6e 923e
0.30933255 0.18952644 0.43085402 0.21233396 0.2212339 0.8177171 -0.28348824 0.1576742
-1.2340281 1.0816666 0.48372892 0.31379575 0.40247223 0.7174445 0.68495023 1.0700732
1.1633103 -1.9844098 0.7933161 0.39131004 0.28009993 0.2649471 0.800414 0.28600258

conv2d_1/kernel f4 [24, 1, 1, 24]
00000000: 8da1 a13e f487 803d 646e ce3e d332 053f
00000010: 2e82 af3c 637d 273f 709b 02bf 7a2c edbe
00000020: ccfd 923f 315b 55bf 63ce 04bb c7d7 283f
00000030: bad7 7bbe 3ef9 373f 083e 133e df67 dbbb
00000040: 2d4b cb3e 7f9b f7be 43c9 a5be 1204 503f
00000050: b7b9 d93e 897c c7bd 3665 3f3e 32ab d83e
00000060: 5803 73bc b9ae 213f b118 873d 5535 853c
00000070: 1a49 8fbd 2b3a 48bf c121 f03d f4ca 5f3e
00000080: 963c 753e 28f0 a93e f6b4 f63b f773 07bf
00000090: d027 ff3e 1cb5 e83d 9d30 f9bc 9c55 0abe
000000a0: 9c94 b9bf 5fc7 c93e d0bf 143f 8d0b 10bf
000000b0: 2199 ce3d e32b 41be f731 cb3d 5d04 1bbf
000000c0: 39bb 0b3f 8f1a cc3d 8a8e a83e b40a 703b
000000d0: ac82 723e f368 683e eb16 b43e 32b7 383e
000000e0: 418d e7bd efae acbe 7be2 ac3d 5b3d babd
000000f0: 7b46 c6be 53d0 03be ec20 bbbe 32f8 a7bd
00000100: 4a62 b1bd 0a54 cfbd 47cc d3be 98e8 ebbe
00000110: 55f9 ecbe 8f18 3b3f aa35 353d 250c b53e
00000120: 79c2 f33e 1977 af3e 04ea 92bd 464a c93e
00000130: 1040 b23e 00c4 073f 42c8 293e 83d3 a7be
00000140: 5334 013f a1b0 e93e f5e1 e03e d22e e5be
00000150: 0748 20be 00e4 d1be d5e5 413d ba8d bb3d
00000160: 7a16 073e 3350 1f3d d370 57bd 4cb2 ffbe
00000170: de2c 5cbf c18f 9ebd 701a 413f 8465 173f
00000180: abbd 8d3d 87f4 9bbc d768 d83d 0d2a 08be
00000190: 20e0 e13e 3fd6 a93d a62e 3e3e 3986 45be
000001a0: 08c2 cdbe 7b85 ef3d ade4 43be b83f 403e
000001b0: 30b1 743e e225 a3bf a652 f93d 243e 313e
000001c0: 3694 e13c 068e e43b 6846 f23e bbc0 dd3d
000001d0: e90b 0cbf 03e4 a4bb 4659 5bbd afa3 4e3e
000001e0: 4d3a 463e 8a3f 8cbd 5482 16be c05b 163f
000001f0: 6723 5f3f 0e24 0dbb d62f f63d 3386 a03e
00000200: 8664 08be 448b a7be 3335 c93d f9f2 7dbe
00000210: c1f0 c5be 5143 843d 91a1 0a3e efd3 473d
00000220: 771b 8ebe 62ea bbbd bf07 1dbf 88c0 ce3c
00000230: 2654 a3be ee0b 14be ce62 6bbc 3be2 433e
00000240: 0b59 86be e17e 2bbe 038f 92be 9ac7 cc3e
00000250: 2673 acbd 80ba 59bf bab2 c43e c113 e93e
00000260: 37f0 06be 315e 2c3d 1afe dc3e 2d2e 593e
00000270: a357 0f3f 2ec8 f6bd 7646 803e 1843 cdbe
00000280: 842a b3bd 5283 c5bc 9ac9 9abe f447 333f
00000290: 735b 213f f953 223e 9c60 57be bd9e ba3e
000002a0: d836 a03e 7d44 d93c 1fbd 16be 221c c4bd
000002b0: 3386 1a3e 039f cc3e 15e3 9a3e 65bd 36be
000002c0: 3102 35be d2b6 8e3c 1550 83be 2106 abbd
000002d0: ff8c 93be a3f4 b13e 31d9 ecbe 150b 4e3f
000002e0: 1d26 0fbe 8e83 e4bd 9819 953e fcc8 17be
000002f0: 415f 9d3e 763b 263f f50d c63e 18f0 bb3e
00000300: 7db4 7b3e 9f97 abbd 0d76 473e dec2 ab3d
00000310: be10 423e 9703 2dbe 9ed6 54bf dd22 13be
00000320: 656d 393f 1b12 633e c80f 4d3e bf24 aa3e
00000330: e3a3 473f c95b 823f a1c9 afbd dddb dcbd
00000340: 55df c93e 7323 ad3f 86b2 32bf 4a1a 073e
00000350: e577 58bc 1fea d13d dba2 ff3e ccfd f53e
00000360: 40ae 1e3e 3839 963e 9548 a4be cfc8 623c
00000370: d0b1 6b3e 8cf4 25bf 64fa dc3e cb91 b23e
00000380: e0d6 d3be d669 a73d b082 b93d 671f 9ebf
00000390: 1224 953e 3b74 f6be cb96 713e 7a84 5e3e
000003a0: be04 36bf fe9f be3e 9bf7 273f 17bc d8be
000003b0: 0435 59bf ae7d 5fbe 3ed3 573e 6de3 0cbf
000003c0: 57a9 163d f5be 983f 880c 7c3e 8ed0 e5bc
000003d0: 379b 0c3d f27c d43a d077 833d fd08 56bd
000003e0: c8f7 6dbf 14c3 61be 79f3 b1bd 14c7 74bf
000003f0: 722e 58bc 25e6 7bbc 8d6a c0bd e228 053d
0.31568566 0.06275931 0.40318596 0.52030677 0.02142438 0.654257 -0.5101843 -0.46322995
1.1483703 -0.8334227 -0.0020264618 0.6595425 -0.24594012 0.7186469 0.14379132 -0.006695732
0.39705792 -0.48360822 -0.32380113 0.8125621 0.42524502 -0.0974055 0.18690953 0.42318112
-0.01483234 0.6315723 0.065965064 0.016260782 -0.06996365 -0.7821376 0.11725188 0.21854764
0.23948893 0.33191037 0.0075288964 -0.52911323 0.49835062 0.11362669 -0.030418688 -0.1350922
-1.4498477 0.3940992 0.5810518 -0.56267625 0.10087801 -0.18864398 0.099216394 -0.6055353
0.54582554 0.09966003 0.3292125 0.0036627473 0.2368266 0.22696285 0.35173735 0.18038633
-0.11306239 -0.33727214 0.08441635 -0.09093734 -0.38725647 -0.12872438 -0.36548555 -0.082016364
-0.08661325 -0.10123451 -0.4136679 -0.46075892 -0.46283975 0.7308435 0.04424063 0.35360828
0.47609308 0.34270552 -0.07173541 0.3931448 0.348145 0.5303345 0.16580299 -0.32778558
0.50470465 0.4564257 0.43922392 -0.44762284 -0.15652476 -0.40994263 0.047338326 0.091578916
0.13192168 0.038894843 -0.052597832 -0.49940717 -0.8600596 -0.07742263 0.75430965 0.59139276
0.06920942 -0.019037498 0.105668716 -0.13297291 0.44116306 0.08292817 0.18572482 -0.19289483
-0.40187097 0.11695381 -0.19130202 0.18774307 0.23895717 -1.2745936 0.12173967 0.17308861
0.027536493 0.0069749383 0.4731934 0.10827776 -0.54705673 -0.005032064 -0.053551935 0.20179628
0.19358177 -0.068480566 -0.14698154 0.5873375 0.87163395 -0.0021536383 0.12020843 0.31352386
-0.13319597 -0.3272344 0.098246 -0.24799718 -0.38660243 0.06458152 0.13538195 0.0487861
-0.2775533 -0.09175564 -0.61339945 0.02523829 -0.31900138 -0.14457676 -0.014366819 0.19129269
-0.2623981 -0.16747619 -0.28624734 0.39996034 -0.084204 -0.850502 0.38417608 0.45522884
-0.13177572 0.042082015 0.43162614 0.21209021 0.559931 -0.120499 0.25053757 -0.4009025
-0.087483436 -0.02411047 -0.30231935 0.70031667 0.63030165 0.15852346 -0.21032947 0.36449233
0.31291842 0.026521916 -0.14720581 -0.095756784 0.15090255 0.39965066 0.30251375 -0.17845686
-0.17676617 0.01742116 -0.25647035 -0.08350778 -0.2881851 0.34756956 -0.46259454 0.8048566
-0.13979383 -0.111579046 0.2912109 -0.14822763 0.30736735 0.6493448 0.38682523 0.36706614
0.2458057 -0.08378529 0.19478627 0.08386777 0.18951699 -0.168959 -0.8313998 -0.14368768
0.7243255 0.22174875 0.20025551 0.3323116 0.77984446 1.0184261 -0.085833795 -0.10784123
0.394282 1.3526443 -0.69803655 0.13193622 -0.013212179 0.10249733 0.49928936 0.48045194
0.15496159 0.2934053 -0.32086626 0.013841822 0.23017049 -0.64826274 0.43159783 0.34876856
-0.41374874 0.081744835 0.0905813 -1.2353333 0.29129082 -0.48135552 0.23592679 0.21730223
-0.71100986 0.3723144 0.6561219 -0.42331 -0.8484652 -0.21825287 0.21076676 -0.55034524
0.03678259 1.1933275 0.24614155 -0.028053548 0.034327712 0.0016211553 0.06419337 -0.052254666
-0.9295621 -0.22047073 -0.08689017 -0.9561627 -0.013194667 -0.015374695 -0.09395323 0.032509692

conv2d_10/Conv2D_bias f4 [80]
00000000: f7ed 0f3f 13bb a13f 70ab 8f3f f806 ef3f
00000010: f649 6f3f f1a6 903e c2f6 853d cf48 e33e
00000020: dfe7 0540 46fb ce3f 1afb 0d40 e72a 0140
00000030: a7bf 3040 5c42 a53f e850 b0be 56bb 6a3f
00000040: 4092 9e3f e65b 8c3f 9241 0040 b1b3 0740
00000050: ad43 c13f d8f9 b1be 9aec 623f 401c f53f
00000060: 471e 6a40 4f49 cb3f a96a 1ec0 de04 aa3f
00000070: 718f 4e3e 7a62 c73e b319 be3e c508 dd3f
00000080: bc94 e73e a648 3ebf f5e3 bb3f 3f59 dc3f
00000090: 84b9 0abe 7f70 5ebf 28c3 dfbe 7295 943f
000000a0: 058c 5d40 157b e03f fc4b a43e ad9a da3d
000000b0: 6045 083f d0de edbc 6601 0e3e dc7f 033f
000000c0: d94a 55be 1de1 1d40 b66c da3f 1040 913c
000000d0: b763 d13e 8b89 2f3f f838 9b3e 42c3 bd3f
000000e0: 0eb9 3b3f 1b15 683f b8b6 fc3c 0784 3a3f
000000f0: a276 c13e 5a33 0840 b241 a83e 2823 42bf
00000100: 9cfb 4a3f 5629 b73f 925a 543f eca1 23c0
00000110: 7b00 753e 820b 793e b664 18c0 fbd0 853d
00000120: 0924 efbd d7ff 623f c2b0 a33e 4a8a 4fbf
00000130: 4650 d63e 0c70 093f 6954 923e 746b 903e
0.5622248 1.2635216 1.1224194 1.8674002 0.9347223 0.28252366 0.06541206 0.44391486
2.0922773 1.6170433 2.218451 2.0182436 2.7616975 1.2910876 -0.34436727 0.916921
1.2388382 1.0965545 2.004002 2.1203425 1.5098778 -0.34760928 0.88642275 1.9149246
3.658098 1.5881747 -2.47526 1.3282735 0.20171906 0.3894232 0.37128982 1.7268301
0.45230663 -0.743296 1.4678942 1.7214736 -0.13547331 -0.86890405 -0.4370358 1.1608107
3.461671 1.7537562 0.3208922 0.10674033 0.5323086 -0.02903691 0.13867721 0.5136697
-0.20829333 2.4668648 1.7064426 0.017730743 0.4089639 0.6856925 0.303169 1.4825213
0.73329246 0.90657204 0.030848846 0.7285771 0.37785822 2.1281343 0.32862622 -0.75834894
0.79290175 1.430949 0.829507 -2.556758 0.23925965 0.24320796 -2.381147 0.065340005
-0.11676795 0.8867163 0.31970793 -0.8107039 0.4185812 0.53686595 0.28580025 0.2820698

conv2d_10/kernel f4 [80, 1, 1, 72]
00000000: 8496 91be f61f f93d b62a 9abc 11d5 dcbb
00000010: 712c 4c3d 4561 1cbe 1f59 27be 3fbe c53d
00000020: 8619 07be f80f 0cbe 7be7 593e ce60 e13c
00000030: 0c96 59be db23 e0bd 22c1 febd c685 b83d
00000040: 1150 41bc f214 9c3d 6642 26bd 3493 343e
00000050: 4141 64bd 9f4f 80be d82d adbd e852 19bd
00000060: 148e cebd c9ab d5bc dbfb 08be ebd5 353e
00000070: 67a2 fa3c 2951 a73c bc70 993d 4791 193c
00000080: d568 1ebe 54a7 8dbe 50ee 883c ad45 123e
00000090: 6e1d 82bd a640 f53d cab6 16bd 6fcd 96bd
000000a0: 6870 e5ba e419 e43d e7c2 10be 01ac 45bd
000000b0: 3388 a03d 02b6 90be fd00 0d3e e3fa 533e
000000c0: 9bcf 133d 8d85 e1bc 855c c8bd 6a72 483e
000000d0: 5b32 c4bd 8c07 eebc 8136 603e ded2 103d
000000e0: 801d 1fbe 3c23 a43e 34ea 323d 63ee e23d
000000f0: 49e1 4ebd f644 673e d732 063e ed9f d9bc
00000100: 6a3a 94bc 2e06 3dbe 81f6 97bd f732 053e
00000110: 71b5 31bc 0c48 a8bd 6a83 f1bd c059 ddbd
00000120: 1322 20bd 7bae 9bbe 48a6 c03c 08e7 383b
00000130: d76c d13b 1530 aebd 5bcc b7bd 9a94 0d3e
00000140: 8e07 ce3d 1474 f1bd cc3e 473c ea34 353c
00000150: 3f1c 8c3e 1150 1bbe 8964 053e 6d57 afbd
00000160: 1698 673d 5472 cabd 282d 8d3c 78da 9ebc
00000170: 37e2 10bd 31a7 ccbd 267c c13c d63f 52bd
00000180: 10c7 d5bb 18ba 88bd 5517 c1be 3087 8cbe
00000190: d0fa d3bd 372c b83c 6d83 8d3e fa78 e5bd
000001a0: fa34 bbbe d709 8b3e 2b12 2f3e b6ff 193d
000001b0: f940 2bbe 7111 c0be cc5d 24be 2024 893c
000001c0: 8b95 883d b4d0 4f3e bc9a 933e 159c 4f3e
000001d0: 3ccf dfbd 8509 a93d 49c4 88be 72a6 763e
000001e0: d405 87bd e981 013e 66de 153e 78c0 d03c
000001f0: 5739 d53c fd95 91be 183d a6bd 0308 133e
00000200: e6b7 47be 0551 c63c 31fc 8abd f7b2 e63c
00000210: ad53 2f3e b39e febc 28de 85bd a2d0 0e3e
00000220: c6a5 8fbd a637 ab3e b9dd fc3d 97c9 0d3d
00000230: 5bc6 3a3e ec14 643e 9583 303e 0fb6 18bd
00000240: 447f 833e 92bf cfbd 883e 743e fda9 81be
00000250: 4aa0 243e 2ec7 1c3d ca49 6bbd 71bd 2a3d
00000260: 6795 b7bd e472 4ebd 0d21 173e d859 883d
00000270: 84be 103e 9427 dd3d 3dfe debc e98f 183d
00000280: 3490 e03d 8d0c dcbd fc37 f0bd 48d3 cdb9
00000290: 351b 543e f92b 8c3c 5240 1fbe c0bc 63be
000002a0: f4f9 92bc 2573 53bd eedf 713e 68d5 b13a
000002b0: 11d4 02be 697a 0dbc 79c9 71be 1d24 44bc
000002c0: 49d1 0a3e 4c43 f6bd dadd a7bd 2645 95bd
000002d0: 1c0f 1bbd ac70 88be ecb4 b33d 6ea7 a43a
000002e0: c9a3 d13c 9ce6 a93e 50b7 27be a4f0 06be
000002f0: 8461 57be c718 0a3d 249d 96bd 93a8 8bbc
00000300: ec7c 67be 6741 ea3c 9825 1b3e bfa6 ac3e
00000310: 80b0 56bd 699b 233c 9efb 6d3e c877 9abd
00000320: 85b4 803d 44b6 b03c 4cd7 1abd b046 013e
00000330: 7cd8 983d a25f e7bd b197 863e d25e 6d3c
00000340: 492d 093e 9858 253e 34bb 983e f4da 323e
00000350: a14d 27bd 5465 38be dbc2 96be ac42 acbc
00000360: a88b 85bd fce1 053e 2ea4 cfbc 6d0b e5bc
00000370: 9d06 f93b b6ea 8f3d 59b3 993e e285 0e3d
00000380: e11f 57bd 3b6d 09be 7585 ed3e c934 573e
00000390: c9b6 06bc efe2 943e b753 bdbd 1a0f 35bc
000003a0: 9195 92bc 50af 31be eed3 3dbd f876 a83d
000003b0: 0273 97be de2e 2c3d 60c9 a4be b426 6b3e
000003c0: c715 c5be 5f3b 79bc 16bc 6dbb b7c3 3abe
000003d0: 02c7 a0be c7a3 383d 5905 36be b5a3 74be
000003e0: c33b bdbd 0245 44be d4e0 30be 2d8e 783e
000003f0: 62df d0b9 4e76 8f3e 1a08 a7bd c396 0e3e
-0.28435147 0.12164299 -0.018819194 -0.0067392667 0.04984707 -0.1527148 -0.16342591 0.09655427
-0.1319333 -0.13677967 0.21279709 0.02751198 -0.21248645 -0.10944339 -0.12439181 0.0900989
-0.0117988745 0.076211825 -0.040590666 0.17634279 -0.055726293 -0.25060746 -0.084560096 -0.03743258
-0.10085693 -0.02608289 -0.13377325 0.17757384 0.030595018 0.020424442 0.074922055 0.009373016
-0.15469678 -0.27666724 0.016715199 0.14284392 -0.063532695 0.11975221 -0.036795415 -0.07363402
-0.0017504813 0.11137751 -0.1413685 -0.04825974 0.07838478 -0.2826386 0.13769908 0.20701174
0.03608666 -0.027529502 -0.09783272 0.19574896 -0.09579917 -0.029056333 0.21895792 0.03535735
-0.15538597 0.32058132 0.043680385 0.11080625 -0.050507817 0.225849 0.13105331 -0.026565516
-0.01809426 -0.18459389 -0.07420064 0.13007723 -0.010846482 -0.08216867 -0.11792643 -0.10808134
-0.039094996 -0.30406556 0.02351679 0.0028213877 0.0063911485 -0.08505265 -0.089745246 0.13826218
0.10060035 -0.11789718 0.012160968 0.011059979 0.273653 -0.15167262 0.13026632 -0.08561597
0.056541525 -0.098850876 0.017233446 -0.019391283 -0.035371985 -0.09992827 0.023618769 -0.05133041
-0.0065239742 -0.066761196 -0.37713113 -0.2744689 -0.10350573 0.02248202 0.27639332 -0.11204715
-0.36563855 0.27155945 0.17096774 0.03759738 -0.16724004 -0.37513307 -0.16051406 0.016740859
0.06669148 0.20294458 0.2882899 0.20274384 -0.10928199 0.08253769 -0.26712254 0.24086931
-0.065929085 0.12647213 0.1463562 0.025482401 0.026028318 -0.28434744 -0.081171215 0.14358525
-0.19503745 0.024208555 -0.06786383 0.028161509 0.17121764 -0.031081533 -0.065365136 0.13946775
-0.07014041 0.33440894 0.12346978 0.03461608 0.18239729 0.22273606 0.17237695 -0.037283
0.25683033 -0.10143961 0.23851979 -0.25325003 0.1607677 0.03827589 -0.057443418 0.04168457
-0.08964043 -0.050402537 0.14758702 0.06657761 0.14135176 0.107985646 -0.02722084 0.03724662
0.109650046 -0.10744581 -0.11729428 -0.00039258064 0.20713504 0.017110812 -0.1555188 -0.22239971
-0.017941453 -0.051623482 0.23620579 0.0013567628 -0.1277621 -0.008635142 -0.23612012 -0.011971501
0.13556398 -0.120245546 -0.08196612 -0.0728858 -0.037856206 -0.26648462 0.087747425 0.0012562105
0.025590794 0.33183753 -0.16378522 -0.13177735 -0.21033293 0.033715036 -0.07354191 -0.017048156
-0.22606248 0.02859564 0.1515106 0.33720967 -0.052414417 0.009985783 0.23240516 -0.07542378
0.06284431 0.021571286 -0.03780298 0.12624621 0.07463166 -0.112975374 0.26287606 0.014487939
0.13396181 0.16147077 0.29830325 0.17466336 -0.040845517 -0.18007404 -0.29445538 -0.021027885
-0.06520778 0.13074487 -0.025346842 -0.02795955 0.0075996653 0.070271894 0.30019644 0.03479565
-0.052520636 -0.13420574 0.46390882 0.2101623 -0.00822229 0.29079387 -0.09244483 -0.011050964
-0.017893584 -0.17352033 -0.04634469 0.082258165 -0.29579931 0.042036884 -0.32184887 0.22963983
-0.38493177 -0.015211909 -0.0036275438 -0.18238722 -0.3140183 0.045078065 -0.17775477 -0.23890574
-0.09239914 -0.1916695 -0.17273265 0.24272986 -0.00039839285 0.28019947 -0.08155842 0.13924699

conv2d_11/Conv2D_bias f4 [88]
00000000: 0730 a8be c72f c83f c9b8 0b3f 241f 8740
00000010: 234d 0140 3532 453f 2d7e 843e e447 8d40
00000020: 42d4 1440 0a6f 4f40 0dbf 2840 bf64 6240
00000030: 5795 b63f fa26 7740 bc1e b13f 34e7 92be
00000040: a04d 913e ddf2 3b40 028b ee3e 9f5d 8d40
00000050: d19d 6c40 4695 8040 89d6 0c3f 6d3b df3f
00000060: 23ec 2d40 5fcd e63f d5e2 b23f 8865 9f3f
00000070: d1cb ea40 9e18 053f 549b 4240 2ef6 3340
00000080: b0e2 2a40 3ad4 1e40 d90e 4140 7270 8e40
00000090: 3ca0 f33e 06f5 1e40 d80b 263f 76d7 cb3f
000000a0: 1f33 2f40 18f3 0940 7391 0940 da3f 593f
000000b0: 56e0 1e3f 47da f03f 7e23 753f 48e6 573f
000000c0: fccd bb3f 8b43 0abf c7fa 2840 d0e9 a63f
000000d0: 9195 2240 1499 3540 108f 8440 7b11 d63f
000000e0: 862a 7c40 05a2 7140 e78a c8be 0141 68bf
000000f0: 5e6b 93be 9450 d63f 1714 2d3f 201d e23f
00000100: e567 4e3f 9714 f83e 83de 523f 00c4 9640
00000110: 4761 a3bf 9ca6 1640 1eaa 2cbf 768b dbbd
00000120: dc2f 853f 566b 253f c8bc f93f 9519 e93f
00000130: ceba 47bf 1b41 fb3f 5fcc 173f a33a a93f
00000140: 0ff7 1d40 7f02 0040 b9f8 a53f 837c 463f
00000150: 943c 51bd e33d fa3f b25d 943e 4f91 613f
-0.32849142 1.563958 0.54578835 4.2225513 2.020333 0.77029735 0.25877514 4.4150257
2.3254552 3.2411523 2.6366608 3.537399 1.4264325 3.861754 1.3837504 -0.2869202
0.28379536 2.9366982 0.4659043 4.4176784 3.6971323 4.018222 0.55014855 1.744001
2.7175376 1.8031424 1.3975474 1.245286 7.33738 0.5199069 3.0407305 2.8119006
2.670086 2.4817033 3.0165312 4.451226 0.47583187 2.483705 0.6486182 1.5925128
2.7374952 2.1554623 2.1495025 0.84863055 0.6206106 1.8816613 0.9575728 0.84335756
1.4672236 -0.5400931 2.6403062 1.3040104 2.5403788 2.8374681 4.1424637 1.6724085
3.9400954 3.775514 -0.39168474 -0.9072419 -0.28792852 1.674334 0.6760878 1.7665138
0.8062728 0.4845321 0.82370776 4.711426 -1.2764062 2.353919 -0.6744708 -0.107199594
1.040523 0.64616907 1.9510736 1.8210932 -0.78019416 1.9629244 0.5929622 1.322102
2.4682043 2.0001523 1.2966529 0.7753374 -0.051083162 1.9550136 0.28977734 0.8811235

conv2d_11/kernel f4 [88, 1, 1, 80]
00000000: 3fcb 813e f516 7ebd fd03 fd3d f856 6dbb
00000010: 3de8 fdbd 3c4d 3b3d 656a 963b 7eea 32be
00000020: 52d5 3e3d 7ea1 5d3d f601 1cbe a6a1 80bd
00000030: a028 53bd 5ccc 3539 674a 2ebe 8548 a73d
00000040: 4c97 693d 4ac1 babc fc05 da3d be7a ce3d
00000050: 2d99 d43d dc09 e7bc 3500 33bd c181 a1bc
00000060: ed91 89bd f71e 13bd 0587 8cbd 57d9 16be
00000070: 8f4c 9b3d 4610 d3bc 3256 8dbc 0608 34be
00000080: f04a c6bd c3b9 eebd fcca ad3d c0c4 023e
00000090: 9b31 a73b 9f6c 82be e083 86bd 4fed 123e
000000a0: 5853 19bd 8cd3 70be cdc0 07be e834 4c3b
000000b0: 5733 32be 32aa 683d 6972 2dbd 5ea7 42bc
000000c0: 8f7a fbbd c0ba 4dba ca74 97bd 481a 563e
000000d0: 118a c03a 1ea4 2e3d 6a36 83bd dc54 8cbd
000000e0: 33b0 16bd f193 003e 9b20 843e d9c2 34bd
000000f0: b6dd 1abe 8887 63be b7bc 99bd 7794 aebd
00000100: 0d8d c93e 7928 bf3e 0dfc 98bd de7f 29be
00000110: b6b0 41bd 2b9c ff3b 7e98 043e aebc 673e
00000120: 196f d73d c1c7 4fbd 8d07 00be 3b7c 62bc
00000130: 54ce 2ebe bb3f a2be 7f92 87be a78e 003e
00000140: ed8e 133d a1a8 1fbf 6eaa 263b 6d34 4dbd
00000150: 75df cc3c 1512 813d 2132 9a38 86a5 a8bd
00000160: 8159 933d 7dab 43bd 4d6d 0d3d 2eec 36bc
00000170: 2a83 213c 14bd e8bc dde8 8dbd f6e0 b6bc
00000180: 5d38 623d 1dcb 9a3e 988d 2fbc 9c5f ca3c
00000190: b292 97be b138 fcbc bbf2 2e3e d09a 76bd
000001a0: 521f c03c c61d 50bc d051 a53d a1c3 413e
000001b0: 3a18 583d 7323 493e 4e0e 6e39 5ea0 56bd
000001c0: 4e4f 8fbd c56a 863d 8670 a03a a9ce 7cbd
000001d0: bbb4 da3b dcc4 f1bd 405d e239 b6bd 893d
000001e0: cb44 cc3b a1df 78bc 6941 06be 0883 333d
000001f0: 2cda 063e 52e2 5c3e dc90 17be aec6 053d
00000200: b887 0cbe 263d 293e edea 77bb ff95 b33d
00000210: d367 9fbe 9755 1d3d 2e93 3ebd 5d50 6cbd
00000220: 7c5b 533e d45c 27be 7333 30be df32 07be
00000230: 4ccf 35be 89ba 18be 14bd b3be 2bcc 1b3c
00000240: 537e 373d 3eb2 b4bd 5c0d b5bd a9ad 5cbd
00000250: e1d2 f43c 45d5 24be 809c 013e 924e 673b
00000260: 9f43 2dbe 6c9a 213c 1c68 35be 6793 14bc
00000270: 9f3a 073e 5a1b a53b 316c 343e 81db 333e
00000280: 79c3 68bd c17f 4ebe 21e9 f4bd 1148 01bd
00000290: 67ff 963e b663 aabc 84cc 5f3d da76 71bd
000002a0: 3eae 883c 51d6 6c3d a26b c13d d8aa 1dbd
000002b0: 271d 5a3e 026e 0fbe 0c7c 86bd 6811 11be
000002c0: 39a5 593d de47 493b 706f 22be 1d99 37be
000002d0: 28e9 9c3d 5d8e 2bbe 4af3 9d3d 7a01 e6bd
000002e0: 25a5 5abd 889d 073e 5eb4 0c3e 8c6f 98bd
000002f0: 0642 4e3d 2b20 af3e a036 0cbd 7f0d 843d
00000300: cf34 b53d 4849 80bc 42a0 55be e5ad 843e
00000310: 7233 843d 79a6 f8bd 2497 eabd bf60 41bd
00000320: dffb 053d df45 ad3c 9b6f 2bbd 159a 81bd
00000330: 3617 03bd 20a8 d7bd 69cd 83bc b1c9 38be
00000340: 1946 95be 354c 303e 467b f43c 55ac 093d
00000350: d390 b2bd 621a 51bd 03f9 0cbe 55bc 1fbd
00000360: 67b7 a63d 4b6e 033e ebcf 03bd 30d5 0c3e
00000370: ab31 703d 4340 f5bd e2dd 5abd 9d31 cd3d
00000380: 38f8 62bd c6bd a83d ee00 f53d a4b5 ba3c
00000390: 8d9d 12bc 6042 9c3d 9618 883d fbe5 313e
000003a0: 8d28 993c c986 6f3d 551d 193e 5b69 2d3c
000003b0: a24e 16bb 86f4 103e 7c7a 713c 0d39 22be
000003c0: 4534 81bc e621 cfbc 49e2 b2bb 1550 1e3f
000003d0: 9cfb eb3a 530e 0f3b 34d1 debb bfd8 f63c
000003e0: ea09 43bc 8a3a 703c a911 c13c f7e0 16bd
000003f0: b525 70bc 4f83 5ebd d9d0 a8bc c64d 13bc
0.25350377 -0.062033612 0.12354276 -0.0036215167 -0.123978116 0.045727953 0.00459032 -0.17472264
0.046590157 0.05410909 -0.15235123 -0.06280832 -0.051552415 0.00017337635 -0.1702057 0.08168129
0.057029054 -0.022797246 0.10645673 0.10082005 0.103807785 -0.028202944 -0.04370137 -0.019715192
-0.06717286 -0.035918202 -0.068616904 -0.14731346 0.07582962 -0.025764596 -0.017253015 -0.17581186
-0.09682262 -0.11656525 0.08485982 0.12770367 0.005102349 -0.25473496 -0.06568122 0.14348339
-0.037433 -0.23518199 -0.13257141 0.0031159464 -0.17402397 0.056802936 -0.04234544 -0.011880724
-0.122792356 -0.00078479573 -0.073953226 0.20908463 0.0014689584 0.042636983 -0.06406863 -0.06852123
-0.03678913 0.12556435 0.25806126 -0.044131134 -0.15123639 -0.2221967 -0.075066976 -0.08524411
0.39365426 0.37335566 -0.0746995 -0.16552684 -0.047287665 0.007800599 0.12948796 0.2263057
0.10519237 -0.05072761 -0.1250288 -0.013823564 -0.17070895 -0.31689247 -0.26478955 0.12554418
0.036024977 -0.6236668 0.0025431174 -0.050098825 0.025008896 0.06302277 7.3526295e-05 -0.08234696
0.07194806 -0.047770966 0.034528065 -0.011164708 0.009857932 -0.028410472 -0.06929181 -0.022324067
0.055229533 0.30233088 -0.010714911 0.024703793 -0.29604107 -0.030788751 0.17084782 -0.060206234
0.023452435 -0.012702411 0.08072245 0.18922283 0.05275748 0.19642429 0.00022702778 -0.05239903
-0.06997548 0.065633334 0.0012240566 -0.061720524 0.006674377 -0.11805126 0.00043175556 0.067256376
0.0062337867 -0.015190036 -0.1311089 0.043826133 0.13169163 0.2157071 -0.14801353 0.03266018
-0.13723648 0.16527233 -0.0037829236 0.08768844 -0.311339 0.038411703 -0.04652708 -0.057693828
0.20640367 -0.16344005 -0.17207126 -0.13203 -0.17754859 -0.14914908 -0.35105193 0.009509127
0.044798207 -0.088230595 -0.08840439 -0.053876553 0.029885711 -0.16096981 0.12657356 0.0035294634
-0.16920327 0.009863477 -0.17715496 -0.009068347 0.13205956 0.005038661 0.17619397 0.17564203
-0.056827042 -0.20165922 -0.11958528 -0.03156287 0.29491732 -0.020799499 0.0546384 -0.058951236
0.016684648 0.057821576 0.094443575 -0.038493007 0.21300183 -0.14006808 -0.06566629 -0.14166796
0.053136084 0.0030713002 -0.15862823 -0.17929502 0.076616585 -0.16753526 0.07712419 -0.112307504
-0.05338015 0.13243687 0.1374068 -0.07443151 0.050355934 0.3420423 -0.034231782 0.06447887
0.08847963 -0.015659943 -0.20861915 0.2591392 0.06455125 -0.12141127 -0.11454609 -0.047211405
0.032710906 0.021151481 -0.041854482 -0.06328217 -0.032004558 -0.10530114 -0.016089158 -0.18045689
-0.29155043 0.1721657 0.029843938 0.033611614 -0.08719029 -0.05105055 -0.13766865 -0.038997967
0.0814045 0.12835042 -0.032180708 0.137532 0.058641117 -0.119751476 -0.05343426 0.100192286
-0.0554125 0.082393214 0.11963068 0.022791691 -0.008948696 0.076298475 0.066453144 0.17372887
0.018696094 0.05847815 0.14952596 0.010584201 -0.0022935052 0.14155778 0.014738675 -0.15842076
-0.015771994 -0.025284719 -0.005459104 0.61840945 0.0018004063 0.0021828606 -0.0067998413 0.03013265
-0.011904219 0.014662394 0.023567991 -0.036835637 -0.014657428 -0.054324444 -0.020607399 -0.008990711

conv2d_12/Conv2D_bias f4 [96]
00000000: a0a5 20c0 bfa1 9dbf 9cd0 c8be 5481 643f
00000010: f273 903f c70b c9bd addb 33bf e331 8d3f
00000020: b89d b0bf a004 a7bd ec60 8f3f c5cc b53e
00000030: 62d6 15c0 7e94 6a3e 4a17 12c0 58bb 743f
00000040: 4301 90c0 8e06 e63f 0f2a 1dbf 082f 42bf
00000050: 9015 0540 c2a1 683f 86fd 0140 8cb3 0c40
00000060: 1629 39bf 7db1 a6bf e14f 2f3f b376 333f
00000070: fafc b0be 3112 19c0 9ba3 b33f db10 89bf
00000080: aa21 ee3f 546b 82bf cc5c dc3f 7da8 6340
00000090: e069 8b3e 76b2 6ebe e853 ce3f c4a9 ce3e
000000a0: d74e 0cc0 6926 92bf 7e0c 053f e16e 23bf
000000b0: c559 d33f 23b2 9fbf a364 e4be ab29 03c0
000000c0: 71e6 03c0 bc04 023f 5f2c 94bf b6fb 8240
000000d0: 8aac e03f a61f debf 4a86 fc3d 7a63 25bf
000000e0: f04a 70c0 d168 cf3f a675 843f 6cad 50be
000000f0: aa59 18bf 0a48 adbf a0a0 aa3f 4db8 443f
00000100: 065d 32bf 5cd7 c03f 3b11 0ac0 f86e 813f
00000110: 3433 d9bf 7266 493f 158e 06bf 991d 6abe
00000120: da04 8fbf 9252 15be 80c0 25bf 12ff 88be
00000130: 54a9 87bf d60d da3e 8346 d83e f3b2 473f
00000140: 4ade 3540 78a4 f83e 0d1c d73e 214f 82be
00000150: 7774 673f ba9a 563d 6231 4bbf 1352 a13e
00000160: 2706 dd3f 5223 b0bf 284e 8cbf aa4c 833e
00000170: 622f 05bf 5782 00bf 5c28 46be 4fbc 153f
-2.510109 -1.2314986 -0.39221656 0.8925984 1.1285384 -0.098166995 -0.70257074 1.1030849
-1.3798132 -0.08155179 1.1201453 0.3550779 -2.34121 0.22908208 -2.2826715 0.95598364
-4.500154 1.797075 -0.613923 -0.75853014 2.079441 0.9087182 2.0310988 2.1984587
-0.7232832 -1.3022915 0.6848126 0.70102996 -0.34568006 -2.3917353 1.4034303 -1.0708269
1.8604023 -1.0189004 1.7215819 3.5571587 0.27229214 -0.23310265 1.6119356 0.40363896
-2.192312 -1.1417972 0.51972187 -0.6384106 1.651177 -1.2476238 -0.4460803 -2.0494182
-2.06094 0.50788474 -1.1576041 4.0932264 1.7552655 -1.7353408 0.12330301 -0.64604914
-3.7545738 1.6203862 1.0348403 -0.20378655 -0.59511817 -1.353761 1.3330269 0.7684372
-0.6967319 1.5065722 -2.1573017 1.011199 -1.6968751 0.78671944 -0.5256055 -0.22862853
-1.1173356 -0.1458228 -0.64746857 -0.26757103 -1.059855 0.4258868 0.42241296 0.7800743
2.8416924 0.4856298 0.4201359 -0.25450996 0.90412086 0.052393652 -0.7937223 0.3150793
1.7267503 -1.3760779 -1.0961351 0.25644428 -0.52025425 -0.5019888 -0.19351333 0.5849046

conv2d_12/kernel f4 [96, 1, 1, 88]
00000000: b242 a5bd 7ca9 c93d f3f8 073e 5830 193e
00000010: 031d 04be cfed b8bc 3302 b13c 439a 473d
00000020: d41e f2bd c314 18be 5efb f53d 1288 ab3c
00000030: 595e 503c edd3 c2bd 7f9f 243e c05b c7bc
00000040: 613a 073c 5db1 98bd 83bd 2d3c e453 723d
00000050: ab6d 423e 6a2f 7b3d 4d8b 0abe 8fde 04be
00000060: 0f82 8fbc e465 013d eb5c 9d3d fe60 91bd
00000070: 98e2 e5bd dce3 043e a5d4 f93d fdde d73d
00000080: f99a 363c dd5a b6bc d39f 6ebc 57b5 46bd
00000090: 992a 01be a073 b13d 1774 98bd 6c39 9dbc
000000a0: ad62 97bd 393b 7a39 4789 cd3d dc3b 193e
000000b0: 5966 333c 9f28 8fbd 5ac6 4fbe 663c 0f3e
000000c0: e309 9fbd 3841 1b3d 5aec 233d d4ce 18bd
000000d0: 4758 8f3c 1d5a 783d 5fb6 2e3c 745b 973d
000000e0: 46f5 36be ae97 20be 44c9 21be b6aa 94bd
000000f0: b9c8 923d b5b9 193c 4145 7b3d bf74 2bbe
00000100: 147e 9d3d b429 c2bc 6fa8 0d3e 6c8f 9ebd
00000110: f67c fe3c 2af7 643d a391 2cbe 202a 073e
00000120: 6c47 e4bc 9e8d d8bb 1a3c f3bc 5746 293c
00000130: db86 ed3d 349c 8bbc 8598 acbc 60b5 f5bd
00000140: b9e5 c1bc 2bba ca3c 1477 62bd 83e1 063c
00000150: bb58 133e 15a0 2cbd f229 0fbe 3666 813d
00000160: 120f a03b 92bf 6a3d e6a7 c83b 80e9 4e3c
00000170: 580c 843c 5b10 8bbb 830b 9f3d c336 683e
00000180: 7366 40bd e1c4 753d 5486 d13c 0875 2abd
00000190: 8bf1 43bb 477e 913c 9b16 81bd e11b 37bd
000001a0: 9951 733d 4d8c 673c 6398 bcbd 140a 52bc
000001b0: 019a 2f3d e967 5d3d 0bba 163d b5e7 f53c
000001c0: 1c62 cf3d d93b b2bd 88ba eeba e5ad 5ebc
000001d0: e8a5 6f3c 8418 033d 9579 043d 7bbc 7abb
000001e0: 7238 903a 744c b9bd 3296 70bd f8ea 7fbc
000001f0: 2840 14bd d57b a1bd 75f7 673c 3634 c2bc
00000200: 660f 85bd bf0c f0bc 515a 26bd c69b 153d
00000210: 0a5b 973d 8f64 2cbd 8b69 bcbd 3f3b 21bc
00000220: 7e5e 113d 7423 7ebb 9131 61bd fff9 c3bd
00000230: 1206 5cbd 80ad 9c3c 7933 ba3d 491e 29bd
00000240: 9d8e f2bd e18d 133c e8e8 45bd 4192 3b3d
00000250: 0395 a73c 9399 e9bc 38c6 2b3c c647 523d
00000260: 010b 45bd 4b93 49bd c327 a83c 5d58 fa3a
00000270: 2d68 95bd 764f e5bd 0c82 a23d bebb 833b
00000280: e216 e13c dc27 cdbd 8efe 643d 1fcf a93c
00000290: 066f f9bc ca56 b0bd 2545 083d bb19 02bd
000002a0: f4af 8f3c d774 a23d 5ad6 f2bd 9c2f 583d
000002b0: 865c d9bd 12f3 64bd 09b2 cfbd edbd 6bbc
000002c0: 7028 b0bd 4554 5a3a ad72 813c 7afb 3fbd
000002d0: 0a98 85bc 4b89 a33d 0072 353d f215 76bd
000002e0: 37bf 7c3c 4885 7c3d 5664 1f3d 0c82 5bbd
000002f0: d708 743d 25b8 54bd ffc9 84bc ebfd 60bc
00000300: 2122 a9bc 6038 cfbd 143a ccbc 8065 bebd
00000310: d90b 8a3d 6006 ae3d fde2 513d bc41 463c
00000320: 7eb3 013e 7a16 ed3d e2e0 d7bc 5e0c 1b3d
00000330: c978 37bd a42f 93bd 303a ec3d d643 db3d
00000340: 660c d03d 392a e63b 32c4 61bd be82 cd3c
00000350: 3bc2 f5bc 7fa5 7f3c f821 05bc 74f3 c93c
00000360: 46d3 9dbd 1a13 c2bd 559b 983c c0ad 573d
00000370: 1bc7 e63d 143d d3bc 9315 31bd 9b69 bc3c
00000380: 2198 293d ce33 113c db94 95bb 45aa e4bc
00000390: 2ce0 373d a042 7c3c 8eb8 7f3d e7f0 dabd
000003a0: 1474 9a3c 44bc 00bd bd43 ef3c 74ed 01bc
000003b0: a037 d83c 062c 173d 679f 923a 918a b5bc
000003c0: 0519 9d38 5753 15bd e2a6 453d c960 803d
000003d0: aa64 2ebc 705b b1bd 3fab 823d 7a58 003c
000003e0: 5905 873b 251f dc3d c20e e8bd 0315 513d
000003f0: 2139 76bd 085b 023d b5e4 823c 496c 06bd
-0.08069362 0.0984678 0.1327856 0.14959848 -0.12901692 -0.022574333 0.021607494 0.0487311
-0.11822286 -0.1485167 0.12010835 0.020938907 0.012717807 -0.09513078 0.16076468 -0.024335742
0.008253665 -0.07455704 0.010604265 0.059162036 0.18987148 0.061324514 -0.13529702 -0.12975524
-0.017518071 0.03159131 0.07683738 -0.07098578 -0.1122486 0.12977546 0.12198762 0.105405785
0.011145347 -0.022260124 -0.014564472 -0.048512783 -0.12613906 0.08664632 -0.074440174 -0.01919242
-0.07391868 0.0002386392 0.10035949 0.14964241 0.010949695 -0.0699017 -0.20290509 0.13987884
-0.077655576 0.037903994 0.040020324 -0.03730662 0.017498149 0.060632814 0.010663598 0.0739049
-0.17867002 -0.15682861 -0.15799433 -0.07259123 0.07167191 0.009382655 0.061345343 -0.16743754
0.07690063 -0.023701526 0.13833784 -0.07742199 0.031065445 0.055899777 -0.16852431 0.13199663
-0.027866088 -0.006608679 -0.029691745 0.010331712 0.11597987 -0.017042257 -0.02106882 -0.11997485
-0.02366911 0.024746975 -0.055289343 0.008232477 0.14389317 -0.042144854 -0.13980845 0.06318323
0.004884609 0.057311602 0.0061235307 0.012628913 0.016119167 -0.004243893 0.077658676 0.2267714
-0.046972703 0.06000221 0.025576748 -0.041615516 -0.002989861 0.017760409 -0.0630314 -0.04470432
0.05940399 0.014132571 -0.09208753 -0.012819786 0.04287148 0.054054175 0.03679852 0.030017713
0.10126135 -0.08702821 -0.001821355 -0.013591264 0.0146269575 0.0320058 0.032342512 -0.0038259316
0.001100315 -0.090477854 -0.058736987 -0.015619986 -0.036193997 -0.07884947 0.014158119 -0.023706537
-0.06497078 -0.029302953 -0.040613476 0.03652551 0.07390411 -0.042088088 -0.09199818 -0.0098407855
0.035490505 -0.0038778456 -0.05497891 -0.09569167 -0.053716727 0.0191257 0.09091849 -0.041288648
-0.118436076 0.009005995 -0.04831782 0.045793775 0.020456797 -0.028515613 0.010484271 0.05133798
-0.048106197 -0.049212735 0.020526772 0.0019099821 -0.072952606 -0.111967966 0.07934961 0.0040201833
0.027476732 -0.10017368 0.055906825 0.020728646 -0.030448448 -0.08610304 0.033269066 -0.03176282
0.017539956 0.07932442 -0.118572906 0.05277978 -0.106133506 -0.055895872 -0.101413794 -0.014388544
-0.08601463 0.0008328597 0.015801752 -0.046870686 -0.01630785 0.07985171 0.044298172 -0.060079522
0.015426449 0.061650544 0.038914047 -0.05359082 0.059578743 -0.051933426 -0.0162096 -0.013732414
-0.020646157 -0.101181746 -0.024930038 -0.09296703 0.06740541 0.0849731 0.051241864 0.012100633
0.12666127 0.11576553 -0.02635235 0.03785359 -0.044792924 -0.07186821 0.11534536 0.10706298
0.10158615 0.0070240763 -0.055118747 0.025086757 -0.029999843 0.015603422 -0.008125775 0.02465222
-0.07706313 -0.094762996 0.018628756 0.052655935 0.11268445 -0.02578596 -0.043233465 0.022999575
0.041404847 0.008862449 -0.004564864 -0.027913222 0.04489152 0.015396744 0.062431864 -0.1069048
0.018854178 -0.031429544 0.029207105 -0.007930148 0.026393712 0.03690722 0.0011186422 -0.0221608
7.4910036e-05 -0.036456432 0.048254855 0.0626846 -0.010644117 -0.086600184 0.06380319 0.007833594
0.0041205105 0.10748128 -0.1133094 0.05104543 -0.060113076 0.031825095 0.015978197 -0.032818113
